models/trained_models/dscnn_mfcc/model_acc_79.6875.pth (torch_old, 110035 bytes, 56 tensors)

conv1.weight f4 [64, 1, 10, 4]
0.16525196 -0.074445724 -0.13305402 -0.045042608 0.14933597 -0.057577167 0.013380614 0.11692907
0.206362 0.07216852 -0.21625635 0.004523079 0.045640904 -0.09291858 -0.007253675 -0.0335091
0.10866579 -0.23413254 -0.1511203 0.063287936 0.102360405 -0.041636944 -0.20005462 0.01319458
-0.122353956 -0.12171782 -0.12579508 0.09425216 0.13699163 -0.062478922 0.13484336 0.026232973
0.04536772 -0.16182175 -0.028712688 0.11546169 -0.06235392 -0.017035132 0.2416942 -0.118109636
0.08746307 0.22966658 0.21543865 0.10624387 0.049647253 -0.10208271 0.034540053 0.24041882
-0.04580017 -0.15564866 0.019290756 -0.012704716 -0.037792932 -0.10812892 -0.23934183 0.044824943
-0.046832144 0.059386108 -0.060733113 -0.21007167 0.021693425 0.13713604 0.08864692 -0.08351712
-0.060248613 0.0409306 0.25905174 -0.040451698 -0.0036640246 -0.055119194 0.28462526 0.14931157
0.08045651 0.025579873 -0.007640983 0.07900547 0.019623423 -0.16541488 0.05966089 -0.11398949
0.017206503 0.16302705 -0.044744387 -0.09779123 -0.13680427 -0.002698464 -0.15773083 0.124892734
-0.02376656 -0.23828205 0.0417701 0.014789677 0.06462567 -0.3026973 -0.038332768 -0.014518799
-0.02316013 -0.36736158 -0.18465891 0.09155194 -0.044596907 -0.23262207 0.0062685465 -0.11726579
-0.13347025 0.10650557 -0.19145659 0.1642759 -0.09981886 -0.086286165 -0.05813047 -0.038230736
-0.041395456 -0.06556209 -0.20612359 -0.04649652 0.118513614 -0.096000135 -0.15645412 -0.11660304
-0.063766636 0.03250467 -0.11032343 -0.0077676945 -0.097171746 0.10814421 -0.12066574 0.04737505
0.1495716 0.12660927 -0.07376816 -0.05686686 0.07474383 0.106697515 -0.1226118 -0.256495
0.05617308 -0.12616473 -0.22404015 -0.24022958 -0.12921804 -0.08851959 -0.47941667 0.02377386
-0.076720506 0.091379546 0.07151827 -0.16374083 0.13277225 -0.066689916 -0.06402011 -0.1783702
-0.04101189 -0.12253807 0.12521632 -0.12707761 -0.14068758 -0.09276029 0.10702844 -0.0077179456
-0.0031069415 0.13915055 0.055420086 -0.12709573 0.011155146 0.1588502 -0.0013244182 -0.03325426
0.13939047 0.15454295 0.0030155887 0.09768033 -0.0115627 -0.030313397 0.068984285 0.041183513
-0.15494841 0.060969926 -0.19197199 0.13504352 -0.13006553 -0.2124985 -0.1795698 -0.05282233
-0.020016503 -0.098425314 0.00030047278 -0.10716591 -0.100759245 -0.18655328 0.10862401 0.032214213
0.04666026 0.102068886 -0.13327493 -0.09884046 -0.12171387 0.13880637 0.045998998 -0.0070963255
-0.19921997 -0.048122667 0.09129514 0.028148286 -0.080254145 -0.11463396 -0.14119944 0.10240182
-0.029275818 -0.17119765 -0.0699973 0.14980073 -0.067121655 -0.028005954 -0.041081503 0.13052557
0.090271726 -0.1300123 0.15808421 -0.074782304 0.15595351 0.0113897985 -0.0950703 0.02574468
0.09188293 -0.1319788 0.0025171726 0.2069148 0.14762773 0.0865737 -0.053870052 0.21376437
0.09269564 0.03238513 -0.0080092875 -0.0112329535 0.11252666 -0.1666631 -0.10572066 0.0061467984
0.016243914 0.03584084 0.22470975 -0.16397282 -0.020186694 0.08595883 -0.043645747 0.06791019
-0.10324753 0.07287085 -0.13249142 -0.21764272 -0.20830368 -0.10108282 -0.054471742 -0.055952556
00000000: cf37 293e 0077 98bd 503f 08be 997e 38bd
00000010: 87eb 183e 09d6 6bbd 5d3a 5b3c 8278 ef3d
00000020: 8f50 533e 17cd 933d 4e72 5dbe 5636 943b
00000030: f5f1 3a3d 194c bebd 3cb0 edbb d740 09bd
00000040: 2b8c de3d 71c0 6fbe 48bf 1abe 1b9d 813d
00000050: 55a2 d13d 808b 2abd 1edb 4cbe 142e 583c
00000060: b694 fabd 3147 f9bd 6dd0 00be 4707 c13d
00000070: 8947 0c3e e6e9 7fbd 6114 0a3e 88e6 d63c
00000080: 81d3 393d 9ab4 25be df36 ebbc 2e77 ec3d
00000090: d366 7fbd 438d 8bbc af7e 773e 77e3 f1bd
000000a0: d71f b33d b72d 6b3e f39b 5c3e 6396 d93d
000000b0: eb5a 4b3d bd10 d1bd df79 0d3d 5a30 763e
000000c0: f698 3bbd 5d62 1fbe a607 9e3c 7127 50bc
000000d0: c3cc 1abd b272 ddbd 0616 75be 5c9a 373d
000000e0: 10d3 3fbd d93e 733d 49c3 78bd 071d 57be
000000f0: 69b6 b13c 646d 0c3e 848c b53d 060b abbd
00000100: 40c7 76bd d8a6 273d 6ea2 843e aeb0 25bd
00000110: 2220 70bb aac4 61bd 67ba 913e 22e5 183e
00000120: 62c6 a43d e28c d13c 3661 fabb 9fcd a13d
00000130: 4dc1 a03c 8562 29be fa5e 743d 5273 e9bd
00000140: a7f4 8c3c 90f0 263e e445 37bd c546 c8bd
00000150: 6b16 0cbe b7d8 30bb 3184 21be c3c7 ff3d
00000160: 17b2 c2bc 3600 74be 2017 2b3d 6750 723c
00000170: 775a 843d 24fb 9abe d202 1dbd 42e0 6dbc
00000180: 50ba bdbc d116 bcbe 3a17 3dbe 957f bb3d
00000190: 3fab 36bd 7b34 6ebe 6168 cd3b 0c29 f0bd
000001a0: 6dac 08be 981f da3d 320d 44be f137 283e
000001b0: d56d ccbd cdb6 b0bd 371a 6ebd d597 1cbd
000001c0: 488e 29bd 6b45 86bd 1012 53be 2373 3ebd
000001d0: 44b7 f23d b89b c4bd 8235 20be 93cd eebd
000001e0: 1598 82bd 9e23 053d 40f1 e1bd 2588 febb
000001f0: fb01 c7bd b67a dd3d 991f f7bd 570c 423d
00000200: 4c29 193e dca5 013e c313 97bd 39ed 68bd
00000210: 4b13 993d 3a84 da3d e51b fbbd 5053 83be
00000220: be15 663d 5431 01be c86a 65be befe 75be
00000230: bc51 04be c249 b5bd 1a76 f5be 66c1 c23c
00000240: a41f 9dbd 3325 bb3d 2c78 923d adab 27be
00000250: 73f5 073e b994 88bd fa1c 83bd ada6 36be
00000260: 15fc 27bd 3df5 fabd b538 003e a220 02be
00000270: 6810 10be 1bf9 bdbd ba31 db3d d2e6 fcbb
00000280: d49d 4bbb 7b7d 0e3e 2c00 633d 6225 02be
00000290: 13c4 363c a0a9 223e 1a98 adba 9e35 08bd
000002a0: 60bc 0e3e 8240 1e3e 2fa1 453b a00c c83d
000002b0: 7b71 3dbc cd53 f8bc a247 8d3d 0bb0 283d
000002c0: ccaa 1ebe 9abb 793d 4e94 44be d948 0a3e
000002d0: e62f 05be 3599 59be 25e1 37be 3a5c 58bd
000002e0: a6f9 a3bc 3693 c9bd c688 9d39 cd79 dbbd
000002f0: dd5a cebd d307 3fbe 4476 de3d 0df3 033d
00000300: d41e 3f3d 7e09 d13d 3979 08be de6c cabd
00000310: 1f45 f9bd 4223 0e3e 7269 3c3d 4b88 e8bb
00000320: 5200 4cbe 461c 45bd f2f8 ba3d 3c97 e63c
00000330: 495c a4bd 36c5 eabd 9696 10be 0cb8 d13d
00000340: d7d3 efbc 704e 2fbe bf5a 8fbd 5d65 193e
00000350: 1477 89bd be6c e5bc 1445 28bd 7fa8 053e
00000360: 62e0 b83d f221 05be d4e0 213e 7727 99bd
00000370: 47b2 1f3e 479c 3a3c 38b4 c2bd 82e6 d23c
00000380: 1e2d bc3d 7325 07be 26f7 243b 79e1 533e
00000390: b92b 173e 8d4d b13d d8a6 5cbd 0ce5 5a3e
000003a0: 36d7 bd3d 45a6 043d 6339 03bc 6c0a 38bc
000003b0: 6174 e63d bba9 2abe 1384 d8bd 156b c93b
000003c0: f511 853c d8cd 123d 501a 663e 7ee8 27be
000003d0: 915e a5bc 2f0b b03d e2c5 32bd 7f14 8b3d
000003e0: 7173 d3bd 503d 953d d5ab 07be bcdd 5ebe
000003f0: 8f4d 55be 8204 cfbd c31d 5fbd 822e 65bd

conv1.bias f4 [64]
0.04956685 0.00038747923 -0.034459375 -0.080144264 0.03855873 0.12445039 -0.14799477 -0.05550256
0.12613875 -0.035221007 -0.1401171 0.05112603 -0.04191919 0.1557161 -0.049783308 0.04162973
-0.0705179 0.05981715 0.0714815 0.14517774 0.10829058 -0.14926958 0.089317545 -0.031403642
-0.05314178 -0.038737636 0.14016126 -0.013489303 0.1259477 -0.05471869 -0.13711616 0.07063061
0.14990242 -0.06106304 -0.14370549 0.008640923 -0.13255398 -0.038732752 -0.056961045 0.07733856
-0.14667578 0.10231447 -0.04841356 0.09294288 0.04312425 -0.11344805 0.1557756 -0.017292084
0.06512931 0.028120019 0.009432309 0.069856405 -0.032545283 0.09049005 -0.04883782 0.1034442
0.11434218 0.07558209 0.062617294 0.13879456 -0.05246531 0.051431138 0.104231924 0.04788064
00000000: 9c06 4b3d 9526 cb39 4625 0dbd ad22 a4bd
00000010: c2ef 1d3d d9df fe3d f18b 17be a756 63bd
00000020: 842a 013e e743 10bd db7a 0fbe 8769 513d
00000030: 75b3 2bbd 0b74 1f3e 95e9 4bbd f083 2a3d
00000040: b06b 90bd d402 753d e564 923d 79a9 143e
00000050: 74c7 dd3d 20da 18be 1eec b63d 1ba1 00bd
00000060: 32ab 59bd 5bab 1ebd 6f86 0f3e 3d02 5dbc
00000070: 6ff8 003e b520 60bd 2e68 0cbe c8a6 903d
00000080: 0580 193e 3d1d 7abd 8827 13be a892 0d3c
00000090: 3bbc 07be 3ca6 1ebd fc4f 69bd ae63 9e3d
000000a0: 2d32 16be 408a d13d 4c4d 46bd d658 be3d
000000b0: 0ea3 303d 7457 e8bd a483 1f3e 21a8 8dbc
000000c0: 8462 853d f45b e63c f989 1a3c e010 8f3d
000000d0: 344e 05bd d952 b93d 2a0a 48bd 8dda d33d
000000e0: 3c2c ea3d c8ca 9a3d 7f3d 803d 2920 0e3e
000000f0: dde5 56bd 75a9 523d 8c77 d53d 7d1e 443d

bn1.weight f4 [64]
1.0536824 1.0180026 1.0600649 1.0752856 0.87433785 0.90233546 1.1359651 1.0713834
0.9967764 0.9934593 0.93126714 1.1472229 0.97004044 1.1516542 0.9090775 0.98998415
1.1426134 1.0565977 1.0939338 1.0845885 1.1298815 0.9397041 1.0571063 1.1409872
0.9087719 0.93497205 0.8325681 1.0112442 1.0283628 1.3434871 1.0720662 1.1971042
1.0085405 1.4183683 1.050211 0.94341785 1.000589 0.80219585 0.91555035 1.0421104
0.89224464 0.9677798 0.8887604 1.3646759 0.90712214 0.9796259 1.203073 1.0097805
0.74208236 1.0874999 0.8545795 1.1890739 1.0234884 1.0172263 0.94676054 1.0673252
0.8192203 1.045788 0.92018235 1.033898 1.1369591 1.031586 0.92074955 1.0443367
00000000: 11df 863f e94d 823f 35b0 873f f5a2 893f
00000010: 9bd4 5f3f 75ff 663f 4e67 913f 1723 893f
00000020: bd2c 7f3f 5953 7e3f 8667 6e3f 33d8 923f
00000030: 9254 783f 6869 933f 4eb9 683f 9a6f 7d3f
00000040: 2841 923f 983e 873f 0606 8c3f ccd3 8a3f
00000050: f59f 903f 7390 703f 424f 873f de0b 923f
00000060: 46a5 683f 545a 6f3f 2f23 553f 7370 813f
00000070: 64a1 833f 63f7 ab3f 7739 893f b63a 993f
00000080: db17 813f 188d b53f 506d 863f d583 713f
00000090: 4d13 803f b55c 4d3f 8261 6a3f e063 853f
000000a0: 256a 643f 6bc0 773f cd85 633f b3ad ae3f
000000b0: 2839 683f c3c8 7a3f 4cfe 993f 7d40 813f
000000c0: 1cf9 3d3f 3233 8b3f b9c5 5a3f 9333 983f
000000d0: ab01 833f 7934 823f e65e 723f 1d9e 883f
000000e0: 6cb8 513f 62dc 853f 1291 6b3f c556 843f
000000f0: e087 913f 030b 843f 3eb6 6b3f d3ac 853f

bn1.bias f4 [64]
-0.022223974 0.052032042 -0.017958619 0.014318898 -0.12483062 -0.11882794 0.024214908 -0.020073796
-0.09073285 -0.046657216 -0.098849095 -0.0038831988 -0.056264803 -0.025662867 -0.11585573 -0.051521167
-0.0317628 -0.018362828 -0.033912774 0.006345217 0.0063816085 -0.09044452 0.035458844 0.031654563
-0.11056119 -0.10735925 -0.16223013 -0.040937837 -0.033995114 0.005533786 -0.042454883 0.030562142
-0.06194573 -0.011141901 -0.056687385 -0.084247 -0.07962236 -0.17585187 -0.13981953 -0.047109026
-0.13812737 0.07438185 -0.1401606 0.008224389 -0.1212928 -0.06477914 -0.0067117843 0.05310966
-0.25657678 -0.03071766 -0.1598372 -0.032361083 -0.018041784 -0.083045036 -0.096134886 -0.03761198
-0.19261903 -0.05117946 -0.12581861 -0.063148096 -0.012111016 0.04668039 -0.10341505 -0.05560512
00000000: 0d0f b6bc 8d1f 553d f41d 93bc d099 6a3c
00000010: 32a7 ffbd 105c f3bd 585e c63c cd71 a4bc
00000020: 25d2 b9bd a31b 3fbd 6571 cabd 447d 7ebb
00000030: ec75 66bd ef3a d2bc c545 edbd dc07 53bd
00000040: b619 02bd a46d 96bc 1fe8 0abd 8aeb cf3b
00000050: d01c d13b fa3a b9bd 4b3d 113d 37a8 013d
00000060: e86d e2bd 2bdf dbbd a81f 26be 6fae 27bd
00000070: 763e 0bbd c354 b53b 2ce5 2dbd 755d fa3c
00000080: ceba 7dbd 858c 36bc 0831 68bd b189 acbd
00000090: 0c11 a3bd 8312 34be da2c 0fbe 65f5 40bd
000000a0: 4371 0dbe 8355 983d 4386 0fbe 96bf 063c
000000b0: 5c68 f8bd edaa 84bd 87ee dbbb 8489 593d
000000c0: 085e 83be 9aa3 fbbc 5dac 23be 0e8d 04bd
000000d0: 5dcc 93bc 8413 aabd 5ee2 c4bd 050f 1abd
000000e0: ec3d 45be 8ea1 51bd 98d6 00be ca53 81bd
000000f0: 486d 46bc f033 3f3d 45cb d3bd 32c2 63bd

bn1.running_mean f4 [64]
-49.154354 89.145905 -286.06528 -222.24286 -47.300083 5.312786 -308.5381 -85.87372
43.010082 147.77269 -84.74427 -43.701046 85.577156 -306.23398 -46.274364 -141.49626
280.85782 138.23235 25.798143 0.7934773 60.99064 15.701254 -262.5434 13.098215
150.38145 23.410725 97.90621 25.803701 -171.4531 -101.69229 46.356964 41.099525
149.43002 201.12589 -65.55145 -160.7344 -111.25426 -156.8801 50.712654 33.966587
8.947339 -56.467033 63.1527 50.581547 104.21004 -150.43129 -7.308409 -97.762726
69.286736 15.531273 2.3033211 -79.59509 99.27376 45.324574 -34.11121 28.692701
51.697327 -133.4632 82.63441 -199.24416 -162.86848 -177.29698 -145.71011 108.67047
00000000: 0f9e 44c2 b44a b242 5b08 8fc3 2c3e 5ec3
00000010: 4933 3dc2 5802 aa40 e044 9ac3 58bf abc2
00000020: 530a 2c42 cfc5 1343 117d a9c2 dfcd 2ec2
00000030: 8127 ab42 f31d 99c3 f318 39c2 0b7f 0dc3
00000040: cd6d 8c43 7b3b 0a43 9962 ce41 5421 4b3f
00000050: 6af6 7342 5638 7b41 8e45 83c3 4a92 5141
00000060: a761 1643 2a49 bb41 fbcf c342 fb6d ce41
00000070: fe73 2bc3 7462 cbc2 886d 3942 ea65 2442
00000080: 166e 1543 3a20 4943 581a 83c2 02bc 20c3
00000090: 2e82 dec2 4ee1 1cc3 c2d9 4a42 c9dd 0742
000000a0: 4d28 0f41 3ede 61c2 5d9c 7c42 8153 4a42
000000b0: 8a6b d042 696e 16c3 7dde e9c0 8486 c3c2
000000c0: cf92 8a42 1880 7841 9d69 1340 b030 9fc2
000000d0: 2a8c c642 5d4c 3542 e171 08c2 a78a e541
000000e0: 10ca 4e42 9476 05c3 d144 a542 813e 47c3
000000f0: 55de 22c3 074c 31c3 cab5 11c3 4857 d942

bn1.running_var f4 [64]
1109.4866 647.059 2315.6357 2689.0298 678.99097 1857.0122 4940.894 2592.5325
1759.4165 2921.8606 692.2575 877.20996 968.3058 1934.7712 1263.7959 1077.5485
3684.6016 1469.8528 466.1553 5209.4067 1848.7526 1665.202 6400.1553 3380.691
2635.661 354.14856 1191.4008 4478.5977 879.4848 1065.4025 438.36945 1447.3031
3479.602 955.29553 1869.8259 1704.1117 833.071 1853.1453 1263.473 368.15787
375.74005 247.54172 961.9469 2555.21 599.0212 1209.0859 2561.978 1987.5486
723.37506 2726.2236 418.59256 5425.196 405.39386 1682.3508 1128.0338 803.9613
1897.2047 3223.1235 1174.5938 3574.4133 719.6147 4312.8086 1638.4231 876.4997
00000000: 92af 8a44 c7c3 2144 2cba 1045 7a10 2845
00000010: 6cbf 2944 6420 e844 2767 9a45 8508 2245
00000020: 54ed db44 c59d 3645 7b10 2d44 704d 5b44
00000030: 9213 7244 aed8 f144 78f9 9d44 8db1 8644
00000040: a049 6645 4abb b744 e113 e943 41cb a245
00000050: 1518 e744 7726 d044 3e01 c845 0e4b 5345
00000060: 93ba 2445 0413 b143 d3ec 9444 c8f4 8b45
00000070: 07df 5b44 e12c 8544 4a2f db43 b3e9 b444
00000080: a279 5945 ead2 6e44 6eba e944 9303 d544
00000090: 8b44 5044 a6a4 e744 23ef 9d44 3514 b843
000000a0: bade bb43 ae8a 7743 9a7c 7044 5cb3 1f45
000000b0: 5bc1 1544 c022 9744 a61f 2045 8e71 f844
000000c0: 01d8 3444 9463 2a45 d94b d143 9189 a945
000000d0: 6ab2 ca43 3a4b d244 1501 8d44 86fd 4844
000000e0: 8d26 ed44 fa71 4945 00d3 9244 9d66 5f45
000000f0: 57e7 3344 78c6 8645 8acd cc44 fb1f 5b44

conv2.weight f4 [64, 1, 3, 3]
0.40294755 -0.12674354 -0.033420224 0.06718084 -0.32699347 -0.2601464 0.22303347 0.011729556
0.29508972 -0.38870147 -0.09032909 0.1831978 0.24295664 -0.04221224 -0.0015429455 0.30841312
0.24468677 0.042147268 -0.17384228 -0.30685857 -0.112105645 0.22668938 0.15301973 -0.36190996
-0.23194662 0.15368648 -0.2875347 0.06060882 0.37088135 0.014836465 -0.2944793 0.086811736
0.23987593 0.24031591 0.17858642 -0.21925694 -0.1201752 0.3053356 0.027108474 0.32825878
0.31421182 -0.046708345 -0.029370554 0.10946197 -0.25345188 -0.0144437 0.17741925 0.10606131
-0.032014493 0.2549613 -0.049594183 -0.22475821 0.28802517 0.24386029 0.016619379 -0.15501447
-0.16889758 0.098679975 -0.300763 0.28729126 -0.2779659 -0.3784835 0.288319 -0.12934224
-0.20507501 -0.09996853 0.12358695 -0.13625379 -0.041223723 -0.09513304 -0.3612289 0.20165697
0.03560086 0.032870907 -0.23335399 0.27027875 -0.30222523 -0.5173367 -0.2252173 0.37258688
-0.32648456 -0.15980767 0.02169302 -0.17125799 0.43531978 0.10403734 0.24190523 0.25604984
-0.044151437 0.03990785 0.29821396 0.11694939 -0.23826742 -0.16957837 -0.24666111 0.032471187
0.14248747 -0.1681658 0.2457564 0.17069106 -0.09109672 -0.21622413 0.1431681 0.10678647
-0.060943324 0.08829751 -0.08432461 0.20375024 -0.18336815 -0.054438364 -0.024596393 -0.30725983
0.097969055 0.1319762 -0.25697917 0.035855453 0.052737586 0.07914864 0.2878931 0.02765919
-0.3127171 -0.2658775 0.15212573 0.12589923 0.21696766 -0.19957797 0.18571158 0.081614636
-0.206876 -0.15727758 -0.14469226 -0.27004343 -0.0057046195 -0.101913966 -0.13169259 -0.32159787
-0.09588132 0.1555268 -0.07365053 -0.03810934 0.2962161 0.1626219 0.05457821 0.34600422
-0.11422817 0.2229946 -0.09105036 -0.15881951 0.088059925 0.20893943 0.252072 -0.26393282
-0.04588485 0.21883324 -0.3073498 -0.30439612 -0.20395865 -0.21997288 0.02809326 -0.21257778
-0.04125301 -0.107015826 -0.10700111 0.05394678 -0.08531232 -0.3769665 0.1472975 -0.13812853
0.40523535 0.12293491 0.24015746 0.0050558546 0.33584476 0.012720137 0.12701803 -0.27390164
-0.03876502 -0.23406795 0.29653135 -0.1048 0.10160786 -0.0013776489 -0.22287169 -0.16650607
0.3055856 0.0642202 0.05622816 -0.009977227 -0.3081593 0.25013822 -0.3271618 -0.31761777
0.17798555 -0.25637105 0.036146615 0.14247201 -0.15274565 0.18215501 -0.23572586 -0.23037058
-0.08963906 0.33400396 0.13619983 -0.18268035 0.22352485 -0.019956464 -0.108410046 0.038998913
0.040529005 -0.060132645 0.011630894 -0.2315208 0.153848 -0.18212214 -0.2075801 0.055308588
-0.2327379 0.19469298 -0.092872106 -0.19814119 -0.22050974 -0.3658092 0.040688533 0.3069168
-0.43250233 0.29748088 0.2644639 0.03309726 -0.0872742 -0.12480571 0.26005843 0.10356983
-0.176348 0.17227726 -0.11850149 0.08314218 0.4323182 -0.2940294 -0.08058543 0.19361876
-0.14977811 0.18100955 -0.09965938 -0.06677226 0.32334515 0.12438926 -0.19155677 0.05219271
0.050901365 -0.2182635 0.048390385 0.3071363 -0.21258311 -0.07854485 0.019781318 -0.18998322
00000000: 244f ce3e 0fc9 01be a5e3 08bd 1c96 893d
00000010: b06b a7be e931 85be e362 643e 532d 403c
00000020: 0016 973e e103 c7be 75fe b8bd 3498 3b3e
00000030: a0c9 783e bee6 2cbd a93c caba 53e8 9d3e
00000040: 2b8f 7a3e 9da2 2c3d b603 32be 911c 9dbe
00000050: a597 e5bd 4321 683e 34b1 1c3e 434c b9be
00000060: 6a83 6dbe fd5f 1d3e c037 93be f440 783d
00000070: 29e4 bd3e a514 733c fec5 96be 5aca b13d
00000080: 09a2 753e 6015 763e 5cdf 363e e484 60be
00000090: 6a1e f6bd f354 9c3e 9712 de3c 8911 a83e
000000a0: 5fe0 a03e 4051 3fbd 849a f0bc 992d e03d
000000b0: 72c4 81be 45a5 6cbc 64ad 353e ac36 d93d
000000c0: a121 03bd 4a8a 823e 4523 4bbd 0427 66be
000000d0: 0978 933e 83b6 793e 5d25 883c 1dbc 1ebe
000000e0: 7df3 2cbe ba18 ca3d 9cfd 99be d717 933e
000000f0: 8c51 8ebe 97c8 c1be 8c9e 933e 4b72 04be
00000100: 2fff 51be 4dbc ccbd 281b fd3d 1d86 0bbe
00000110: 35da 28bd 1cd5 c2bd fff2 b8be 2a7f 4e3e
00000120: 35d2 113d a5a3 063d 59f4 6ebe fa61 8a3e
00000130: 44bd 9abe 2e70 04bf 5d9f 66be b5c3 be3e
00000140: fc28 a7be 9fa4 23be 8fb5 b13c 415e 2fbe
00000150: 3ce2 de3e 8711 d53d 01b6 773e f718 833e
00000160: 23d8 34bd 6a76 233d 80af 983e 2983 ef3d
00000170: 60fc 73be f4a5 2dbe bb94 7cbe 8200 053d
00000180: 3ce8 113e a833 2cbe 91a7 7b3e a3c9 2e3e
00000190: eb90 babd dc69 5dbe a99a 123e ddb2 da3d
000001a0: b59f 79bd 53d5 b43d 62b2 acbd e7a3 503e
000001b0: dcc4 3bbe c3fa 5ebd 607e c9bc 2951 9dbe
000001c0: 00a4 c83d c524 073e c692 83be 2bdd 123d
000001d0: 5e03 583d af18 a23d b966 933e 8795 e23c
000001e0: 751c a0be 1821 88be d9c6 1b3e baeb 003e
000001f0: c52c 5e3e 2b5e 4cbe 2d2b 3e3e 9325 a73d
00000200: 4dd7 53be 600d 21be 352a 14be 2243 8abe
00000210: d1ed babb 45b8 d0bd 6cda 06be 7aa8 a4be
00000220: 6d5d c4bd 6b42 1f3e 17d6 96bd 8a18 1cbd
00000230: a3a9 973e 5b86 263e 678d 5f3d 7727 b13e
00000240: 75f0 e9bd b258 643e 9c78 babd 95a1 22be
00000250: c358 b43d 38f4 553e 950f 813e 3422 87be
00000260: c1f1 3bbd d215 603e f45c 9dbe cfd9 9bbe
00000270: 89da 50be 9240 61be d623 e63c fdad 59be
00000280: ebf8 28bd 1d2b dbbd 6623 dbbd 4cf7 5c3d
00000290: 3ab8 aebd c101 c1be 28d5 163e 9171 0dbe
000002a0: 027b cf3e 4cc5 fb3d d6eb 753e 95ab a53b
000002b0: d8f3 ab3e 1f68 503c 0411 023e d63c 8cbe
000002c0: 12c8 1ebd 82af 6fbe f5d2 973e 62a1 d6bd
000002d0: c817 d03d 3a92 b4ba 7a38 64be 9180 2abe
000002e0: b775 9c3e e185 833d 804f 663d 8677 23bc
000002f0: 0ec7 9dbe 1e12 803e c081 a7be cc9e a2be
00000300: d841 363e 1143 83be 790e 143d 2fe4 113e
00000310: 5b69 1cbe d886 3a3e 1f62 71be 44e6 6bbe
00000320: af94 b7bd 9102 ab3e f877 0b3e 8f10 3bbe
00000330: b3e3 643e bd7b a3bc 1606 debd 53bd 1f3d
00000340: be01 263d a64d 76bd 818f 3e3c ca13 6dbe
00000350: 558a 1d3e 3a7e 3abe e18f 54be 428b 623d
00000360: d852 6ebe 995d 473e bb33 bebd 86e5 4abe
00000370: 4ecd 61be 584b bbbe 05a9 263d 3324 9d3e
00000380: f270 ddbe 6a4f 983e d067 873e fe90 073d
00000390: d1bc b2bd 239a ffbd 6126 853e 6b1c d43d
000003a0: 9294 34be 7369 303e e9b0 f2bd 7346 aa3d
000003b0: d058 dd3e 068b 96be f909 a5bd ff43 463e
000003c0: 6f5f 19be 915a 393e 381a ccbd e5bf 88bd
000003d0: 7f8d a53e ccbf fe3d 7527 44be 06c8 553d
000003e0: f37d 503d 7880 5fbe ff34 463d f840 9d3e
000003f0: 63af 59be 1fdc a0bd 6e0c a23c f68a 42be

conv2.bias f4 [64]
0.071794115 0.2272734 -0.23452714 -0.081495784 -0.29935926 -0.14023466 -0.18008482 -0.21297002
-0.03125971 -0.020529177 -0.27521133 0.21623628 -0.1653034 -0.19992578 0.14671917 0.13414517
0.19483767 0.0690515 0.06704895 -0.13203901 -0.06716143 0.16264135 -0.1420397 -0.15245286
-0.29321456 0.22898903 -0.2424939 -0.21024577 0.16107821 -0.078450225 0.10394318 0.24381103
-0.1673244 -0.04571749 -0.13096829 -0.23834501 -0.11669968 -0.07568583 -0.2078077 -0.04172088
0.17240566 0.19263293 0.18189405 0.0331599 0.3602532 -0.24724753 0.008636596 0.17073351
-0.12054232 0.3194474 -0.23337778 0.0034870147 0.077728935 -0.35144708 0.17420238 -0.07409868
0.20278707 -0.21943606 -0.34112114 -0.15288204 -0.20022348 -0.28518468 -0.024636758 0.31625473
00000000: cb08 933d 5cba 683e e227 70be 43e7 a6bd
00000010: 9e45 99be ad99 0fbe 2868 38be d014 5abe
00000020: 2f0a 00bd ce2c a8bc 80e8 8cbe 0b6d 5d3e
00000030: 4b45 29be 58b9 4cbe 8d3d 163e 5a5d 093e
00000040: 8783 473e df6a 8d3d f650 893d 3c35 07be
00000050: ef8b 89bd 748b 263e db72 11be 9a1c 1cbe
00000060: 3820 96be 1a7c 6a3e 5250 78be ab4a 57be
00000070: b0f1 243e 83aa a0bd 29e0 d43d 99a9 793e
00000080: 1657 2bbe 4342 3bbd 8d1c 06be b710 74be
00000090: 3e00 efbd 2c01 9bbd 8bcb 54be 83e3 2abd
000000a0: 1c8b 303e 9141 453e 6f42 3a3e add2 073d
000000b0: 1c73 b83e 752e 7dbe 8280 0d3c c4d4 2e3e
000000c0: e4de f6bd 9c8e a33e 96fa 6ebe 6686 643b
000000d0: 5930 9f3d dff0 b3be 1c62 323e 0cc1 97bd
000000e0: 6aa7 4f3e d9b3 60be 6ea7 aebe 1c8d 1cbe
000000f0: 6207 4dbe ba03 92be 07d3 c9bc 24ec a13e

bn2.weight f4 [64]
0.9752651 0.94798326 0.9995453 0.93026537 0.9441041 0.93614006 0.9077268 0.856956
1.1850399 0.8407635 0.9565985 0.9591591 0.89580995 0.8672395 0.94369936 0.9239396
1.1867678 0.9425218 1.0436294 0.95533186 0.92457885 1.014463 0.8653389 1.0961218
0.96809185 1.0571572 0.97102356 0.8793121 0.865144 0.9958275 0.9523908 1.0839977
1.0313183 0.96666706 0.96778107 0.89497906 1.0974458 0.9107637 1.1586486 0.906985
1.0860529 1.0203048 1.0222248 1.0755892 1.1286186 0.9002298 1.0718156 0.90308076
1.132822 1.2509972 1.1424903 0.9087562 1.0045469 0.9217107 1.06688 1.0335684
1.0412954 0.96671516 1.0136309 0.85114264 1.0392205 0.881852 0.92342806 0.91393834
00000000: f9aa 793f 08af 723f 33e2 7f3f df25 6e3f
00000010: ceb0 713f e0a6 6f3f c960 683f 7861 5b3f
00000020: 63af 973f 473c 573f a4e3 743f 738b 753f
00000030: cd53 653f 6803 5e3f 4896 713f 4e87 6c3f
00000040: 02e8 973f 1c49 713f a695 853f a190 743f
00000050: 33b1 6c3f ecd9 813f da86 5d3f b84d 8c3f
00000060: ded4 773f ed50 873f 0095 783f 991a 613f
00000070: 147a 5d3f 8dee 7e3f e2cf 733f 70c0 8a3f
00000080: 3d02 843f 7e77 773f 80c0 773f 591d 653f
00000090: 1b79 8c3f cf27 693f 994e 943f 2b30 683f
000000a0: c803 8b3f 5999 823f 43d8 823f e8ac 893f
000000b0: 9376 903f 7675 663f 4131 893f 4d30 673f
000000c0: 5000 913f ad20 a03f 1f3d 923f 3fa4 683f
000000d0: fe94 803f 3cf5 6b3f 868f 883f f84b 843f
000000e0: 2b49 853f a57a 773f a8be 813f 7ce4 593f
000000f0: 2d05 853f 0dc1 613f c865 6c3f ddf7 693f

bn2.bias f4 [64]
-0.036654137 -0.11438238 0.00985384 -0.060011975 -0.07596689 -0.034193773 -0.04278783 -0.07475225
0.07798524 -0.10749873 -0.087968215 -0.036740143 -0.08812677 -0.09356869 -0.07508806 -0.12888457
0.27774537 -0.062499456 0.048911646 0.008614995 -0.053484034 -0.049115382 -0.08560838 0.03940158
-0.016870849 0.04755821 0.008663231 -0.106345415 -0.09366376 -0.01626742 -0.043544993 0.04280199
0.005387933 -0.07608711 0.061508488 -0.078846656 0.076003574 -0.045056935 0.066727675 -0.06639077
0.032963358 0.17585318 -0.0784665 0.14015931 -0.024597095 -0.030671315 0.018633675 -0.048264254
-0.11031222 0.08553099 -0.056383584 -0.08785485 0.0054601296 -0.07894063 -0.057628874 0.05857274
-0.05947025 -0.064702615 -0.07893572 -0.12580211 -0.036227927 -0.09289391 -0.11324144 -0.08898957
00000000: a622 16bd 4f41 eabd 0072 213c 1ecf 75bd
00000010: 8794 9bbd c50e 0cbd 4b42 2fbd b517 99bd
00000020: bab6 9f3d 4b28 dcbd ae28 b4bd d57c 16bd
00000030: cf7b b4bd f1a0 bfbd c5c7 99bd 51fa 03be
00000040: a434 8e3e 6eff 7fbd 9457 483d e825 0d3c
00000050: 1312 5bbd 362d 49bd 7253 afbd 8d63 213d
00000060: bc34 8abc 66cc 423d 39f0 0d3c a0cb d9bd
00000070: c9d2 bfbd 4143 85bc 3c5c 32bd 2451 2f3d
00000080: 428d b03b 8fd3 9bbd 53f0 7b3d 5b7a a1bd
00000090: c3a7 9b3d 9f8d 38bd 85a8 883d e2f7 87bd
000000a0: 9604 073d db12 343e 0bb3 a0bd ec85 0f3e
000000b0: d97f c9bc 6942 fbbc a6a5 983c bdb0 45bd
000000c0: 60eb e1bd df2a af3d 79f2 66bd 3eed b3bd
000000d0: e3ea b23b a0ab a1bd 410c 6cbd f8e9 6f3d
000000e0: 1497 73bd ce82 84bd 0da9 a1bd 45d2 00be
000000f0: bc63 14bd 2a3f bebd 21eb e7bd 2a40 b6bd

bn2.running_mean f4 [64]
0.14999932 0.4025722 -0.37044862 0.1996783 -0.11666654 0.053143818 -0.42187053 -0.47562915
-0.31750444 0.1459607 -0.3258154 0.25710946 -0.3314616 -0.20765479 0.02518626 0.27013102
0.22031726 -0.22586225 0.1626776 -0.04456615 -0.13394642 0.06526457 -0.30221686 -0.2907829
-0.48942828 0.40547484 -0.23075566 0.10209424 -0.08112756 -0.23744991 0.40391305 0.05089026
-0.20428579 0.18597357 -0.110131845 0.05949675 -0.0044201883 -0.19149971 -0.08915906 -0.0012344093
0.19822614 -0.1061279 0.07282967 -0.012063815 0.41883767 -0.3755093 -0.101995505 0.18809624
-0.11475147 0.14377171 -0.2585806 -0.038963147 0.07586577 -0.5087622 0.17384323 -0.24149375
0.26012653 -0.047167428 -0.27262118 -0.40014443 -0.28127882 -0.07675412 0.02172137 0.43525416
00000000: 6c99 193e f21d ce3e 71ab bdbe 7878 4c3e
00000010: deee eebd 55ad 593d 6aff d7be aa85 f3be
00000020: f18f a2be b976 153e 47d1 a6be daa3 833e
00000030: 56b5 a9be 75a3 54be 6a53 ce3c 9d4e 8a3e
00000040: d99a 613e 6f48 67be f594 263e ff8a 36bd
00000050: 4029 09be 6ea9 853d 2bbc 9abe 7fe1 94be
00000060: 5896 fabe 669a cf3e 364b 6cbe c916 d13d
00000070: 3526 a6bd 1226 73be b1cd ce3e 4e72 503d
00000080: 4b30 51be db6f 3e3e ce8c e1bd ddb2 733d
00000090: 3ad7 90bb 8018 44be 0699 b6bd e7cb a1ba
000000a0: cbfb 4a3e 9659 d9bd b927 953d 4fa7 45bc
000000b0: e471 d63e c142 c0be 05e3 d0bd 4d9c 403e
000000c0: d202 ebbd e438 133e ad64 84be d297 1fbd
000000d0: 835f 9b3d 3d3e 02bf f603 323e 234a 77be
000000e0: 4e2f 853e a232 41bd 0195 8bbe bbdf ccbe
000000f0: c703 90be 4431 9dbd 04f1 b13c a2d9 de3e

bn2.running_var f4 [64]
0.09693226 0.023124473 0.12108524 0.22503063 0.08044054 0.052343383 0.47901288 0.25203648
0.07631843 0.026715135 0.06000952 0.06901857 0.057310667 0.106716916 0.11134542 0.1360484
0.0044942456 0.15372658 0.024496825 0.044047203 0.26834816 0.06504841 0.13343036 0.04283609
0.081102155 0.017974311 0.030295739 0.15340392 0.4125943 0.18750866 0.08977781 0.062899634
0.04222888 0.058217634 0.034394976 0.25221 0.013285973 0.14108813 0.013290343 0.03631066
0.014222866 0.10648709 0.008856172 0.014538228 0.00839275 0.20318657 0.021874676 0.044203382
0.003412508 0.05510593 0.013430074 0.37765294 0.007018376 0.053193197 0.014426834 0.06918022
0.00469727 0.10723636 0.012285747 0.19215713 0.0819087 0.29404917 0.1129612 0.010413611
00000000: 6c84 c63d 896f bd3c 8afb f73d 6e6e 663e
00000010: 03be a43d 0466 563d 2d41 f53e ed0a 813e
00000020: d64c 9c3d b3d9 da3c 8bcc 753d 9c59 8d3d
00000030: 97be 6a3d 668e da3d 1109 e43d 4650 0b3e
00000040: 7744 933b 806a 1d3e 91ad c83c d76a 343d
00000050: ee64 893e 1a38 853d f8a1 083e e574 2f3d
00000060: e318 a63d dd3e 933c c52e f83c eb15 1d3e
00000070: 8f3f d33e 4502 403e 6edd b73d 86d1 803d
00000080: 31f8 2c3d 9d75 6e3d bfe1 0c3d ab21 813e
00000090: 69ad 593c 6879 103e bdbf 593c 7dba 143d
000000a0: 0607 693c e715 da3d 7a19 113c bf31 6e3c
000000b0: bf81 093c 2410 503e 8532 b33c 9b0e 353d
000000c0: 62a4 5f3b c1b6 613d d009 5c3c ba5b c13e
000000d0: 68fa e53b 1ce1 593d 875e 6c3c 5cae 8d3d
000000e0: 8feb 993b bd9e db3d 284a 493c d7c4 443e
000000f0: c0bf a73d 9d8d 963e 3458 e73d da9d 2a3c

conv3.weight f4 [64, 64, 1, 1]
0.08132448 -0.08436688 0.020500556 -0.093809485 0.09791691 -0.03397517 -0.0266629 -0.045637734
-0.059495416 0.058823276 -0.12791188 -0.14150523 0.01708769 -0.08712119 -0.12781416 -0.040198263
-0.16572113 0.069759935 0.20723504 -0.08676838 -0.044667177 -0.053152934 0.06608964 0.12288273
-0.08408593 0.11262268 0.062386572 0.045540974 0.06698731 0.15009283 0.058438387 -0.08211344
0.04369604 0.0616518 0.118314825 0.0135705145 0.025389694 0.1619846 0.025344413 0.005145653
0.075586095 -0.0645648 -0.119420126 0.09081066 -0.014401604 0.026752392 -0.04445291 0.04821179
-0.2816632 0.05564424 0.122440465 0.09093895 -0.057896614 0.090245605 0.088486284 -0.055663485
-0.03244412 -0.041496698 -0.061355747 0.025753506 -0.037700865 -0.07433453 0.06269238 0.095366225
-0.02967476 0.035685983 0.1554601 0.011447995 0.11211458 -0.044630423 -0.016319487 0.038551636
0.19296972 0.038442004 0.14238791 0.13366982 -0.0028879 0.0033078068 0.12645438 -0.10678686
-0.089112185 -0.12567288 0.115172476 -0.045865096 -0.09092414 -0.10356725 0.13505104 0.010760638
-0.050036155 -0.09016779 -0.02315421 0.033965264 0.11092123 -0.01802425 0.03144453 -0.07474638
0.03303254 -0.12133834 0.04823408 -0.09891697 0.008693696 0.111423165 0.028676258 0.13801865
0.03398923 0.053967748 -0.09913672 0.16955622 0.26652357 -0.056472108 0.058699023 -0.036982052
-0.04218535 -0.2830627 -0.12957941 0.033070352 0.028161846 0.019741148 -0.038318537 -0.32194912
-0.07650665 0.14166254 -0.018202053 0.016435007 0.021898601 -0.054842543 0.066199966 0.06120123
0.046512607 -0.09101061 0.036488984 -0.15854128 -0.03489972 0.0791232 -0.10004923 0.03696648
0.08477426 0.010263504 -0.046535634 0.13887118 0.03697912 -0.063698776 0.0203025 0.024262683
0.037675068 -0.10767061 0.06887123 0.008600357 -0.103145964 -0.0640425 -0.060085874 -0.1971041
0.03082361 -0.020711135 0.11126341 -0.13725834 0.06713577 0.11646076 0.15280622 -0.09548936
-0.057905473 0.07597185 -0.050475348 0.04768645 0.06571308 0.12248898 0.2169774 0.010863906
0.12870632 -0.13101657 -0.079953946 -0.012560779 0.2108835 -0.009438439 0.053556584 -0.0359131
-0.2899259 0.0033561862 -0.15628982 -0.0012324777 0.035418447 0.09588319 0.09116121 0.13275139
-0.10300843 0.076809 0.09895415 -0.10009568 -0.100180574 0.04260901 0.09125884 0.010495221
0.13912421 -0.11725532 0.09303671 0.089588806 0.19824979 0.12669808 0.09912587 -0.049033523
0.021145742 -0.040715974 -0.04191438 0.035313144 0.089608416 0.119956665 -0.0037961162 0.12853085
0.052055396 0.14208102 0.10602907 0.1527164 0.10829736 0.013662836 -0.069714144 -0.077079564
0.16566071 -0.008098704 0.018347248 -0.08989013 -0.09171172 -0.09250454 0.1932296 0.23361762
-0.032203335 0.1413425 -0.18478787 0.110069804 -0.09367303 -0.093288794 0.14851907 -0.12204049
0.07806901 -0.052948944 0.16639192 -0.09531553 -0.062537886 0.13478257 0.07885556 0.044505212
-0.17312786 0.03371936 0.18735754 0.10445209 -0.07586349 0.027335599 0.043483287 -0.023113148
0.020340431 -0.070388615 0.002310979 -0.019050041 0.0753127 -0.010976323 0.119161375 -0.008927031
00000000: 738d a63d 8bc8 acbd c8f0 a73c 301f c0bd
00000010: a988 c83d 8c29 0bbd 276c dabc a2ee 3abd
00000020: 77b1 73bd adf0 703d 55fb 02be bfe6 10be
00000030: 7cfb 8b3c 986c b2bd b7e1 02be efa6 24bd
00000040: cdb2 29be 4cde 8e3d 6c35 543e 9fb3 b1bd
00000050: eef4 36bd e4b6 59bd 015a 873d f1a9 fb3d
00000060: 3e35 acbd b8a6 e63d 1089 7f3d 2c89 3a3d
00000070: a530 893d efb1 193e 175d 6f3d 172b a8bd
00000080: 9efa 323d 9986 7c3d 0b4f f23d dd56 5e3c
00000090: 0cfe cf3c 4adf 253e 169f cf3c de9c a83b
000000a0: e2cc 9a3d 8d3a 84bd 8a92 f4bd f0fa b93d
000000b0: b5f4 6bbc d527 db3c 4114 36bd ba79 453d
000000c0: 2936 90be 37eb 633d 11c2 fa3d 333e ba3d
000000d0: 0025 6dbd b0d2 b83d 4c38 b53d 65ff 63bd
000000e0: 20e4 04bd 71f8 29bd 2a50 7bbd 04f9 d23c
000000f0: 396c 1abd b43c 98bd dd64 803d 5e4f c33d
00000100: 7b18 f3bc 772b 123d ef30 1f3e 5f90 3b3c
00000110: 549c e53d 64ce 36bd 72b0 85bc 52e8 1d3d
00000120: db99 453e 5d75 1d3d 23ce 113e bee0 083e
00000130: ec42 3dbb cac7 583b 427d 013e 12b3 dabd
00000140: 7380 b6bd 64b0 00be 8cdf eb3d 0add 3bbd
00000150: 6f36 babd 111b d4bd d24a 0a3e 634d 303c
00000160: b6f2 4cbd e4a9 b8bd e6ad bdbc 291f 0b3d
00000170: ab2a e33d 98a7 93bc fbcb 003d a114 99bd
00000180: 214d 073d 3c80 f8bd 1991 453d fb94 cabd
00000190: 0170 0e3c d431 e43d 79ea ea3c c354 0d3e
000001a0: 4a38 0b3d 490d 5d3d 3108 cbbd 25a0 2d3e
000001b0: c775 883e 4c4f 67bd 636e 703d 7e7a 17bd
000001c0: 8cca 2cbd 98ed 90be 77b0 04be c774 073d
000001d0: acb3 e63c 30b8 a13c e6f3 1cbd 84d6 a4be
000001e0: 85af 9cbd fc0f 113e 791c 95bc b5a2 863c
000001f0: b264 b33c 93a2 60bd d993 873d 24ae 7a3d
00000200: 0184 3e3d c563 babd 7975 153d a558 22be
00000210: 02f3 0ebd 580b a23d 9ce6 ccbd 2a6a 173d
00000220: 219e ad3d 4228 283c 269c 3ebd 3f34 0e3e
00000230: 6b77 173d 8174 82bd 6e51 a63c 89c2 c63c
00000240: 2c51 1a3d 6982 dcbd 5c0c 8d3d 83e8 0c3c
00000250: 313e d3bd b728 83bd 9b1c 76bd a8d5 49be
00000260: cc81 fc3c 66aa a9bc 12de e33d 738d 0cbe
00000270: 7b7e 893d fb82 ee3d 3c79 1c3e ed8f c3bd
00000280: 4a2e 6dbd 2197 9b3d 3dbf 4ebd de52 433d
00000290: 9494 863d 81db fa3d 532f 5e3e 86fe 313c
000002a0: 97cb 033e 3529 06be e5be a3bd bacb 4dbc
000002b0: d8f1 573e afa3 1abc 265e 5b3d 9d19 13bd
000002c0: 2b71 94be 76f3 5b3b 700a 20be 178b a1ba
000002d0: ef12 113d 685e c43d bab2 ba3d fbef 073e
000002e0: 15f6 d2bd 094e 9d3d 79a8 ca3d f7fe ccbd
000002f0: 792b cdbd c986 2e3d eae5 ba3d 26f4 2b3c
00000300: 9476 0e3e 8f23 f0bd 088a be3d 567a b73d
00000310: fe01 4b3e 24bd 013e 8102 cb3d 60d7 48bd
00000320: d639 ad3c cbc5 26bd 6aae 2bbd 84a4 103d
00000330: 9e84 b73d d7ab f53d 43c8 78bb 979d 033e
00000340: 0a38 553d b07d 113e c525 d93d b061 1c3e
00000350: 02cb dd3d 16da 5f3c 4ac6 8ebd e4db 9dbd
00000360: f6a2 293e 6db0 04bc f84c 963c 5118 b8bd
00000370: 5bd3 bbbd 0573 bdbd fbdd 453e 7539 6f3e
00000380: a5e7 03bd 17bc 103e 0839 3dbe 476c e13d
00000390: a5d7 bfbd 320e bfbd 6215 183e 5df0 f9bd
000003a0: a5e2 9f3d fee0 58bd a562 2a3e ca34 c3bd
000003b0: dd13 80bd 7104 0a3e 067f a13d 194b 363d
000003c0: 6e48 31be 501d 0a3d a8da 3f3e faea d53d
000003d0: 515e 9bbd e8ee df3c 881b 323d c957 bdbc
000003e0: faa0 a63c e827 90bd cb73 173b d50e 9cbc
000003f0: 8b3d 9a3d 09d6 33bc e10a f43d af42 12bc

conv3.bias f4 [64]
-0.09376763 0.05747776 0.035419255 -0.08144192 0.07929384 0.1549991 0.06745239 0.054219127
-0.05934559 0.019456467 -0.034651313 -0.0073727746 -0.09336713 0.061711896 0.02345106 -0.00044622662
-0.08046617 0.123544686 0.06358504 -0.0514897 -0.016093958 -0.00471709 -0.06819456 -0.104123086
-0.061746437 0.025675077 0.10555689 0.06069413 0.0317815 0.018037645 0.10236778 0.00019147314
0.105388544 0.09078313 -0.117968164 0.098941214 0.039095886 -0.07725083 0.12658569 0.12146969
-0.07025634 0.12106912 -0.041625194 -0.0913171 -0.0073939273 -0.03229724 0.05483793 -0.045089178
0.022525312 0.021653693 0.016434427 0.018330388 0.07927216 0.009594681 0.0171105 0.08001167
0.020137291 0.051558577 0.0642314 -0.1170654 0.0039563845 -0.11465489 0.12604162 -0.060405448
00000000: 3e09 c0bd cd6d 6b3d c813 113d 05cb a6bd
00000010: cf64 a23d 16b8 1e3e 7b24 8a3d e014 5e3d
00000020: 5d14 73bd 2b63 9f3c 89ee 0dbd 5197 f1bb
00000030: 4437 bfbd 9dc5 7c3d 701c c03c 86f3 e9b9
00000040: 73cb a4bd ff04 fd3d e038 823d dde6 52bd
00000050: 7ad7 83bc d291 9abb 97a9 8bbd 7c3e d5bd
00000060: d5e9 7cbd 8a54 d23c 362e d83d 689a 783d
00000070: 512d 023d afc3 933c 33a6 d13d 2ec6 4839
00000080: f3d5 d73d 81ec b93d 4b99 f1bd b1a1 ca3d
00000090: 0223 203d af35 9ebd ae9f 013e 1ac5 f83d
000000a0: 8ee2 8fbd 16f3 f73d 2e7f 2abd 7604 bbbd
000000b0: c248 f2bb 1c4a 04bd bd9d 603d 6eaf 38bd
000000c0: 0187 b83c 1663 b13c 7ea1 863c 9c29 963c
000000d0: 7159 a23d 0233 1d3c 522b 8c3c 29dd a33d
000000e0: f6f6 a43c 162f 533d c18b 833d fcbf efbd
000000f0: 8fa4 813b 2fd0 eabd 0e11 013e b46b 77bd

bn3.weight f4 [64]
0.8930986 0.89449227 1.0361189 0.9751309 1.0877378 0.96097684 0.94394785 0.93077314
0.90756327 1.0755999 1.0218409 0.9886359 1.0769253 1.0204501 1.1675949 1.0857575
1.0382967 1.1425477 1.013657 0.98466444 0.9784648 0.9774206 1.0672251 1.1084579
1.1213683 0.9476105 1.1224254 1.0611153 0.84279835 0.92889476 1.1846956 0.95434374
1.0510491 1.0439167 0.9750896 1.1350248 1.0405495 0.8579513 1.1226343 1.0955639
1.0188335 1.1252079 1.1168132 1.0694118 0.9438963 1.0769515 1.134995 0.9052192
1.1280346 1.0650787 1.1000324 0.85339344 0.9867178 1.1319886 0.93558997 1.15593
0.76944965 0.97273695 0.8922715 1.1260166 1.0088515 1.043208 1.1144809 1.095218
00000000: 1ca2 643f 72fd 643f 8b9f 843f 2ea2 793f
00000010: fe3a 8b3f 9402 763f 91a6 713f 2647 6e3f
00000020: 1156 683f 42ad 893f afcb 823f 3e17 7d3f
00000030: b0d8 893f 1c9e 823f c073 953f 1afa 8a3f
00000040: e8e6 843f 013f 923f 83bf 813f f812 7c3f
00000050: ab7c 7a3f 3d38 7a3f d59a 883f f3e1 8d3f
00000060: ff88 8f3f 9a96 723f a3ab 8f3f a0d2 873f
00000070: a2c1 573f 0ccc 6d3f 1ba4 973f df4f 743f
00000080: c788 863f 109f 853f 799f 793f 7e48 913f
00000090: ba30 853f b2a2 5b3f 7bb2 8f3f 703b 8c3f
000000a0: 2369 823f d006 903f bcf3 8e3f 7ce2 883f
000000b0: 30a3 713f 8cd9 893f 8447 913f 72bc 673f
000000c0: 7063 903f 8054 883f ddcd 8c3f fe77 5a3f
000000d0: 8a99 7c3f 01e5 903f d382 6f3f 84f5 933f
000000e0: a7fa 443f 4a05 793f e86b 643f 5021 903f
000000f0: 0c22 813f d787 853f 4fa7 8e3f 1a30 8c3f

bn3.bias f4 [64]
-0.1250553 -0.13792336 0.0494091 -0.079200536 -0.026020156 -0.092412494 -0.09303908 -0.089217715
-0.10968677 -0.028314322 -0.062271632 0.073873796 0.014704115 0.06777156 -0.037410155 -0.0121117905
0.017770853 -0.0191323 0.06582879 -0.07332484 0.07857241 0.058478687 -0.06506792 0.002314914
-0.03607137 -0.0939876 -0.009305591 -0.0027208203 -0.17336248 -0.10145741 -0.004972995 0.100432366
-0.008344699 -0.05073347 0.08605528 0.04245781 -0.10108452 -0.15702978 0.025696224 0.034553427
0.055677824 -0.054289736 -0.011261759 0.040594425 -0.113466315 -0.004912299 -0.008098467 -0.15253676
-0.023046624 0.070393115 -0.06490084 -0.18348959 -0.08330341 0.006059412 -0.12260599 -0.018567529
-0.21174835 -0.063503124 -0.123155035 0.034422528 0.07413413 -0.0287819 0.04841311 -0.044352304
00000000: 7f0e 00be c83b 0dbe 3261 4a3d e433 a2bd
00000010: 3928 d5bc c342 bdbd 468b bebd c7b7 b6bd
00000020: 75a3 e0bd 70f3 e7bc 8a10 7fbd 254b 973d
00000030: 87e9 703c d1cb 8a3d 643b 19bd 8870 46bc
00000040: 2e94 913c 57bb 9cbc 3fd1 863d 552b 96bd
00000050: 92ea a03d 5987 6f3d 5442 85bd d0b5 173b
00000060: 93bf 13bd 927c c0bd 7a76 18bc ca4f 32bb
00000070: ef85 31be e7c8 cfbd 81f4 a2bb 7caf cd3d
00000080: 34b8 08bc e6cd 4fbd c03d b03d 3ee8 2d3d
00000090: 6705 cfbd 6acc 20be e380 d23c e587 0d3d
000000a0: 6e0e 643d ea5e 5ebd 3e83 38bc 5746 263d
000000b0: 0761 e8bd 5af7 a0bb 6faf 04bc 9932 1cbe
000000c0: 46cc bcbc 442a 903d bbea 84bd b2e4 3bbe
000000d0: fa9a aabd 088e c63b d918 fbbd ee1a 98bc
000000e0: 8fd4 58be ed0d 82bd b538 fcbd a3fe 0c3d
000000f0: a2d3 973d 05c8 ebbc d34c 463d c3aa 35bd

bn3.running_mean f4 [64]
-0.028382985 0.16205005 0.18522187 0.60311455 -0.18744852 0.12659222 -0.039983395 -0.24967074
-0.30561602 -0.4961936 0.03710937 -0.10447093 -0.31114236 -0.14490059 -0.07020555 -0.24983217
0.04121773 0.19943193 -0.025109166 -0.14224808 -0.7716652 -0.3268359 -0.14261052 -0.1266615
-0.27712384 -0.438432 -0.3868591 0.18888092 0.0995072 -0.041461933 0.27064776 -0.37019235
0.07645496 0.32123807 -0.51771945 0.4748474 0.041947067 -0.056210186 0.04376542 0.6650951
-0.43326914 -0.20821656 0.02129811 -0.48691627 -0.41410044 0.066320695 0.49612257 0.23040639
-0.19006905 0.0312969 -0.257649 0.0074545084 0.20142111 0.083230205 0.13241169 0.38710785
0.36922446 -0.22105308 0.0016096288 -0.08830623 0.018693313 -0.3113789 -0.4461407 0.26458427
00000000: 6f83 e8bc 73f0 253e cdaa 3d3e b765 1a3f
00000010: 81f2 3fbe 64a1 013e a1c5 23bd b0a9 7fbe
00000020: b479 9cbe 160d febe ffff 173d dbf4 d5bd
00000030: 0d4e 9fbe d260 14be edc7 8fbd 01d4 7fbe
00000040: ecd3 283d e237 4c3e bdb1 cdbc 7ba9 11be
00000050: da8b 45bf 0957 a7be 7e08 12be 8db3 01be
00000060: 2de3 8dbe 297a e0be 6512 c6be 006a 413e
00000070: 6eca cb3d fdd3 29bd 5892 8a3e da89 bdbe
00000080: 6b94 9c3d 5179 a43e 4389 04bf 331f f33e
00000090: b0d0 2b3d a73c 66bd 5e43 333d ac43 2a3f
000000a0: 74d5 ddbe b936 55be 6079 ae3c 174d f9be
000000b0: f904 d4be 25d3 873d c703 fe3e a7ef 6b3e
000000c0: 76a1 42be 2e31 003d 92ea 83be f344 f43b
000000d0: 5641 4e3e 9974 aa3d ee96 073e 0033 c63e
000000e0: fd0a bd3e bd5b 62be 2efa d23a e6d9 b4bd
000000f0: b822 993c 0e6d 9fbe 8e6c e4be 9777 873e

bn3.running_var f4 [64]
0.15545358 0.23166108 0.6566384 0.33355218 0.20515701 0.201664 0.1932114 0.2886998
0.15892643 0.22424644 0.22541907 0.24692161 0.41677687 0.22259973 0.18822145 0.44284418
0.14104155 0.22462514 0.20376962 0.3578943 0.22258265 0.2900164 0.26156652 0.33719662
0.2080816 0.31621534 0.22908643 0.36469722 0.2123365 0.303923 0.14855042 0.35216114
0.10316762 0.30957615 0.31829676 0.16584344 0.25272235 0.22177452 0.288019 0.4298087
0.40025246 0.25151363 0.29244816 0.23383456 0.22164962 0.14919475 0.23411714 0.3523063
0.24348842 0.3273851 0.24140546 0.17001742 0.25755095 0.3845741 0.3622672 0.14811966
0.22499785 0.15341799 0.20331049 0.26841387 0.2623023 0.1636949 0.44169354 0.28285027
00000000: 392f 1f3e 9038 6d3e 7419 283f 5ac7 aa3e
00000010: ae14 523e 0281 4e3e 36d9 453e 76d0 933e
00000020: 9cbd 223e dca0 653e 42d4 663e 05d9 7c3e
00000030: c763 d53e 2ff1 633e 20bd 403e 79bc e23e
00000040: 326d 103e 2204 663e fca8 503e ec3d b73e
00000050: b5ec 633e 087d 943e 0cec 853e 09a5 ac3e
00000060: 5813 553e fae6 a13e a295 6a3e 98b9 ba3e
00000070: bd6e 593e cc9b 9b3e 9a1d 183e 774e b43e
00000080: 8c49 d33d c480 9e3e cbf7 a23e ddd2 293e
00000090: d364 813e dc18 633e 3a77 933e e30f dc3e
000000a0: e4ed cc3e 65c6 803e c4bb 953e 5472 6f3e
000000b0: 1ef8 623e 82c6 183e 67bc 6f3e 7e61 b43e
000000c0: 0755 793e 059f a73e fe32 773e 0c19 2e3e
000000d0: b8dd 833e e5e6 c43e 167b b93e aeac 173e
000000e0: d665 663e 9b19 1d3e a030 503e 8b6d 893e
000000f0: 7d4c 863e a39f 273e a825 e23e c0d1 903e

conv4.weight f4 [64, 1, 3, 3]
-0.14571998 -0.14864266 -0.22380887 -0.14616692 -0.0751516 -0.091946386 -0.13741583 0.10798202
-0.13505197 -0.1892122 -0.30259636 -0.34386718 -0.16457438 0.21043397 -0.082003556 -0.069205485
0.1841655 -0.21924615 -0.22778173 0.037841365 0.021265207 -0.32542482 0.123509385 -0.23712738
0.3505961 0.29204378 -0.23279446 -0.28604192 -0.382193 -0.22961652 0.29799846 -0.06175854
0.09402477 0.025065493 -0.4713857 0.14305873 -0.28962883 -0.1887164 0.21083488 -0.26490182
0.06551046 0.29073298 0.2717994 0.020292297 -0.15539159 -0.1185389 -0.32371554 0.18295868
0.011065793 -0.18249165 0.18305838 -0.1419568 0.36176145 -0.044309247 0.026938284 0.119398504
-0.009933552 0.3664448 -0.28033036 0.2232218 0.04045739 0.16450506 -0.018676069 -0.27263293
0.023666373 0.13279271 0.15946592 -0.203487 0.090553656 0.3284084 0.051525924 -0.1595339
0.06710207 0.34117472 0.20039055 0.04742341 0.19844688 0.14732468 0.23548765 -0.21565863
-0.18084267 0.017235769 0.06037865 -0.1505925 0.15113473 -0.21662177 0.06380287 -0.059389018
-0.054920707 0.13250035 -0.26052096 -0.22582954 0.40208033 0.086200476 -0.23946232 0.3133658
-0.16062267 0.28722152 -0.14452045 0.1687324 0.30164853 0.34643123 0.20721686 -0.1294723
0.3047517 0.26285955 0.19916247 -0.0015615982 -0.48257142 -0.17383096 -0.09410622 0.16113548
-0.030400993 0.24193363 0.121381976 0.009949702 -0.2612271 0.30930004 0.14951669 -0.19200362
0.29084954 0.23530078 -0.2766975 0.10521008 -0.19465214 -0.09266183 -0.008390374 0.07754411
-0.20318238 0.052204803 0.1855698 0.22379623 0.24050657 0.02336176 0.38011244 -0.22550206
0.028386926 0.26944113 -0.07961414 -0.0017117205 -0.10957554 0.33785084 0.09036002 -0.08710332
-0.15912838 -0.6702698 -0.07500284 0.24404418 -0.25117546 0.07580101 -0.06985795 -0.11368458
0.13811404 -0.32954457 -0.14580502 -0.104205795 -0.06464854 -0.13721082 -0.039083008 0.29133308
-0.15189508 -0.28592727 -0.022677954 0.23385984 -0.3085619 -0.1909701 -0.18609555 0.16170344
-0.12240363 0.18760316 0.10945407 -0.038852636 0.13335922 0.17022553 -0.23265722 0.05784662
-0.14792566 -0.27513948 -0.024860201 -0.16308814 0.07215009 0.34712902 -0.06906602 -0.3248506
0.30381742 -0.106260985 -0.29980022 0.075961605 0.040110487 -0.003778909 0.31768796 0.16263375
0.20674355 0.00136156 0.19097996 -0.058952402 -0.37494648 -0.10514156 -0.0022313811 -0.23696072
-0.04163048 -0.24795909 0.11720841 0.10037039 -0.31689206 0.16306466 0.1964592 -0.2626945
-0.09578789 0.20185524 0.113730825 -0.28080332 0.096266985 0.08590089 -0.076639436 -0.24632181
-0.35586545 0.1393113 0.20295683 -0.08401093 0.06994304 0.031242914 0.21044055 -0.07385669
-0.109283805 0.07788967 -0.29892918 -0.05605373 0.0038198952 0.25994474 0.19592738 -0.35340068
0.15214066 -0.35679987 0.21725386 -0.28782564 0.15235174 0.12999462 -0.22290067 0.13554226
0.22287533 -0.056046274 0.18838109 -0.21196955 0.14419535 0.26589414 -0.18110414 0.082001574
-0.17010535 0.31965068 0.032165423 0.12996568 -0.11833628 -0.28723738 0.26080233 -0.13152964
00000000: 9e37 15be c835 18be 272e 65be c8ac 15be
00000010: 15e9 99bd 634e bcbd bcb6 0cbe ad25 dd3d
00000020: 104b 0abe d8c0 41be e9ed 9abe 5c0f b0be
00000030: 3086 28be 017c 573e 7bf1 a7bd 9bbb 8dbd
00000040: e195 3c3e 1082 60be 9d3f 69be 8cff 1a3d
00000050: 5f34 ae3c 159e a6be 7df2 fc3d 85d1 72be
00000060: 5581 b33e c386 953e ac61 6ebe 1674 92be
00000070: cdae c3be 9820 6bbe 4193 983e 86f6 7cbd
00000080: 0f90 c03d 2656 cd3c 7759 f1be fd7d 123e
00000090: 3b4a 94be df3e 41be 19e5 573e 36a1 87be
000000a0: 592a 863d f4da 943e 4a29 8b3e 083c a63c
000000b0: f91e 1fbe 86c4 f2bd 0bbe a5be 8559 3b3e
000000c0: 4d4d 353c 17df 3abe a873 3b3e 205d 11be
000000d0: cc38 b93e 9d7d 35bd adad dc3c 3487 f43d
000000e0: 56c0 22bc a79e bb3e 7687 8fbe 4194 643e
000000f0: a6b6 253d 0474 283e 8efe 98bc 8b96 8bbe
00000100: fbdf c13c d0fa 073e 094b 233e e55e 50be
00000110: 3274 b93d 2525 a83e d90c 533d db5c 23be
00000120: cf6c 893d 74ae ae3e 2e33 4d3e 0d3f 423d
00000130: a935 4b3e 48dc 163e ad23 713e 9ed5 5cbe
00000140: d22e 39be 0732 8d3c 9a4f 773d ec34 1abe
00000150: 10c3 1a3e 19d2 5dbe 14ab 823d e641 73bd
00000160: 89f4 60bd 2cae 073e 0163 85be dc3f 67be
00000170: 79dd cd3e e089 b03d 9c35 75be 7b71 a03e
00000180: 457a 24be b30e 933e 2bfd 13be 30c8 2c3e
00000190: ad71 9a3e 6f5f b13e a830 543e 6394 04be
000001a0: 6a08 9c3e 8795 863e 3ff1 4b3e 8aae ccba
000001b0: 9a13 f7be be00 32be c3ba c0bd b300 253e
000001c0: 810b f9bc 73bd 773e 1d97 f83d 1304 233c
000001d0: 8fbf 85be 935c 9e3e e71a 193e 999c 44be
000001e0: 3bea 943e b0f2 703e 4bab 8dbe 6278 d73d
000001f0: e452 47be 7cc5 bdbd c777 09bc 72cf 9e3d
00000200: 0b0f 50be b4d4 553d 0206 3e3e d72a 653e
00000210: 5b47 763e 2961 bf3c 199e c23e 03ea 66be
00000220: b38b e83c 30f4 893e bd0c a3bd cf5b e0ba
00000230: 2469 e0bd c9fa ac3e ad0e b93d 3a63 b2bd
00000240: 8df2 22be cd96 2bbf 179b 99bd b8e6 793e
00000250: 129a 80be 8f3d 9b3d af11 8fbd 76d3 e8bd
00000260: c46d 0d3e 11ba a8be e94d 15be d969 d5bd
00000270: 7466 84bd fe80 0cbe 8115 20bd 9c29 953e
00000280: 628a 1bbe 0f65 92be 1ec7 b9bc f478 6f3e
00000290: d3fb 9dbe aa8d 43be d58f 3ebe 9695 253e
000002a0: c1ae fabd 0b1b 403e 7529 e03d f123 1fbd
000002b0: 528f 083e 9a4f 2e3e b23d 6ebe 94f0 6c3d
000002c0: d379 17be 15df 8cbe 9fa7 cbbc 9400 27be
000002d0: 6dc3 933d e5ba b13e 7c72 8dbd d152 a6be
000002e0: f58d 9b3e 5c9f d9bd 6a7f 99be c291 9b3d
000002f0: e54a 243d 93a7 77bb ffa7 a23e 7689 263e
00000300: 95b4 533e 5f76 b23a 4090 433e 1378 71bd
00000310: fcf8 bfbe 7554 d7bd 5d3c 12bb d5a5 72be
00000320: b984 2abd fde8 7dbe f60a f03d fe8e cd3d
00000330: ad3f a2be 6cfa 263e 9a2c 493e e57f 86be
00000340: 712c c4bd 24b3 4e3e b5eb e83d 74c5 8fbe
00000350: a027 c53d ceec af3d 23f5 9cbd c93b 7cbe
00000360: ff33 b6be 9fa7 0e3e ead3 4f3e ec0d acbd
00000370: 4c3e 8f3d 24f1 ff3c ba7d 573e 2d42 97bd
00000380: 30d0 dfbd 9f84 9f3d 3f0d 99be 9998 65bd
00000390: 3557 7a3b 7a17 853e 30a1 483e eff0 b4be
000003a0: c3ca 1b3e 79ae b6be cc77 5e3e e25d 93be
000003b0: 1802 1c3e 4f1d 053e 1340 64be 97cb 0a3e
000003c0: 6e39 643e c790 65bd f9e6 403e 8c0e 59be
000003d0: f2a7 133e 4723 883e 5d73 39be 71f0 a73d
000003e0: 1930 2ebe 41a9 a33e e4bf 033d b915 053e
000003f0: 4b5a f2bd c710 93be e287 853e b5af 06be

conv4.bias f4 [64]
-0.07529739 -0.10811787 -0.10746599 -0.2349361 -0.3193161 -0.010871843 -0.26788622 0.21444225
0.021082995 0.2903234 0.20571686 0.014049333 -0.2574392 0.0151920775 -0.10621129 -0.12318713
-0.14339025 -0.3190267 0.07571794 -0.28350425 0.148904 -0.06846623 -0.08455847 0.3386293
0.18669926 0.0064384914 0.20511746 0.2832206 -0.31284586 0.30076945 0.06424016 0.07841437
0.10938285 0.043558083 -0.25605428 0.02343598 0.18262972 -0.123913266 0.3142944 -0.2940963
0.22983253 -0.027329141 -0.13793974 -0.13884187 0.27977172 0.05140208 0.106775574 0.08971908
0.14796169 0.13647872 -0.0625804 -0.24569772 0.10083516 0.19071099 0.29314673 -0.036921304
0.12426048 0.05434869 -0.23220907 -0.31222686 0.017917868 0.2675339 0.18513414 -0.32508487
00000000: 8535 9abd e76c ddbd 2117 dcbd 1793 70be
00000010: 667d a3be d11f 32bc 6228 89be c096 5b3e
00000020: 3fb6 ac3c 45a5 943e 71a7 523e 2c2f 663c
00000030: 12cf 83be 31e8 783c 4e85 d9bd 8949 fcbd
00000040: e5d4 12be 7857 a3be 0212 9b3d 7827 91be
00000050: 4a7a 183e 0638 8cbd fe2c adbd d260 ad3e
00000060: 172e 3f3e fbf9 d23b 500a 523e 4a02 913e
00000070: 552d a0be 74fe 993e 5890 833d b797 a03d
00000080: 1e04 e03d f669 323d 8c19 83be d0fc bf3c
00000090: 4903 3b3e 3dc6 fdbd 32eb a03e ca93 96be
000000a0: 3859 6b3e 5de1 dfbc 1340 0dbe 902c 0ebe
000000b0: 3d3e 8f3e fd8a 523d 27ad da3d a3be b73d
000000c0: 4583 173e 14c1 0b3e 272a 80bd 2f98 7bbe
000000d0: aa82 ce3d be49 433e 5417 963e cb3a 17bd
000000e0: 477c fe3d bb9c 5e3d 37c8 6dbe 33dc 9fbe
000000f0: 7ec8 923c 34fa 883e ce93 3d3e 8671 a6be
