models/trained_models/dscnn_mfcc/model_acc_74.21875.pth (torch_old, 110035 bytes, 56 tensors)

conv1.weight f4 [64, 1, 10, 4]
00000000: 5e63 323e c456 87bd a615 ffbd 0f4c 2fbd
00000010: 1608 1c3e db97 66bd 095d c93c ac86 e03d
00000020: 28eb 4a3e 4a7c 993d fcf4 53be 1a06 a1bb
00000030: 44a3 133d 6aa2 b6bd 7dca bb3b 0acb 1ebd
00000040: 5fa6 bc3d efb5 65be cd6d 00be f25a 943d
00000050: 21c0 b93d 2f1e 5dbd 961a 37be 9e26 663c
00000060: c832 f2bd d3ac debd ee75 e1bd 5a4b da3d
00000070: 01e4 0f3e 8d39 66bd 24bc 083e 62cc 053d
00000080: a2f2 423d 9304 29be 3eb5 3abd 01e4 f13d
00000090: 9454 73bd 2f41 c6bc dc62 5f3e 6d1b f1bd
000000a0: 923e ac3d 17ac 753e 5745 633e dc12 cb3d
000000b0: 16ad 4a3d 8d59 a9bd e83a 173d 71f8 6c3e
000000c0: 304c 2fbd 25d9 14be 9d18 ca3c 69a1 8ebb
000000d0: de19 10bd b58e c4bd b278 70be b62c 7e3d
000000e0: cde7 2fbd e2bc 403d 7cdf 0bbd 42de 4dbe
000000f0: 37ae 9b3c 7426 d93d ca21 e23d 3f32 adbd
00000100: e86d 82bd 9ab4 dc3b 1e02 743e ff06 4fbd
00000110: 7897 09bc 369c 01bd b17b 7f3e 6213 063e
00000120: 7b93 a43d 6b51 2c3d 9845 44bc 07d3 a43d
00000130: a610 a93c d7e1 1dbe f84c 6c3d 6511 e7bd
00000140: 202d cb3c be2f 073e c32b 8cbd 204f f2bd
00000150: 3987 04be 391d 323a d288 37be 99a0 f03d
00000160: 6dbf 88bc b394 69be 9fdc 963c 2cd2 bd3b
00000170: 3f69 903d 634f 90be f3d9 4fbd 7c4d d4bc
00000180: 16ae 89bc c808 a9be 5d53 48be d70d a23d
00000190: c002 1cbd d69d 3dbe 30ed 963c 0ae9 00be
000001a0: 6064 00be cb80 d13d 1ac7 3ebe fd44 1c3e
000001b0: fd0e bdbd c6fb aabd 36b3 8dbd 0f93 56bd
000001c0: 5af5 f7bc a9ed 05bd 2cbc 5dbe d8f6 5abd
000001d0: d0a4 043e bf44 93bd e53e 1bbe 40d7 fabd
000001e0: 2005 42bd efb2 283d d5e4 cfbd 9825 ea3c
000001f0: 2e5d a3bd f5c8 f23d 1add e2bd 920f ac3d
00000200: 6140 2d3e 5c2f 0d3e f3a7 80bd 70c0 aabc
00000210: f725 ce3d 1b33 f73d 84ff d4bd f504 5dbe
00000220: 19d1 a63d 3b65 e5bd 3857 54be 9aae 4cbe
00000230: d480 aebd 753f efbc 7a0d dabe 1b13 253d
00000240: 84b4 82bd e876 d93d 7d45 a43d d407 28be
00000250: 3581 153e 75f8 59bd 9fc5 61bd 566e 36be
00000260: 2cf7 13bd 59ef fcbd 1d25 ff3d 838a 18be
00000270: d329 0dbe f4fd bcbd b9e1 d83d 4bb6 f5bc
00000280: e27f 0ebc 9e45 e43d 8a13 503d df22 febd
00000290: a180 793b d09c 0d3e a6e1 123a e4cb c4bc
000002a0: bede 063e 2a6a 103e 73be 523c 6308 e33d
000002b0: 895c a5bc 892c 16bd 16dd 773d 7a77 233d
000002c0: bb34 28be 7518 6f3d d9b0 49be 9251 0a3e
000002d0: 4cec 0fbe d166 53be c968 30be 2149 5ebd
000002e0: e0c6 edbc 5910 b6bd 4c43 023c 2535 c7bd
000002f0: 0aeb dfbd e3ac 30be 5be0 e93d c49d 343d
00000300: 3536 1e3d e353 dc3d 9343 00be e4b7 bcbd
00000310: b87a 04be 88db 123e d743 663d a75a 7abb
00000320: b881 3dbe 2517 1cbd b2d0 c63d 114e 163d
00000330: ec08 93bd 5b50 dbbd 39d5 11be a7c5 d83d
00000340: 0742 91bc f1a3 23be a1b7 8abd 0951 1b3e
00000350: fb79 77bd f62b 0ebc 6d78 2bbd 7d39 013e
00000360: 33b6 c93d e8ee d6bd 5f79 223e 5288 a0bd
00000370: d43b 1c3e d390 073d 4b7e d2bd c9e7 353c
00000380: 0052 b23d e12b e6bd 8d70 ccbb cfb4 493e
00000390: de01 0a3e 32d0 d33d 3809 65bd 7997 593e
000003a0: 47b6 b53d 5ff2 4e3d a016 6bbb 819e fe3a
000003b0: 3336 d73d 4666 1abe fdb4 cbbd 28a3 d53c
000003c0: 3eed 153d 772f 243d ef97 573e 878d 10be
000003d0: af95 59bb 524b 813d e6ab 43bd 004c d73d
000003e0: 4c39 b1bd 54fa 883d d198 0abe 19a8 36be
000003f0: b439 47be 34de f8bd de45 7ebd f183 41bc
0.17420718 -0.06608346 -0.12455301 -0.042797145 0.1523746 -0.056297164 0.024580495 0.109631866
0.19816267 0.074944094 -0.20698923 -0.0049140574 0.036044374 -0.08917697 0.0057309256 -0.038767852
0.0921142 -0.22432683 -0.12541886 0.07243909 0.09069849 -0.053983863 -0.17881235 0.014047293
-0.11826092 -0.10872807 -0.110088214 0.106589034 0.1405182 -0.05620723 0.1335302 0.032665618
0.047594674 -0.16505651 -0.045583002 0.118110664 -0.05940683 -0.024201004 0.21815056 -0.11772809
0.08410372 0.23991428 0.2219442 0.099157065 0.049481474 -0.082690336 0.03692141 0.23141648
-0.042797267 -0.14535959 0.02466994 -0.0043527377 -0.03518092 -0.09597532 -0.23483542 0.06205436
-0.04294567 0.047055133 -0.03414868 -0.20104316 0.01900397 0.106030375 0.11041601 -0.08456849
-0.06368619 0.0067353966 0.23828933 -0.05054378 -0.008397929 -0.031643115 0.24949528 0.13093331
0.08035942 0.042069834 -0.011979483 0.08048063 0.020637821 -0.15418182 0.05769059 -0.112826146
0.02480179 0.13201806 -0.068442844 -0.11831498 -0.12942208 0.00067945156 -0.17923287 0.117493816
-0.016692841 -0.2281063 0.018415747 0.0057928767 0.07051324 -0.28185567 -0.050744962 -0.025915854
-0.016806643 -0.33014512 -0.1956305 0.07912796 -0.03808856 -0.18517241 0.018423647 -0.12588897
-0.1253829 0.102296434 -0.18630639 0.15260692 -0.092313744 -0.08348803 -0.069189474 -0.05238634
-0.03026836 -0.032697354 -0.21653813 -0.053458065 0.12953496 -0.07190847 -0.15160711 -0.12248087
-0.04736817 0.04118627 -0.10151068 0.02858238 -0.07976757 0.11854736 -0.11077328 0.08401407
0.1691909 0.13787597 -0.06282034 -0.020843714 0.10065835 0.120702945 -0.10400298 -0.21583922
0.08145351 -0.11200949 -0.20736396 -0.1998848 -0.08520666 -0.029205063 -0.42588407 0.040301424
-0.06382087 0.10618383 0.08021066 -0.16409236 0.1460007 -0.053215463 -0.055120107 -0.17815527
-0.036124393 -0.123503394 0.12458251 -0.14896588 -0.13785486 -0.09228125 0.10589928 -0.02999415
-0.008697482 0.11146091 0.050799884 -0.12408995 0.0038071054 0.1382935 0.0005603082 -0.024023004
0.13170907 0.14102998 0.012862789 0.11085584 -0.020185726 -0.036663566 0.06051358 0.039908864
-0.16426365 0.058372933 -0.19696368 0.13507679 -0.14054984 -0.2064469 -0.17227472 -0.05426896
-0.029025495 -0.08889837 0.007950615 -0.097269334 -0.10933502 -0.17253451 0.114197455 0.04409577
0.038625915 0.107581876 -0.12525778 -0.09214762 -0.12937438 0.14341557 0.05621704 -0.0038201006
-0.18506515 -0.03810801 0.09707774 0.036695544 -0.07179436 -0.10708686 -0.14241494 0.10584574
-0.01773168 -0.15980507 -0.06773306 0.15167631 -0.060419064 -0.008677473 -0.041862894 0.12619586
0.09849205 -0.104947865 0.15866612 -0.07838501 0.15257198 0.0330971 -0.10277995 0.011102625
0.087070465 -0.11238838 -0.006239003 0.19697879 0.13477275 0.103424445 -0.055916995 0.21249188
0.08872657 0.05052411 -0.003587164 0.00194259 0.105083846 -0.15078077 -0.0994663 0.026078776
0.036603205 0.04008433 0.21054052 -0.14116488 -0.003320079 0.06313194 -0.047771357 0.10512543
-0.08653507 0.06688371 -0.13534857 -0.17837562 -0.19455606 -0.12151757 -0.06207835 -0.011811242

conv1.bias f4 [64]
00000000: ed16 493d e5e0 683a 47b6 0cbd cb27 a4bd
00000010: 408c 1c3d 0ac1 fe3d 3685 17be 1b50 63bd
00000020: fe82 003e f1dc 0fbd 80eb 0fbe 2864 513d
00000030: 87e4 2bbd 0371 1f3e edc5 4bbd a4cc 2a3d
00000040: 0fb3 8ebd 1f9d 753d b526 943d 22b0 143e
00000050: 0570 dd3d ca76 19be 18df b63d 9149 febc
00000060: 39bc 5abd 163b 26bd 5322 0f3e 23ba 5bbc
00000070: 7e11 013e 8750 60bd d917 0dbe 576f 903d
00000080: 734d 193e f7ee 79bd 8143 13be 3860 0e3c
00000090: 039a 08be 05b9 1ebd a8d2 6cbd 4988 9d3d
000000a0: 2b26 16be 39c1 d43d a79d 44bd 9f39 bf3d
000000b0: 6822 3e3d 4644 e8bd d284 1e3e 2571 8dbc
000000c0: 5ad7 883d c81b e03c 9d24 273c 5f13 8f3d
000000d0: f473 f2bc 1605 ba3d 4eb5 4bbd 1085 d43d
000000e0: a2c0 e73d 67bc 9a3d d9bf 7f3d 531d 0e3e
000000f0: 3a34 57bd ae83 523d 3678 d53d 0b3c 433d
0.04909413 0.00088836096 -0.03435352 -0.080154024 0.03821969 0.12439163 -0.1479691 -0.055496316
0.1254997 -0.035122816 -0.1405468 0.051120907 -0.041965988 0.15570454 -0.049749304 0.041699067
-0.069677465 0.059964295 0.07233945 0.14520314 0.10812382 -0.1498672 0.089292705 -0.031040939
-0.05340216 -0.040583692 0.13977937 -0.013411078 0.12604329 -0.054764297 -0.13778628 0.070524864
0.14970951 -0.06101891 -0.1438122 0.0086899325 -0.13340001 -0.038750667 -0.057818085 0.0769201
-0.14662997 0.10388417 -0.04800191 0.09337162 0.04641953 -0.11341147 0.15480354 -0.017265866
0.066817 0.027356997 0.0102016 0.069861166 -0.029596306 0.09083001 -0.049733452 0.10376942
0.11316039 0.07555466 0.06243882 0.13878374 -0.05254004 0.05139511 0.10423319 0.047664683

bn1.weight f4 [64]
00000000: 8813 843f 54e3 833f 7c0a 853f 9086 853f
00000010: 1dda 6c3f 4af0 6b3f 5581 8a3f 633f 873f
00000020: e973 843f 8b02 7a3f 71d3 6b3f 1695 8e3f
00000030: 0f5f 7e3f d4bc 8f3f 344b 6e3f a07f 823f
00000040: ddf2 8f3f af25 853f e834 8a3f 7385 863f
00000050: 6e00 8d3f c0aa 6e3f 236a 853f b191 8e3f
00000060: c8cc 663f 5f77 713f 7c3d 553f dc7c 7f3f
00000070: fdc4 7d3f 5266 a53f cfa7 883f d313 983f
00000080: 92a4 7f3f 5e9c aa3f 0b2e 893f da6f 6d3f
00000090: 7a55 7e3f 0b50 5b3f d786 713f dbb3 853f
000000a0: 5b02 6f3f bc14 7c3f 22a3 6d3f 9b4f a73f
000000b0: 2f75 6a3f 642b 783f 5d80 923f f67a 823f
000000c0: 698e 3e3f d9e1 873f 1bb1 5a3f 4da8 993f
000000d0: d74d 813f 602f 853f 3850 743f 54f0 863f
000000e0: b65a 5b3f ba26 893f 3145 6e3f b9d1 873f
000000f0: 2c04 8c3f adf6 813f 0488 693f 1ac5 863f
1.031846 1.030375 1.0393825 1.043169 0.92520314 0.92163527 1.0820719 1.0566219
1.0347873 0.9766013 0.9211951 1.1139247 0.993638 1.1229501 0.930835 1.0195198
1.1245991 1.0402125 1.0797396 1.0509475 1.1015756 0.93229294 1.0423015 1.1138211
0.9015622 0.9432277 0.8329694 0.99799895 0.99128705 1.2921851 1.0676211 1.188105
0.9986049 1.332897 1.0717176 0.92748797 0.99349177 0.8566901 0.94346374 1.0445513
0.9336297 0.9846914 0.92827046 1.3071169 0.9158506 0.9694121 1.1445423 1.0193775
0.7443605 1.0615798 0.8542649 1.2004486 1.010188 1.0405083 0.95434904 1.0542092
0.8568529 1.0714943 0.9307433 1.0610877 1.0938773 1.0153404 0.9122317 1.0528901

bn1.bias f4 [64]
00000000: 4f4b bbbc b3ed 033d 0af7 c9bc e995 1f3d
00000010: 00a6 a4bd bb67 c7bd 4eb9 d83a f7c7 8cbc
00000020: ec09 68bd 1be2 6fbd 99b2 d2bd 88b1 19bc
00000030: a002 04bd 3716 01bd d017 bebd bd8e e8bc
00000040: 562b 78bc 0c39 08bc 90a9 0ebd 5114 81ba
00000050: e294 b73c cefd b7bd bbc1 013d 0df5 013d
00000060: 3bb3 e8bd a99d c1bd 8d83 21be ef3f 44bd
00000070: 887e 75bd ec2d a43b e2b5 13bd 3d78 843c
00000080: e908 86bd 7496 603b df81 0ebd ab31 c1bd
00000090: e183 a7bd 8b27 0cbe 834e e3bd 6809 1abd
000000a0: 2bd9 cebd 9ef5 5b3d 1977 cdbd 22a0 0cbc
000000b0: 64ba e1bd 44eb 8ebd 609f 4e3b 5769 0e3d
000000c0: 4ec4 80be 7f72 42bd 8e22 20be a49c 55bc
000000d0: c8d7 24bb 3101 8ebd 4e99 acbd a303 1dbd
000000e0: 09e6 1dbe c193 e3bc 0e11 e8bd d767 21bd
000000f0: b7ba d2bb b8f7 4a3d 9106 dcbd 5088 15bd
-0.022863058 0.03220911 -0.02465393 0.038961325 -0.080394745 -0.09736582 0.0016534717 -0.017185194
-0.056650087 -0.05856524 -0.10287971 -0.009380706 -0.032229066 -0.031515326 -0.092818856 -0.028388375
-0.015147051 -0.008314382 -0.034829676 -0.0009847974 0.02240986 -0.08983956 0.031678896 0.03172784
-0.113623105 -0.094538994 -0.15772839 -0.047912534 -0.059935123 0.005010357 -0.03606213 0.016170615
-0.06544668 0.0034269365 -0.034791823 -0.094333015 -0.08179451 -0.1368696 -0.11098959 -0.037606627
-0.10100015 0.053701036 -0.10032482 -0.0085831005 -0.11021879 -0.06978467 0.00315281 0.03476843
-0.2514977 -0.047472473 -0.15638182 -0.013037834 -0.002515303 -0.06933821 -0.08427678 -0.038333546
-0.15419783 -0.027780415 -0.11331378 -0.03940567 -0.0064309496 0.04955265 -0.1074344 -0.03650695

bn1.running_mean f4 [64]
00000000: 65c9 33c2 a50b a442 3824 8cc3 97a0 19c3
00000010: ea80 5cc2 0d0e cb41 b99b 77c3 a600 acc2
00000020: d7f1 f441 ff11 1743 1c82 74c2 1ff9 53c2
00000030: 7e36 ab42 56ae 93c3 c604 44c2 4059 f5c2
00000040: b6fd 8243 aad6 0643 a401 bd41 2134 52c2
00000050: 3390 8d42 23cb cc41 2d0d 76c3 7e3b e541
00000060: 0152 f342 4ffc 7f41 e1f7 9742 ab4c 3142
00000070: 9453 28c3 3cc6 a0c2 9a08 0542 f7c8 a241
00000080: 8def f442 8860 3d43 46f8 77c2 65b4 32c3
00000090: bcba cec2 5fa5 26c3 2b76 4f42 6456 a241
000000a0: 2036 1c40 c511 33c2 b0de 3a42 ede9 7642
000000b0: 9acd b742 812f 26c3 ad59 42c1 10ce fec2
000000c0: 59ac 6942 9fa2 d93f 706f 1241 5eff 5dc2
000000d0: 8647 c742 8e8e 5742 9421 fec1 ebc7 de41
000000e0: c404 c041 b8f1 eec2 811f 9642 02a3 28c3
000000f0: 499d 0dc3 8cf2 24c3 668f 09c3 b984 ec42
-44.946674 82.02274 -280.28296 -153.6273 -55.125893 25.38186 -247.60829 -86.00127
30.618086 151.0703 -61.12706 -52.993282 85.60643 -295.362 -49.00466 -122.67432
261.98212 134.83853 23.625801 -52.550907 70.78164 25.599188 -246.05147 28.654049
121.660164 15.999099 75.98414 44.32487 -168.32648 -80.38718 33.2584 20.348127
122.46787 189.37708 -61.992455 -178.70467 -103.364716 -166.64598 51.8654 20.292183
2.4408035 -44.767353 46.71747 61.728443 91.901566 -166.18556 -12.1468935 -127.402466
58.41831 1.7002753 9.152206 -55.499382 99.639694 53.889214 -31.766396 27.847616
24.002327 -119.47211 75.06153 -168.63675 -141.6144 -164.94745 -137.56015 118.259224

bn1.running_var f4 [64]
00000000: d6b6 7a44 8daa 1444 b8d8 0145 5151 fc44
00000010: adb0 2544 f13b de44 f9e6 3b45 9306 1445
00000020: 1f72 e144 65e2 2445 7767 f443 172e 3744
00000030: 4392 4e44 9515 d844 bebc 8c44 7663 5444
00000040: f802 4145 9eaf 9a44 545c c343 888d a545
00000050: 96d8 ad44 f8ff b344 d9c4 a145 6e99 2b45
00000060: 143f 0145 65fb 8543 4c27 8444 27eb 7545
00000070: c195 5544 40d2 6a44 d694 9b43 2c67 8a44
00000080: f0bf 4045 8dd5 6d44 d28f c344 505e a744
00000090: 2167 5e44 42dd ac44 8ce5 8944 6adb 9f43
000000a0: eeb3 a743 cfef 5b43 3e89 2144 41c6 0045
000000b0: c66f 1f44 0654 9644 8929 0c45 a648 0545
000000c0: ba80 3744 e84a 0d45 534b c943 5261 9145
000000d0: b39c d043 ea21 db44 2fbe 7244 ec37 2844
000000e0: b550 8644 8c78 3145 e6e5 7944 b5b6 4445
000000f0: a5eb 2844 2800 7e45 8482 a944 4a17 5a44
1002.8568 594.66486 2077.545 2018.5411 662.76056 1777.8732 3006.4358 2368.411
1803.5663 2638.1497 488.80832 732.72015 826.28534 1728.6744 1125.8982 849.5541
3088.1855 1237.488 390.7213 5297.6914 1390.7683 1439.999 5176.606 2745.5894
2067.9424 267.96402 1057.228 3934.697 854.3399 939.28516 311.16278 1107.2241
3083.996 951.33673 1564.4944 1338.9473 889.6114 1382.9143 1103.1733 319.71417
335.4057 219.93675 646.1444 2060.3909 637.74646 1202.6257 2242.596 2132.5405
734.01135 2260.6816 402.58847 4652.165 417.2242 1753.0598 970.9716 672.8738
1074.5221 2839.5342 999.59216 3147.4192 675.68195 4064.0098 1356.0786 872.3639

conv2.weight f4 [64, 1, 3, 3]
00000000: a187 c83e 1cfa dabd 745a bbbc 6317 4d3d
00000010: f8dd 9dbe df0d 7fbe 8230 743e 818d 073d
00000020: 51dd a13e f2d6 c6be 5026 acbd b58a 383e
00000030: 23b4 673e bec9 50bc ca6c 953b 18e2 9d3e
00000040: 1c38 823e 47dc 873c 0eb9 39be 3c4b 9cbe
00000050: e34b 21be 817a 6c3e 90a4 123e f11c acbe
00000060: 7db8 7cbe 5168 003e c6fd 91be 97e0 8d3d
00000070: 506b a43e 9866 70ba fa68 9cbe 492d bb3d
00000080: 6639 7d3e f393 7a3e da4e 493e b45a 54be
00000090: 56ff e7bd 5333 973e 1d75 083d 9549 a63e
000000a0: 2b14 9a3e 3c8f 27bd c309 d3bc 922e 133e
000000b0: 003d 89be 29cd 85bc bed4 453e 4302 b83d
000000c0: 5c42 eabc f1e2 7a3e c45e 81bd b01b 56be
000000d0: 5502 903e d976 813e b6f0 2ebd 6243 1abe
000000e0: 4f24 37be 80a5 953d d36c 92be 66ba 923e
000000f0: 70bf 9ebe d05c bebe 81a7 903e a730 febd
00000100: f854 4abe cc0b cfbd 1749 083e 6255 02be
00000110: 3dd9 2cbd c8a4 aabd 40d3 b0be 4e7b 4d3e
00000120: 84e7 323d 1cf9 053d d986 82be 28b1 843e
00000130: 32a0 9ebe cc1f 01bf 3698 66be 2b0c be3e
00000140: 5445 98be f3c4 10be 8876 753c 22a8 44be
00000150: 7b5e db3e 8655 ce3d 07b0 613e be76 8a3e
00000160: d013 1bbd a7d0 d13c 73d4 953e 9fb4 043e
00000170: 5899 6fbe 0b8e 36be e847 73be 4f24 fd3c
00000180: e40d 153e b5aa 1cbe 2ed9 723e c132 1e3e
00000190: e307 bbbd 7a52 65be b524 043e d8bd db3d
000001a0: b094 98bd 5580 ac3d 5678 a7bd cc95 473e
000001b0: b678 3ebe 26c5 5bbd a510 dbbc 64e6 9abe
000001c0: 3f0f c33d 7c2a e73d da9a 7dbe 7ef6 233d
000001d0: ec83 453d cbe0 6a3d 8ccc 873e 6467 163d
000001e0: 4e00 a0be f78b 85be da46 393e 94f8 113e
000001f0: 6926 673e f86d 38be be16 0e3e 136b 533d
00000200: f598 67be 8ad5 37be ba28 27be f826 95be
00000210: 5765 94bc 9368 b1bd f526 1ebe 801b 9fbe
00000220: c19d a5bd 9d1d 303e 74a7 96bd c92e 00bd
00000230: ee6b 973e ca98 223e 3511 8a3d b628 ae3e
00000240: 6763 e9bd b007 643e eb14 d5bd 6e13 21be
00000250: b0cc bd3d 134e 613e e000 773e 1e81 83be
00000260: 80a0 27bd fa7d 573e bbf9 b1be 079c 9ebe
00000270: 4e70 4dbe 72c2 5ebe 6413 893c ef8e 3ebe
00000280: 1907 14bd ad63 07be b4ed fcbd 092a a73d
00000290: 5faf acbd 4729 c5be 9ead 163e 1d16 02be
000002a0: e38f c33e a527 183e cbf2 693e cd9c a0bc
000002b0: 08e0 a23e 2b50 a13c 7761 dc3d d3ad 85be
000002c0: 249f f4bc 83ff 80be 3820 9c3e a9d5 99bd
000002d0: d71e af3d aa3e 003d 20a2 3dbe a4ea 42be
000002e0: af44 a93e 59d7 cf3d 9383 a83d e75b b63c
000002f0: 9c70 8abe 9225 833e e0a8 a3be 51e1 9cbe
00000300: 7eaf 363e 79c9 7ebe 3a1f 223d 2938 173e
00000310: a7d2 18be 0511 3d3e d3c9 60be 67b1 5bbe
00000320: 7b29 9dbd f4b9 ac3e bea4 113e 920d 3bbe
00000330: 2d15 5e3e 35f5 d8bc 7673 e1bd aabe c03c
00000340: d0d8 d63c dd69 29bd e9c9 5a3c ffdc 5ebe
00000350: d6cd 033e 6703 43be 289f 47be 1c95 953b
00000360: 0252 45be c406 523e 1705 d2bd acca 29be
00000370: b14f 61be 2388 c7be 8dd2 733d c6b2 a13e
00000380: a24e dabe 2301 943e f9d3 793e 7fe4 733d
00000390: ad1b c3bd b023 e3bd 3293 883e 047e d83d
000003a0: 15d7 2bbe ee56 523e 94ac 1ebe 897e dd3d
000003b0: 4aff cc3e 02eb 90be 5e69 8fbd 43f3 463e
000003c0: 4aab 3bbe a1d1 213e 6a0b f0bd 0e76 55bd
000003d0: 78a8 a43e e45c f23d 163a 54be 808f 533d
000003e0: 5b73 403d 7182 62be d831 483d 022e 9b3e
000003f0: cc53 5fbe 093e 72bd 0118 e73c fcb0 37be
0.39165977 -0.10692236 -0.02287028 0.05007113 -0.3083341 -0.24907635 0.2384663 0.033093933
0.31614164 -0.38835865 -0.08405745 0.18021663 0.2262731 -0.012743412 0.004560088 0.30836558
0.25433433 0.016584529 -0.18136999 -0.3052615 -0.15751605 0.23093607 0.14320588 -0.3361583
-0.24679752 0.12539794 -0.28513926 0.06927603 0.32113123 -0.0009170561 -0.3054884 0.09139497
0.24728927 0.244705 0.19658986 -0.20737725 -0.11327998 0.29531345 0.033314813 0.32478014
0.30093512 -0.040908083 -0.02576149 0.14373234 -0.26804352 -0.01633318 0.19319436 0.089848064
-0.028596096 0.24500634 -0.06316903 -0.20909 0.2812678 0.25285986 -0.04271003 -0.15064767
-0.17884944 0.07306957 -0.2859865 0.28657836 -0.3100543 -0.37180185 0.28252795 -0.124116234
-0.19758976 -0.10109672 0.13309132 -0.12727883 -0.042199362 -0.08332211 -0.3453617 0.20066568
0.04367782 0.032708272 -0.25493506 0.2591641 -0.30981594 -0.50439143 -0.22519001 0.37118658
-0.29740393 -0.1413763 0.014981873 -0.19204763 0.4284552 0.10074906 0.22039805 0.27043718
-0.03786069 0.025612189 0.29263648 0.12959526 -0.2339834 -0.17827623 -0.23757899 0.030901102
0.1455608 -0.15299495 0.2371566 0.15449049 -0.09132364 -0.22394744 0.12904628 0.10729569
-0.07450235 0.08422915 -0.08177249 0.19490737 -0.18600735 -0.053654812 -0.026741335 -0.302539
0.09524392 0.112874 -0.24766102 0.040029995 0.048221514 0.057343286 0.26523244 0.036719695
-0.31250232 -0.26083347 0.18093434 0.14254981 0.22573246 -0.180107 0.13875863 0.051615786
-0.22616942 -0.17952552 -0.1632413 -0.29131293 -0.018114729 -0.08662524 -0.15444548 -0.31075668
-0.0808673 0.17198797 -0.07356158 -0.031294618 0.2957453 0.15878597 0.06741563 0.34015435
-0.113959126 0.22268558 -0.104043804 -0.15730068 0.09267557 0.22002439 0.24121428 -0.25684446
-0.04092455 0.2104415 -0.34760842 -0.30978414 -0.20062372 -0.21753863 0.016732879 -0.18609212
-0.03613958 -0.13221617 -0.12350026 0.081623144 -0.08431887 -0.38508055 0.14714667 -0.12703748
0.38195714 0.14858873 0.22846524 -0.019606018 0.31811547 0.019691547 0.107607774 -0.2610918
-0.02986104 -0.2519494 0.3049333 -0.075114556 0.08550804 0.03130976 -0.18518877 -0.19034821
0.33060214 0.10148496 0.08228221 0.02226062 -0.2703904 0.256146 -0.3196478 -0.30640653
0.17840382 -0.24881543 0.03958056 0.14767517 -0.14924107 0.18463524 -0.2195199 -0.21454392
-0.076739274 0.3373562 0.14223 -0.18266895 0.21687765 -0.026484111 -0.110083506 0.023528416
0.026226431 -0.041360725 0.013353803 -0.21763991 0.12871489 -0.19044267 -0.19494307 0.0045648944
-0.19269565 0.20510393 -0.10254877 -0.1658122 -0.22003056 -0.38971052 0.05952697 0.31581706
-0.42638117 0.28907117 0.24397267 0.059544083 -0.09526763 -0.11090791 0.266748 0.105709106
-0.16781266 0.20540974 -0.15495521 0.1081515 0.4003852 -0.28304297 -0.07002519 0.19428734
-0.1832706 0.15802623 -0.11720927 -0.05211454 0.3215978 0.11834124 -0.20725283 0.051650524
0.04698501 -0.22120072 0.04887566 0.3030854 -0.2180931 -0.059141193 0.028209688 -0.17938608

conv2.bias f4 [64]
00000000: 21ef 5a3d 085f 413e bb17 73be e32e a8bd
00000010: 1575 a0be 0592 07be 0a00 36be ed30 56be
00000020: 4d80 1bbd 9e7a 2ebc 840f 91be 2cb1 533e
00000030: af23 2cbe b7f6 4fbe 13a9 183e 80a2 0a3e
00000040: 0847 4c3e 64c7 823d 844f 9e3d dbfb 08be
00000050: 6d6b 86bd bc5c 173e 1ab7 17be df2f 21be
00000060: b823 9bbe ca60 733e 8b2a 81be 2bf1 59be
00000070: e624 263e f7fb c6bd 66a7 d23d a841 7c3e
00000080: 89b0 32be e09a 43bd d0c1 ffbd 16ef 6dbe
00000090: 23d1 08be 4044 8dbd d7fb 30be f6d1 78bd
000000a0: 2d63 2f3e d7dc 5a3e fb2a 243e b470 a63c
000000b0: 9fbd ac3e 4012 82be e422 a43b 6182 2a3e
000000c0: eb2d e4bd cea4 9e3e a36e 48be a37e 483b
000000d0: 3975 b63d 794e acbe c4e4 153e c533 b2bd
000000e0: 2631 473e bec9 6fbe cb9a a7be bf20 2fbe
000000f0: 3691 46be 3d68 92be 8acd d0bc 3152 aa3e
0.053450707 0.18883908 -0.23739521 -0.08212068 -0.31339327 -0.13239296 -0.17773452 -0.20917101
-0.037964154 -0.010649351 -0.2833215 0.20673054 -0.16810487 -0.20308958 0.14908247 0.13538551
0.19948971 0.06385687 0.0773001 -0.13377325 -0.065634586 0.14781469 -0.14815941 -0.15740918
-0.3030069 0.23767391 -0.2522777 -0.21283405 0.16225013 -0.09716027 0.10285835 0.24634421
-0.17450155 -0.047755122 -0.12488139 -0.23235735 -0.1336103 -0.06897783 -0.1728357 -0.06074711
0.17127676 0.21373306 0.16032021 0.020317413 0.3373842 -0.2540455 0.005009042 0.16651298
-0.11141571 0.3098511 -0.19573455 0.003059306 0.08909077 -0.3365362 0.14638048 -0.087012805
0.19452342 -0.23416802 -0.32735285 -0.17102335 -0.19391331 -0.28595152 -0.025488634 0.33265832

bn2.weight f4 [64]
00000000: de02 7f3f 18fb 733f 64aa 793f 1ab3 6f3f
00000010: 4852 733f f120 743f e193 743f dc89 633f
00000020: f9c4 933f 2eb9 633f 196f 753f 328d 763f
00000030: dadc 683f e39f 5c3f 79c5 6e3f 6202 703f
00000040: 5f89 953f 048b 6c3f 1a72 853f 0941 743f
00000050: a414 733f 6d79 833f 438f 623f 40f2 883f
00000060: 842e 7a3f ec41 873f e982 783f 8511 693f
00000070: 14ed 613f b13f 803f 4db2 753f c084 8a3f
00000080: 2b6a 843f 3e06 743f bdfe 783f 34b7 6c3f
00000090: fc35 8b3f 7cc9 6d3f 8fa5 8d3f 96ed 6f3f
000000a0: f338 893f 83d3 843f 4d10 833f 7624 8a3f
000000b0: 325f 8d3f 428a 693f 5e84 853f b843 6b3f
000000c0: 6596 903f 425e 9d3f 15cd 8f3f 0a74 6e3f
000000d0: a09c 7d3f 4777 6f3f 5639 873f f8b4 813f
000000e0: f49b 833f 5fff 793f 9e72 833f 87c9 603f
000000f0: 28a0 833f 2533 693f 4faf 753f dc13 663f
0.9961375 0.95305014 0.9752562 0.9363266 0.95047426 0.95362765 0.95538145 0.8888223
1.1544486 0.88954437 0.95872647 0.96309197 0.9096199 0.8618147 0.9327007 0.93753636
1.1682547 0.9239962 1.0425446 0.95411736 0.9495337 1.0271431 0.8849985 1.0698929
0.9772723 1.0566993 0.97074753 0.9104236 0.8825238 1.0019437 0.9597519 1.0821762
1.03449 0.95322025 0.972637 0.92467046 1.087585 0.92885566 1.106615 0.937219
1.0720505 1.0377048 1.023935 1.0792377 1.1044676 0.9122659 1.043102 0.91900206
1.1295897 1.229439 1.1234461 0.9314581 0.99067116 0.9354138 1.0564373 1.0133352
1.0281968 0.9765529 1.0269353 0.87807506 1.0283251 0.91093665 0.95970625 0.89874053

bn2.bias f4 [64]
00000000: 3a3c 4c3b 679d e9bd 607d 4d3c 32a8 47bd
00000010: dc40 79bd df85 e8bc aa30 c83c 0d35 3bbd
00000020: c9b0 9a3d c4e4 b6bd db9a bcbd b03f 22bd
00000030: 42f8 8dbd fe8d d0bd 0e35 a5bd a4b8 e3bd
00000040: 5491 843e c459 8ebd 6180 4e3d 9129 f9bb
00000050: 3e8f 80bd 2ed9 0cbd d264 aabd 6a1d fb3c
00000060: 8cba 0a3c af6e 803d 257d e63b d540 a5bd
00000070: 31a9 a6bd e5e2 5fbc ac53 0ebd ed5c 5d3d
00000080: 0a65 a83c 5a4b aebd 8e5d 4d3d 05f0 8dbd
00000090: ffe4 5d3d bfac 0cbd 3bf8 5e3d 3e59 85bd
000000a0: c50b 323d b404 1e3e 0da9 91bd bd40 cb3d
000000b0: c231 7dbd 6b5e 20bd f74b ba3c ccd7 4fbd
000000c0: d6f0 dabd b0a3 253d 4737 3dbd c276 79bd
000000d0: 49a5 96bc cfc9 81bd 7fed 36bd c794 303d
000000e0: 2fa7 87bd f9b3 54bd 20c7 30bd 3de8 d5bd
000000f0: be56 dbbc fefb 85bd 7fc5 b2bd 2feb a7bd
0.0031163828 -0.11406975 0.012542099 -0.048744388 -0.06085287 -0.028384147 0.024437267 -0.04570489
0.0755325 -0.08930352 -0.09209224 -0.03961152 -0.06932117 -0.10183333 -0.0806676 -0.11119202
0.25892127 -0.06950715 0.0504154 -0.007603832 -0.06277321 -0.034386806 -0.08320011 0.030653674
0.008467328 0.06271111 0.0070339614 -0.08069006 -0.081377394 -0.013664936 -0.034747764 0.0540437
0.020555992 -0.08510466 0.05013805 -0.06930546 0.054173466 -0.03434443 0.05443595 -0.06511162
0.043468256 0.15431482 -0.07112322 0.09924457 -0.06181503 -0.039152544 0.022741301 -0.05074291
-0.10690467 0.040439308 -0.046195295 -0.060904272 -0.018389361 -0.0633732 -0.044660088 0.043110635
-0.066236846 -0.051929448 -0.04315865 -0.104446866 -0.02677476 -0.06542204 -0.08729076 -0.081991546

bn2.running_mean f4 [64]
00000000: 8f7d 303e c8af b93e 1426 cebe 9f42 3c3e
00000010: d5d4 99bd 07be bf3d 8be1 c7be 7367 ecbe
00000020: 569a b3be dcec 063e a72a a7be 4331 803e
00000030: 592b bebe a80a 56be 896e b8ba 8b63 9c3e
00000040: d3da 683e d5b1 87be e507 2f3e 1c5e 92bd
00000050: 96e4 44bd 5393 7c3d 903a 92be c286 97be
00000060: fbeb eabe fb21 cc3e 8ed9 86be f6f9 993d
00000070: e8ef 45bd c73a 86be 346a b63e 52da 753d
00000080: 0054 57be 3df2 573e d9d6 e1bd a893 863c
00000090: a770 14bd f56b 53be 4769 d6bc cc30 87bc
000000a0: 3fed 4a3e e8b1 96bd 1338 2c3d c6b3 19bd
000000b0: b19f ce3e 2e1f bcbe 3eae c8bd bcdf 7c3e
000000c0: 10a9 d9bd 6a78 223e 13ae 68be dafc 1abb
000000d0: 9f79 c53d 544d f8be 1ef0 1f3e ded5 88be
000000e0: 68ed 843e 3d30 5fbd 2243 81be a1ed cbbe
000000f0: f5e0 81be 9689 7cbd 13eb f93c 62ad 023f
0.17235397 0.36266923 -0.40263426 0.18384789 -0.075112976 0.09362417 -0.39039263 -0.46172675
-0.35078686 0.13176292 -0.3264973 0.25037584 -0.37142447 -0.20902503 -0.0014071028 0.30544695
0.22739725 -0.26502863 0.17092855 -0.07146856 -0.04806956 0.061663937 -0.28560305 -0.29595
-0.45883164 0.39869675 -0.26337856 0.075183794 -0.048324496 -0.2621672 0.35627902 0.06002266
-0.21028137 0.210885 -0.11027307 0.01642783 -0.036240246 -0.20646651 -0.026173247 -0.01650276
0.19817065 -0.07358152 0.042045664 -0.03752496 0.4035621 -0.36742538 -0.09798859 0.24694723
-0.10627949 0.15866247 -0.22722654 -0.0023649246 0.09642338 -0.48496497 0.15618941 -0.26725668
0.25962377 -0.054489363 -0.2524653 -0.39829734 -0.2536694 -0.06165465 0.0305076 0.5104581

bn2.running_var f4 [64]
00000000: c3ca a63d b42e af3c 275e 223e 493a 563e
00000010: c2b5 0d3e 8aa6 6b3d e867 ce3e ad4e 6a3e
00000020: 2a6a c93d fe3f bf3c 55ad 5d3d 7d9a 883d
00000030: 98ee a93d d708 d43d 3d57 313e 4f7f 263e
00000040: 95a2 993b a3c5 053e 68d0 d63c 63ae 873d
00000050: 9e41 563e 7c04 523d 75a0 ef3d 5993 233d
00000060: 5b75 b93d 734f 943c bac8 ef3c c27b 073e
00000070: cab9 a03e 9838 3e3e d02a 963d 8bd6 943d
00000080: 06d1 3f3d f963 503d 5de9 0c3d 3f33 443e
00000090: 7feb 323c 2655 183e 7add 933c 787b 1e3d
000000a0: 45f8 a83c 3278 bb3d 9a6b 123c 34a3 4e3c
000000b0: 016c 033c 12b8 383e e465 ac3c c23b 263d
000000c0: d9ab 4e3b 2625 653d 37dd 6a3c bf45 c33e
000000d0: 7b27 e43b fda5 663d 3c72 963c 1ad1 823d
000000e0: 1bed b73b 237f d63d 98cd 823c ab5e 3d3e
000000f0: 8430 a33d 7d13 9b3e 77cf e03d c342 933c
0.081441425 0.021384574 0.15856229 0.20920672 0.13838866 0.05753187 0.4031365 0.22881575
0.09834702 0.023345944 0.05412038 0.06670091 0.08297461 0.103532486 0.17318435 0.16259502
0.0046885707 0.13063674 0.026222423 0.066250585 0.20923468 0.051273808 0.117005266 0.039935444
0.09055587 0.01810429 0.029270519 0.13230804 0.31391746 0.18576276 0.073323846 0.07267483
0.0468302 0.05087659 0.03440224 0.19160174 0.010920404 0.14876232 0.018049944 0.038691968
0.020626197 0.09153785 0.008936787 0.012612153 0.008021356 0.18038967 0.021044679 0.040584333
0.0031535535 0.05594363 0.014334968 0.3813915 0.0069627143 0.056310643 0.018365018 0.06387539
0.005612982 0.10473468 0.015967175 0.18493144 0.07968238 0.30288306 0.10977071 0.01797617

conv3.weight f4 [64, 64, 1, 1]
00000000: 6696 ad3d b00b f0bd bb0b e23c 284c 9ebd
00000010: 6022 b43d 27e6 09bd 5678 c2bc 44f6 71bd
00000020: 19e8 8cbd a51c 7e3d bdb5 f5bd 2486 0abe
00000030: 04ee 943c 25d3 b4bd 35bd e9bd 0b5b 3fbd
00000040: 338c e6bd acea 7e3d f81e 403e 8233 aebd
00000050: 1473 d5bc 2d63 65bd 3f74 9c3d 9105 033e
00000060: 59e1 afbd bb5b da3d 845d 953d 97af 593d
00000070: beea 663d 80cc 013e b0ff 683d f810 cdbd
00000080: d9a1 5a3d fd29 883d 495d f43d 6e35 1d3c
00000090: 9bb0 ba3c a75c 103e 1c98 fa3c d7e4 af3c
000000a0: d3bf a03d e1d2 46bd 3598 ebbd 798d 7a3d
000000b0: 6463 bbba 2071 0b3d efb8 15bd c766 583d
000000c0: cd6f 82be d5c1 433d eb75 053e 8cb5 b23d
000000d0: 2e75 2ebd fd49 bf3d b4eb 8f3d 6405 4abd
000000e0: 4e05 05bd 95cf 10bd f7aa 51bd 7804 2b3d
000000f0: 34ed 3bbd faeb 94bd 3b3a 8c3d 60bb b53d
00000100: 8df6 bfbc e2c4 8c3d 070a 1c3e 4bb6 b13c
00000110: c6fb d23d db1b 19bd de1f 31bd 5ad5 6dbb
00000120: b70a 113e f9be be3d 0619 fc3d cfe0 063e
00000130: 0aa2 03bd d3ba f63c 30e0 e83d 79b3 fdbd
00000140: 04ae 9ebd 2ac5 f5bd 3686 fe3d d3eb b8bc
00000150: 58ab 9bbd 7ec7 1cbd 847f 0d3e 7963 9d3c
00000160: 1c09 4dbd e879 cabd 01ef 43bd b7e1 063d
00000170: 6e6d f73d 9959 df3b 5390 fc3c 8fab 0ebd
00000180: 7f6f 163d b41e d1bd 8a94 473d 9a01 a4bd
00000190: 99d8 a13c 0f0b d13d 4dde 8a3b 52ee 203e
000001a0: d193 c0ba 5eda 8d3d c9a3 adbd e553 4e3e
000001b0: 0a66 813e 0cc7 68bc a561 7b3d 4fc1 bfbc
000001c0: f018 b6bd bbd2 80be a6dd 0dbe 5841 2d3d
000001d0: ece0 c53b e002 ae3c 5fa5 b0bc b966 87be
000001e0: a733 b2bd 438c de3d 0a1f e93a 79d8 693a
000001f0: c4a4 cf3c 8a3b 6fbd 9242 7e3d e5ec b73d
00000200: b087 7f3d dc8b dabd a290 583d 59c4 2fbe
00000210: 5d26 32bd 5352 9b3d 91cd b7bd 41d0 a33d
00000220: 8a98 a83d 65ca de3c 201a 84bd 3a2f eb3d
00000230: 9de0 433c 27c2 1fbd 1b52 123d 0834 af3b
00000240: 3e02 1e3d 46a9 d8bd d2cd 8c3d 64f9 213c
00000250: 8c8f cdbd 8278 a5bd 01a8 67bd 1dda 64be
00000260: 15ec e53c bd51 6ebc 5719 f53d ffdc 11be
00000270: 6078 2c3d 731d 013e 77e3 f43d 3d9f 99bd
00000280: e57e 96bd ff85 843d 2494 6cbd f944 973d
00000290: 734e 0e3d b02a 173e d989 473e 49df 4f3c
000002a0: da9c 083e 3542 ecbd 95f4 d3bd 0b96 07bc
000002b0: e27a 4e3e e025 21bd 5590 853d a664 08bd
000002c0: 18fc 7ebe 0b43 923b ec0c fcbd 51cd a0bb
000002d0: 62fe eb3c 5c1e 963d 79e3 b73d 0755 fb3d
000002e0: cf05 cebd befe 823d a1aa c23d 79b0 cfbd
000002f0: abed cebd fb3a e63c 1eaf 8e3d c76d 163d
00000300: df04 0c3e ba26 0abe cdde 8f3d 9b73 903d
00000310: aa4b 3c3e 7eda ec3d b7a3 d93d 4a04 07bd
00000320: 7945 a33b 3f43 d2bd 3773 76bd 715a 3e3d
00000330: 248b cb3d 1796 a53d efd8 0a3c 6bf7 ff3d
00000340: 8ebc 6e3d 0b1d d83d 0c1b a63d 0273 213e
00000350: b578 bb3d 3440 913c 2b9a 5abd ba09 59bd
00000360: 8416 363e 0781 4ebc 663e b73c 7e26 c2bd
00000370: 16c1 f6bd 0cd7 b9bd 2175 5a3e bd0e 5d3e
00000380: 2cac 88bd a067 063e 5e37 1cbe 3517 d93d
00000390: cc26 cebd 84ee abbd a597 0c3e 7899 f6bd
000003a0: f022 ab3d 97ce 12bd 7b06 f83d 03ef 9ebd
000003b0: fd9e 69bd c88d fc3d 22d3 a53d f493 233d
000003c0: f167 22be 2b14 f23c 3a42 233e 4541 e73d
000003d0: c755 3ebd 25bf f33c 3bff 543d 33ce b3bc
000003e0: ae40 9c3b 85d0 80bd ffb6 0dbd 69f0 3dbc
000003f0: 75cc b93d cea3 4ebb 7c4e 053e 2c0c 43bc
0.08475952 -0.11720979 0.027593484 -0.077293694 0.08795619 -0.033666756 -0.023739021 -0.059072748
-0.068802066 0.062039036 -0.119975545 -0.13527733 0.018179901 -0.08829335 -0.114130415 -0.046717685
-0.1125721 0.06223552 0.18761814 -0.08505918 -0.02605585 -0.056002785 0.0763936 0.12795092
-0.085879035 0.106620274 0.07293227 0.05314597 0.05637621 0.12675667 0.056884468 -0.10013002
0.053377006 0.06648634 0.11931855 0.009595258 0.02278929 0.14097844 0.03059011 0.021471424
0.078490876 -0.048540954 -0.115036406 0.061170075 -0.0014296588 0.03404343 -0.03655332 0.05283239
-0.25475922 0.047792275 0.13033263 0.087260336 -0.04259222 0.09340284 0.07027379 -0.049321547
-0.032475762 -0.035354216 -0.051188435 0.04175231 -0.04588051 -0.072715715 0.06847044 0.088736296
-0.023432994 0.0687349 0.152382 0.02169337 0.10301928 -0.03738008 -0.04324328 -0.0036290498
0.14164244 0.09313769 0.1230946 0.13171695 -0.032136954 0.030118382 0.11370885 -0.12387747
-0.077480346 -0.12000497 0.124279425 -0.022573387 -0.076010406 -0.038276188 0.13818175 0.019212471
-0.050057516 -0.09886533 -0.047835354 0.032930102 0.12081419 0.006816101 0.030830538 -0.03483158
0.036727425 -0.10210934 0.048725642 -0.08008118 0.019756602 0.102071874 0.004237926 0.15715912
-0.001469249 0.06926416 -0.08478505 0.2014919 0.25273162 -0.014207613 0.061372418 -0.023407606
-0.08891475 -0.25160775 -0.13854083 0.042298645 0.0060387757 0.021241605 -0.02156323 -0.2644556
-0.08701258 0.108665965 0.001778574 0.00089205016 0.025347121 -0.05840639 0.062075205 0.08980731
0.06238526 -0.10671207 0.052872308 -0.17164744 -0.043493617 0.075840615 -0.089747556 0.07998706
0.082322195 0.027196119 -0.064502954 0.11483617 0.011955407 -0.039003517 0.035722833 0.005346779
0.038576357 -0.10579161 0.068751946 0.0098861195 -0.10037145 -0.08079626 -0.056556705 -0.22348829
0.028066674 -0.014545855 0.11967724 -0.1424446 0.042106986 0.1260889 0.11957448 -0.075010754
-0.07348422 0.0647087 -0.057758465 0.07386202 0.034742784 0.14762378 0.19486178 0.012687513
0.13341084 -0.115360655 -0.10349385 -0.008275519 0.20164064 -0.03934276 0.0652167 -0.03329911
-0.24900854 0.0044635586 -0.12307152 -0.004907288 0.028807823 0.07330009 0.08978934 0.12272077
-0.10059702 0.063962445 0.09505201 -0.10141081 -0.10103925 0.028104296 0.06966995 0.036725786
0.13673733 -0.13491336 0.07024918 0.070533 0.18388239 0.115651116 0.10626929 -0.032963075
0.004982647 -0.102667324 -0.06016847 0.04647297 0.09938648 0.08085268 0.008474573 0.12498363
0.05828529 0.105524145 0.081106275 0.15766528 0.091538824 0.01773081 -0.053369682 -0.05298779
0.17782027 -0.012604005 0.022368621 -0.09479998 -0.12048547 -0.0907422 0.21333744 0.21587653
-0.06673464 0.13125467 -0.15255496 0.106001295 -0.10065994 -0.083951026 0.13729723 -0.120409906
0.08356273 -0.03584155 0.12110611 -0.077604316 -0.05703639 0.1233173 0.08096911 0.03993602
-0.15859963 0.029550632 0.15943232 0.11291746 -0.046468522 0.02975423 0.05200122 -0.02194891
0.0047684526 -0.06289772 -0.034598347 -0.011592963 0.090722 -0.003153074 0.1301822 -0.0119047575

conv3.bias f4 [64]
00000000: d4dd c0bd e7f2 863d 549f c53c b347 a5bd
00000010: 608b 943d 4842 193e ddcb 8d3d 44a5 543d
00000020: 966e 86bd fc5d ee3c 1b6b e5bc 7bd9 23bc
00000030: 3a2f cbbd 4014 943d 4218 903b 9caf 8f3b
00000040: fe87 9fbd f969 013e 173d 4c3d b5a1 34bd
00000050: f5e1 cbbc 7c33 00bd c1ef 9ebd 6628 d4bd
00000060: c6e6 81bd 7f2b b63c b41f ec3d 16ff 753d
00000070: 0509 043d 4572 9b3c 1a97 bd3d ee95 e4ba
00000080: e2e9 e23d af6d aa3d 1441 f9bd 2549 ca3d
00000090: 30b3 383d 1b4e 9ebd 1547 023e e034 f53d
000000a0: bc65 8cbd 8f41 033e 7cd0 2abd 766e b9bd
000000b0: f2d7 36bc 2c8b e8bc d02c 723d d783 41bd
000000c0: e133 913c 488f cd3c c230 883c 5fdb 563c
000000d0: e034 b53d 2629 653c 916e 553c ad63 a33d
000000e0: cdc4 9d3c 164c 5c3d 8e09 853d 769c f7bd
000000f0: 7b12 c6ba a376 f4bd 021a ed3d 34bd 8abd
-0.0941731 0.06589299 0.024123825 -0.08070316 0.07253146 0.1496669 0.069236495 0.051915422
-0.06564061 0.02909755 -0.028005173 -0.010000582 -0.09921117 0.07230425 0.004397423 0.004384948
-0.0778961 0.12638082 0.049862947 -0.04409953 -0.024888018 -0.0312991 -0.07760573 -0.10359268
-0.06342845 0.022237537 0.115294844 0.060057722 0.032235164 0.018975386 0.09257336 -0.0017439702
0.11079766 0.08321702 -0.12170616 0.098772325 0.04509276 -0.07729741 0.12722428 0.11972976
-0.06855342 0.12817977 -0.041702732 -0.09054272 -0.011159884 -0.028386675 0.059124768 -0.047244873
0.017724933 0.025092736 0.016624812 0.013113826 0.08847976 0.013986861 0.013026849 0.07977996
0.019258881 0.0537835 0.06495963 -0.120903894 -0.0015111709 -0.11936691 0.11577226 -0.06774369

bn3.weight f4 [64]
00000000: 1469 653f 4eaf 6b3f 3dcb 823f 072c 7e3f
00000010: b327 893f 6c20 6d3f 89d4 6e3f b673 683f
00000020: 585f 6c3f f1b5 833f 283e 7f3f 4ab8 803f
00000030: 1429 833f b738 853f 2975 953f 6bcc 873f
00000040: 349a 7f3f 0936 8e3f aa6f 823f 3a61 763f
00000050: 9eb2 7b3f 7e72 7d3f 101b 873f 950d 893f
00000060: 672e 903f cc6d 703f 4323 8c3f c343 843f
00000070: 34bd 643f b553 6c3f c5ab 903f 7a83 7a3f
00000080: 273c 823f ca0f 853f d89f 7b3f 79ff 933f
00000090: 0127 893f b0d5 643f 37fb 8d3f 7468 8c3f
000000a0: f69c 7f3f 62dc 913f c8a4 893f b7d4 883f
000000b0: 29c9 783f 96b4 863f 2044 8e3f 7058 6f3f
000000c0: ad87 8d3f 02c6 883f de52 8e3f e9d4 613f
000000d0: d5e9 803f 7a0a 8d3f e528 7b3f 582c 913f
000000e0: 4b8c 573f 6853 723f fbfb 683f 87cd 8d3f
000000f0: 1875 843f abca 843f f12b 8d3f f902 8c3f
0.8961346 0.9206437 1.0218273 0.9928593 1.071524 0.92627597 0.9329305 0.9080156
0.92332983 1.0289899 0.9970422 1.005624 1.0246911 1.0407933 1.167638 1.0609258
0.9984467 1.111024 1.0190327 0.96242106 0.98319423 0.99002826 1.0555134 1.070727
1.1264161 0.93917537 1.0948261 1.0333179 0.893512 0.92315227 1.130242 0.9785687
1.0174607 1.0395443 0.9829078 1.1562339 1.0715028 0.8938856 1.109229 1.0969377
0.9984888 1.139538 1.0753412 1.0689915 0.97181946 1.052386 1.111454 0.9349432
1.105703 1.0685427 1.1119039 0.882155 1.007136 1.1018822 0.98109275 1.1341658
0.84198445 0.9465852 0.9100949 1.1078347 1.0348234 1.0374349 1.1029035 1.0938407

bn3.bias f4 [64]
00000000: 1687 f1bd 6aaf e3bd 03e7 6b3d c065 75bd
00000010: 43b3 af3c bb9e febd 4bbb cabd 264b dcbd
00000020: 92f9 bcbd 51bb 6dbd 4c4e aabd 4540 583d
00000030: c655 4d3d 0af7 343d 5404 e9bc 7eef cbbc
00000040: 246b 3d3d 4ff4 aebc fa36 563d 362e b6bd
00000050: 69fd 853d 3540 123d 723f 8dbd 3217 17bb
00000060: c8ca f5bb 1b2a c2bd b4c6 b3bb a949 ed3c
00000070: 89be 02be a000 d2bd 54b6 923a e01e 9d3d
00000080: 5630 a73c 7b3b 47bd c063 933d 93c4 903c
00000090: cb16 8bbd 53ec fabd d8cb 743c 77e6 66bc
000000a0: 0d30 8a3d 4a81 f3bc d9e6 d03b 6150 f53c
000000b0: 015d adbd 2898 acbc 2510 68bc 3f9b 00be
000000c0: 3d34 cebc 999a 743d 4db1 6cbd 560a 20be
000000d0: 551c 6fbd b7a5 c93b f60f a8bd 6b7c 33bb
000000e0: c28c 17be 1224 a2bd f505 cebd 550a 3f3d
000000f0: 0fbe 313d 2f1d 8abc 1365 443d 4662 0fbd
-0.11793344 -0.11117442 0.057593357 -0.05991149 0.021447783 -0.12432619 -0.098990045 -0.10756521
-0.09227289 -0.058039967 -0.08315715 0.052795667 0.050130628 0.044180907 -0.028444447 -0.024894472
0.046244755 -0.02135673 0.052298523 -0.08895533 0.06542475 0.035705764 -0.06896867 -0.0023054597
-0.00750098 -0.09480687 -0.0054863337 0.028965788 -0.12767996 -0.102540255 0.0011193254 0.076719046
0.02040879 -0.04864071 0.0719676 0.017671859 -0.06791457 -0.122521065 0.014941178 -0.014093033
0.06747446 -0.029724736 0.0063751754 0.029945554 -0.08465005 -0.021068648 -0.014164005 -0.12559222
-0.025171394 0.05971775 -0.057786275 -0.15628943 -0.05837663 0.006153788 -0.08206169 -0.0027387391
-0.14799789 -0.07917036 -0.1005973 0.046640713 0.043394145 -0.016859619 0.047947954 -0.03500583

bn3.running_mean f4 [64]
00000000: 7f59 d63c 93fc 753e 55cb 063e dbe7 0d3f
00000010: 72e2 3abe 4420 063e 8663 6fbd 12ee 4cbe
00000020: b9ef 94be d6ca bdbe 979c 093d 9cdb 48bd
00000030: b02e 36be 14df f4bd 6c66 dcbd 7724 8abe
00000040: d1ba a53d b18c 8a3e 22f8 d9bd 76a4 c0bc
00000050: f204 37bf 5b35 b7be 6d4b 3abe 99b0 4bbd
00000060: e871 83be c954 a7be c478 babe 09ca 233e
00000070: f95f 6e3d b10c d4bd 876c 863e a3fb 8dbe
00000080: 8361 0d3b c19d 8d3e 6f1d f1be a5fa f53e
00000090: b242 7b3d 8813 91bd 08fa b8bb 6ebc 283f
000000a0: 6289 dfbe 8721 2cbe dfe0 763d 1069 dfbe
000000b0: ec89 e9be bfac bb3d 5174 dc3e 7bf2 873e
000000c0: 0570 6abe a8e2 673d c935 0abe d0a4 8c3d
000000d0: 1aab 773e 9110 ce3d c9f4 033e 48c3 933e
000000e0: 0981 b03e 68c5 19be 0085 2abd fee8 88bd
000000f0: 7531 5f3d 1401 b7be edf4 d1be 5f20 203e
0.026165722 0.2402213 0.13163503 0.5543191 -0.18250445 0.13098246 -0.058444522 -0.20012692
-0.29089144 -0.37068814 0.0335966 -0.04903756 -0.17791247 -0.11956611 -0.10761723 -0.26980945
0.08092273 0.27060464 -0.10643031 -0.023515921 -0.7149192 -0.35782894 -0.18192835 -0.049728964
-0.2567284 -0.32681873 -0.36420262 0.15995039 0.058196995 -0.10353983 0.26254675 -0.27731046
0.0021573014 0.2765942 -0.4709277 0.4804279 0.061342902 -0.070838034 -0.0056450404 0.6591252
-0.43659502 -0.16809665 0.060273048 -0.43634844 -0.4561304 0.09163808 0.43057492 0.26552185
-0.22894295 0.05661264 -0.1349708 0.06867373 0.24186364 0.100617535 0.12886347 0.28859925
0.34473446 -0.15016711 -0.041630745 -0.06685065 0.054490525 -0.3574301 -0.41007176 0.15637349

bn3.running_var f4 [64]
00000000: 295e f23d bf3f 363e 8962 0b3f 2d4f 963e
00000010: a8b5 5f3e bd4c 2a3e ea8f 383e 34a7 313e
00000020: 9ce6 113e 0764 213e 5061 203e eaac 3b3e
00000030: 41a9 e13e 85e7 573e d72b 0f3e 7625 ad3e
00000040: 48c7 2b3e 1001 483e e578 4a3e 2768 8c3e
00000050: bc84 603e 4a5d 763e b566 8d3e cfeb 973e
00000060: d9cb 843e b48c 993e 24f7 773e 4e4c ac3e
00000070: 868c 4d3e 4297 913e 5b0b 113e 4342 953e
00000080: d575 cb3d 4d8e 803e ba90 993e 7b72 013e
00000090: 4850 5d3e f096 263e c623 6e3e 088e a83e
000000a0: f2d0 c83e 9f23 683e 1657 8e3e 931c 883e
000000b0: 85cb 4d3e 9a09 083e 10e9 5e3e 75e6 af3e
000000c0: f929 8a3e e617 813e 7792 443e 36db 083e
000000d0: 23f3 653e 353d a53e 702c 973e cc8b 0f3e
000000e0: 2788 613e 333d df3d f02a 233e 6a68 513e
000000f0: 32af 3c3e 84bc 263e 7af5 e53e 4394 783e
0.11834366 0.17797755 0.5444723 0.2935728 0.2184664 0.16630836 0.18023649 0.17348939
0.14248127 0.15760814 0.15662122 0.1832768 0.44074443 0.21084411 0.13981567 0.33817643
0.16775239 0.19531655 0.1977268 0.27423212 0.21925634 0.24059024 0.27617422 0.29672095
0.25936773 0.2999016 0.2421537 0.33651966 0.20073137 0.28435713 0.14164488 0.29152116
0.09934584 0.25108567 0.2999323 0.12641327 0.21612656 0.16268516 0.23255834 0.3292086
0.39221913 0.22669838 0.27800816 0.265843 0.20097168 0.13284913 0.21768594 0.34355512
0.26985148 0.25213546 0.19196497 0.13364872 0.2245603 0.3227326 0.2952609 0.14018172
0.22024594 0.10900345 0.15934348 0.20449987 0.18426207 0.1628285 0.44913846 0.24275307

conv4.weight f4 [64, 1, 3, 3]
00000000: c629 08be 502c 12be 44d3 54be 54b4 15be
00000010: 1d58 a8bd 6d48 abbd b787 0bbe 6c2e cd3d
00000020: 9d43 22be 06b6 68be 1e41 94be 2acf b9be
00000030: 0cd1 40be e509 513e 44bc abbd 587b c0bd
00000040: 3168 323e f888 46be 9e3e 7dbe 05a4 f83c
00000050: 7221 093c 8e43 abbe e2a6 da3d d235 75be
00000060: 2abc a53e fbd9 903e 4f20 7cbe 0165 9dbe
00000070: 94f0 b7be 3fbf 73be bd39 8f3e 1b8b 64bd
00000080: 7c9e b03d 9235 713b 9fbb eebe 17b4 083e
00000090: 4b2e 93be 1235 40be 6a09 693e 028c 89be
000000a0: 18f6 8c3d 85a3 913e f543 853e 4441 0e3d
000000b0: 8ebd 07be 5902 11be ad25 9cbe 0f8a 3e3e
000000c0: e69c 023d 7e53 43be a577 2e3e 117c 15be
000000d0: 8b90 b53e a9eb 1abd a4f5 ca3c f746 c43d
000000e0: f369 32bd 95d5 b13e 1d0e 8abe 838a 563e
000000f0: 8f7a 8a3d 360b 3b3e 3ec9 9a3b a77c 83be
00000100: 0710 3f3d 958d 233e 398b 323e 10c3 28be
00000110: 79f9 b03d 3f53 a43e 820a 873d 6702 27be
00000120: 9e7c 643d 5591 ac3e 6035 613e 26ac 9a3c
00000130: ccee 673e 56af 203e 7528 693e ddce 35be
00000140: 745b 39be ba36 213b 2abc a13d 72a1 15be
00000150: 2f33 103e 400c 61be b8a8 723d 07ea 4dbd
00000160: 70ae 0cbd 02e1 f03d c5dd 7fbe ac14 59be
00000170: 16ec cb3e 3cee b33d 8010 5dbe 8078 b03e
00000180: bee6 1dbe b731 9c3e b9a6 c7bd a631 313e
00000190: d784 8b3e 443c aa3e d024 633e aab2 23be
000001a0: 83a0 923e 24c4 943e 119d 403e ad2f 8d3b
000001b0: 8fad dcbe de05 52be 4ef7 f9bd cf0d 433e
000001c0: 88c9 50bd e7a0 663e 1dbb 0a3e 2bd5 753c
000001d0: 71c9 97be 9a99 9f3e 1c42 093e 0ce5 51be
000001e0: 7c24 893e 7738 6c3e 5192 8cbe a671 133e
000001f0: 14f0 39be 3ff3 bebd ad87 74bc 986f a93d
00000200: c612 40be dd3d 1c3d 731c 523e 69e8 693e
00000210: ce77 6e3e 4fc4 c23c 4511 bc3e 369f 79be
00000220: 53f7 063d 0f08 7d3e e871 cabd c7b3 4f3a
00000230: 27a6 ebbd 6170 a93e 1fc4 9f3d 52c0 91bd
00000240: b47c 18be 2455 1ebf 70ae b3bd 0167 813e
00000250: cf55 75be 94e4 593d 4d9b 9abd cd51 28be
00000260: 61d2 fa3d dc6b a0be 7084 0ebe 3969 96bd
00000270: 54fb 67bd 57fc 26be b6f1 06bc 0bb3 993e
00000280: 0688 12be f8e8 91be e601 a43c b142 5d3e
00000290: ae8c a1be 6910 58be cb1d 3abe eb71 073e
000002a0: d169 fcbd 242f 4a3e 8873 c43d d3f3 58bd
000002b0: 7c32 0c3e 2500 2e3e b834 62be 6b89 373d
000002c0: 165d 22be 61f1 77be 0e42 a0bc 3952 23be
000002d0: 1d0d 143d 7bb6 b73e 9e49 6ebd 1299 a3be
000002e0: a776 933e 4f9d d4bd e4b1 96be a552 cc3d
000002f0: 5517 2c3d 2d26 453c 876b 983e 23c9 2d3e
00000300: 11bf 653e 94b9 893c 30e2 4c3e d73a 5dbd
00000310: aef4 b8be 2819 cfbd 0f11 f43c d4c6 65be
00000320: b0dc 31bd 2d3a 75be d17d f03d 0d28 d53d
00000330: 3632 99be b1dd 3a3e 3e02 3c3e 7bb1 65be
00000340: 2c1a cfbd 2b8b 483e 5a45 0c3e d8c8 95be
00000350: 8588 e73d 779b 023e 555e 99bd 74d5 61be
00000360: 23a9 a4be 1465 223e 2511 4d3e 0321 cdbd
00000370: b3fd a63d 63c5 af3c 24a2 553e 2458 4cbd
00000380: e5aa e4bd 49af bc3d a858 97be fd60 84bd
00000390: d30d 983d 85db 803e 8a5d 513e 707f a2be
000003a0: 5fcf 283e 03a6 aebe 4806 713e 4cfa 81be
000003b0: 43f6 253e 6e35 e53d b6a5 69be 328e 113e
000003c0: 3bb9 5d3e ebe3 acbd cee7 343e 227d 5dbe
000003d0: 9d98 263e a6d7 7f3e ee23 26be 8c38 ad3d
000003e0: 94b4 33be d290 9d3e b689 923d 1a83 023e
000003f0: 9bb3 ddbd c9d4 9cbe 31c9 7b3e 1f22 1ebe
-0.13297185 -0.14274716 -0.20783716 -0.14619571 -0.08219931 -0.083634235 -0.1362599 0.1001862
-0.15846105 -0.22725686 -0.2895593 -0.36290866 -0.18829745 0.2041393 -0.08385518 -0.09398526
0.17422558 -0.19388187 -0.24730918 0.030351648 0.00836979 -0.33449978 0.106763616 -0.23946312
0.3237012 0.28291306 -0.246217 -0.30741122 -0.35925734 -0.23803423 0.27973738 -0.055796724
0.086239785 0.0036805612 -0.4662752 0.13349949 -0.28746256 -0.18770245 0.22757497 -0.2686463
0.06882876 0.28445068 0.2602841 0.03473021 -0.13255903 -0.14161052 -0.30497494 0.18607353
0.03188791 -0.19074818 0.17037828 -0.14598109 0.3546184 -0.0378224 0.024775334 0.09583848
-0.043558072 0.34733263 -0.26963893 0.20951276 0.067616574 0.18265995 0.004723697 -0.2568104
0.046646144 0.15971978 0.17435922 -0.1648066 0.08641333 0.32094762 0.06593801 -0.1630951
0.055782907 0.3370463 0.21993017 0.018880915 0.22649688 0.15691885 0.2276934 -0.17754693
-0.18101293 0.002459927 0.078972176 -0.14612368 0.14082025 -0.21977329 0.059242934 -0.050272014
-0.034346044 0.11761667 -0.24986942 -0.21199292 0.39828557 0.08785674 -0.21588326 0.34466934
-0.15420052 0.3050668 -0.09748597 0.17304096 0.27249786 0.33249104 0.22182012 -0.15986124
0.28638086 0.29055893 0.18809916 0.004308662 -0.43101165 -0.2051005 -0.12205373 0.19048236
-0.050973445 0.22522317 0.1354794 0.0150044365 -0.29645875 0.31171876 0.13404125 -0.2049753
0.26785648 0.23068415 -0.2745538 0.14398822 -0.18157989 -0.09323739 -0.014924926 0.08273238
-0.18757161 0.038144935 0.20518665 0.22842564 0.2328789 0.023775248 0.36731926 -0.2437714
0.03295071 0.24710105 -0.09885007 0.0007923212 -0.115063004 0.3309355 0.07801079 -0.0711676
-0.1489132 -0.61848664 -0.08773506 0.25273898 -0.23958515 0.053196505 -0.075491525 -0.16437455
0.12247158 -0.3133229 -0.13917708 -0.073442884 -0.05663617 -0.16307198 -0.008236339 0.3001941
-0.14309701 -0.28498054 0.020020436 0.21607472 -0.31552643 -0.2110001 -0.18175428 0.1322705
-0.123248704 0.19744545 0.09592348 -0.052966904 0.13691133 0.16992243 -0.22090423 0.044808786
-0.15855822 -0.24213172 -0.019562747 -0.15949334 0.03614532 0.3588141 -0.058175676 -0.3195272
0.28801462 -0.10381567 -0.29432595 0.09976701 0.04201444 0.012033028 0.29769537 0.16971259
0.22436167 0.016812123 0.20008159 -0.054011192 -0.36124176 -0.1011222 0.02979329 -0.22439128
-0.043423355 -0.23947974 0.117427476 0.1040803 -0.2992112 0.18248631 0.1836023 -0.22430985
-0.10112414 0.19584338 0.1369833 -0.29254794 0.11305336 0.12754618 -0.074886955 -0.22054082
-0.3216029 0.1585887 0.20026071 -0.10016062 0.08153858 0.021456426 0.20862633 -0.049888745
-0.11165408 0.092131205 -0.29559827 -0.064638115 0.07424512 0.2516748 0.20445839 -0.31737852
0.16485356 -0.34111032 0.23537552 -0.25386274 0.16207223 0.111918315 -0.2281712 0.142144
0.21652691 -0.084419094 0.17666551 -0.21629766 0.16269155 0.24984607 -0.16224644 0.08458051
-0.17549354 0.30774552 0.071551725 0.12745324 -0.10825273 -0.30631092 0.24588467 -0.15442704

conv4.bias f4 [64]
00000000: ee79 95bd 754f f0bd 7a20 e7bd 9bb4 6ebe
00000010: 0987 a0be d14c 0abb 18e8 84be 0bd2 763e
00000020: cf06 843c 1d93 963e ccba 4f3e 8b37 9b3c
00000030: 3320 83be c8de 803c 1c9e dfbd 9cf5 ebbd
00000040: d066 14be e13f a5be a7ce a53d e361 8ebe
00000050: 9998 1c3e 52e1 92bd 5c89 b4bd e2c5 ab3e
00000060: 28a2 463e ccb3 2d3c 8169 523e cfae 8f3e
00000070: 33b7 a0be 911e 9a3e c363 893d 1a37 7f3d
00000080: 9321 e03d f350 543d e92b 8fbe 216b aa3c
00000090: fd47 413e 0182 e3bd 037c a03e db81 95be
000000a0: 01a2 723e 1ff6 9dbc 54c3 10be cfc8 08be
000000b0: 5a27 8c3e 5494 4f3d 353b db3d c19f 6f3d
000000c0: 12d6 143e 7f84 1c3e ff7f 84bd 3620 80be
000000d0: 5178 d13d e3ad 3e3e afbb 8e3e 2603 34bd
000000e0: b82b 033e d540 7a3d 0404 71be 67f0 9dbe
000000f0: 46f7 af3b a11f 8b3e 6a53 373e 02d6 a6be
-0.07298647 -0.11733905 -0.11285491 -0.23311083 -0.31353024 -0.0021102915 -0.25958323 0.24103563
0.016116528 0.29409114 0.20286101 0.018947383 -0.25610504 0.01573123 -0.10918829 -0.11521456
-0.14492345 -0.32275298 0.080960564 -0.27809057 0.15292586 -0.07171883 -0.08815262 0.3354941
0.19397795 0.010601949 0.20548059 0.28063056 -0.3138977 0.30101445 0.06708481 0.06230841
0.10943904 0.05183501 -0.27963188 0.020803036 0.18875118 -0.11108781 0.31344613 -0.29200634
0.23694612 -0.019282399 -0.14137012 -0.13357852 0.27373773 0.050678566 0.10704652 0.058501963
0.14534786 0.15284918 -0.06469726 -0.25024575 0.10228027 0.1862102 0.27877566 -0.043948315
0.12809646 0.061096985 -0.23536688 -0.30847475 0.0053700535 0.27172568 0.17902914 -0.3258515
