models/trained_models/dscnn_mfcc/model_acc_42.96875.pth (torch_old, 110035 bytes, 56 tensors)

conv1.weight f4 [64, 1, 10, 4]
000000 2b 6f 2d 3e 1a 69 94 bd 66 c0 eb bd ec c7 60 bd
       0.16936938 -0.07246609 -0.115113065 -0.05487816
000010 51 2e 03 3e 9c bf 93 bd 6e 93 2f 3d 97 fa a6 3d
       0.12810637 -0.07214281 0.04286521 0.08153265
000020 da a4 36 3e ca 03 a3 3d a6 2a 33 be cf 7f 0b bd
       0.17836323 0.07959707 -0.17496738 -0.034057435
000030 b5 9d e1 3b fe 8b cf bd e0 5c 1b 3d 65 4d 95 bd
       0.006885255 -0.10134123 0.03793037 -0.072901525
000040 28 e8 99 3d 28 ff 66 be 26 d4 de bd 38 c3 43 3d
       0.075149834 -0.22558272 -0.10880308 0.047793597
000050 f5 41 52 3d 25 ec 63 bd 63 81 20 be f2 3e 1c 3c
       0.051332433 -0.055645127 -0.15674357 0.009536492
000060 23 cc f7 bd 86 3b c3 bd a9 0e e0 bd cc d2 d7 3d
       -0.12099483 -0.095328376 -0.10940296 0.10538253
000070 6a 56 0c 3e a6 ac 3e bd bc a7 d2 3d 61 63 c8 3c
       0.1370484 -0.04655137 0.10285899 0.02446145
000080 00 b4 93 3d ca f1 0c be 4d 10 91 bd 76 a1 0e 3e
       0.07212067 -0.1376411 -0.07083187 0.1392878
000090 16 b1 18 bd 12 04 61 bb 03 93 39 3e ef 64 cd bd
       -0.037278257 -0.0034334701 0.18122487 -0.10029017
0000a0 61 35 b2 3d 25 de 44 3e c4 38 2e 3e 8d 91 ba 3d
       0.087015875 0.19225366 0.17013842 0.09109793
0000b0 ac 1b 72 3d 76 c8 d0 bd 04 0a 8c bc c7 f5 52 3e
       0.05910842 -0.10194485 -0.01709462 0.20601569
0000c0 80 e0 e0 bc 0f 12 05 be cd 5d f3 3a c3 17 a5 3c
       -0.0274508 -0.1299517 0.0018567384 0.020152932
0000d0 a7 35 77 bc 5f 08 8d bd 3b 47 3d be fe 77 d8 3d
       -0.015088475 -0.06886362 -0.18484204 0.10569762
0000e0 9f e2 92 bc a2 ab 7a 3d 31 c6 4d 3d 0b 14 25 be
       -0.017930327 0.061198838 0.05023784 -0.16120927
0000f0 41 16 b5 3c 5b 92 a1 3d 4e ab ec 3d c6 79 28 bd
       0.022105338 0.07889243 0.11556111 -0.041131757
000100 3f 1e 93 bd 85 f2 40 bd 9a 11 49 3e c8 f7 76 bd
       -0.07183503 -0.047106285 0.1963562 -0.060294896
000110 e6 4d ea bc d0 d2 00 bd 00 a9 11 3e 90 eb 06 3e
       -0.028601598 -0.031451046 0.14224625 0.13175797
000120 37 1f 97 3d 76 cb 5a 3d a7 06 1e bd b6 f9 b3 3d
       0.07379001 0.05341669 -0.038580563 0.08787863
000130 e2 f8 8e 3c 38 55 17 be 28 3e 2f 3d e6 dc c3 bd
       0.017452661 -0.14778602 0.042783886 -0.095636174
000140 e8 f2 ee 3c 6e b5 02 3e e6 95 d2 bd 70 6b 0b be
       0.029168561 0.12764522 -0.10282497 -0.13615203
000150 ad 56 ff bd 52 d8 50 3d 5f 6b 31 be cb 52 e9 3d
       -0.12467704 0.05098755 -0.17326115 0.11392745
000160 07 b1 40 bc fc a1 21 be 4f d4 e2 3c ec 8b 73 3b
       -0.011760957 -0.15784448 0.027689127 0.0037162257
000170 c9 20 95 3d 45 b7 4e be 23 1f fe bc 01 b4 e6 bc
       0.07281644 -0.201871 -0.031020707 -0.028162004
000180 e1 2a 67 bc 6a 15 89 be c9 47 3d be ef 47 9d 3d
       -0.014109344 -0.2677415 -0.18484415 0.07679736
000190 db 92 26 bd f7 bd 4a be a5 6e a5 3c 33 ad 03 be
       -0.040667396 -0.19799028 0.020194361 -0.12859039
0001a0 3a 83 fe bd 7f 17 48 3d 52 57 23 be cd ed 19 3e
       -0.12427373 0.048850533 -0.15951279 0.1503212
0001b0 2a a4 bc bd e1 61 fd bd 06 24 74 bd 12 05 65 bd
       -0.09210999 -0.123721845 -0.059604667 -0.05591304
0001c0 52 b8 8e bc 0f 66 d2 bc 58 a9 49 be 10 3e 5c bd
       -0.017421875 -0.025683431 -0.19693506 -0.053770125
0001d0 78 33 11 3e 14 e5 44 bd 03 22 f4 bd f3 09 f9 bd
       0.1417979 -0.04807003 -0.1192055 -0.12160101
0001e0 e3 18 3f bd 36 e7 3a 3d ae 09 b0 bd 9c b7 28 3d
       -0.046654593 0.045630656 -0.08595596 0.04119073
0001f0 b4 25 bd bd 98 bd d9 3d d0 8e d8 bd eb f9 ca 3d
       -0.09235707 0.10631865 -0.10574114 0.09910949
000200 d5 0e 24 3e 97 91 02 3e ff 83 74 bd f3 f5 ed bb
       0.16021283 0.1275085 -0.059696194 -0.0072619854
000210 31 fa d2 3d 98 37 f7 3d 08 d4 af bd 82 18 4d be
       0.103016265 0.120711505 -0.085853636 -0.2002888
000220 e6 e9 ac 3d 99 33 e0 bd 8f b1 46 be 12 4f 3e be
       0.0844305 -0.109473415 -0.1940367 -0.1858485
000230 36 20 bc bd e3 2a 4f bd d2 12 a2 be 3b 92 50 3d
       -0.09185831 -0.05057801 -0.31654984 0.050920706
000240 18 d1 9f bd 98 2c c1 3d f8 43 b4 3d 6b 65 1c be
       -0.07803553 0.09432334 0.088020265 -0.15273063
000250 70 59 05 3e 4f 34 84 bd dc 29 45 bd f4 01 28 be
       0.13022399 -0.064552896 -0.048135623 -0.16406995
000260 81 61 ab bb 6d 69 ac bd 13 85 35 3e aa d4 e8 bd
       -0.005230129 -0.08418546 0.17726545 -0.113686875
000270 e7 8c e8 bd 88 e6 46 bd fd 08 21 3e 7c b8 9b 3b
       -0.11355 -0.048559695 0.15726085 0.004752217
000280 37 b7 7a bb 10 38 bf 3d f1 2e 73 3d d9 ef fc bd
       -0.0038256177 0.09336865 0.05937094 -0.12350435
000290 5f a6 83 3b b7 6d e1 3d c9 bd 04 bc 02 32 0c bd
       0.0040176357 0.110072546 -0.008101889 -0.03422738
0002a0 eb e9 05 3e 8e 3b db 3d 57 11 6a 3b f4 af d0 3d
       0.13077514 0.107047185 0.0035715902 0.101898104
0002b0 49 07 ce bc 45 4c 3f bd 18 4e 8d 3d 57 40 c4 3c
       -0.025149958 -0.046703596 0.06899661 0.02395646
0002c0 e7 5b 2e be 2f f9 5c 3d 21 b4 3a be 50 ad 02 3e
       -0.17027245 0.053948577 -0.18232776 0.12761426
0002d0 cb 57 19 be c6 95 4a be 95 92 e1 bd 92 4e 5f bd
       -0.14974897 -0.19783697 -0.110142864 -0.05451829
0002e0 82 46 85 bc 50 4f a3 bd 34 83 be 3c db 85 b8 bd
       -0.016268972 -0.07974112 0.023255922 -0.09009906
0002f0 bf 8a c4 bd 05 3e 27 be f0 af ea 3d d2 c2 4a 3d
       -0.09596776 -0.16332252 0.11459339 0.0495022
000300 43 21 50 3d 2c 48 ce 3d 69 09 0f be b6 7f b0 bd
       0.05081297 0.100723594 -0.13968433 -0.08618109
000310 e3 d4 ec bd 5f e8 de 3d cc b6 28 3d 9a d6 5b 3b
       -0.115640424 0.10884165 0.041189954 0.003354466
000320 ae ae 1e be 04 12 da bc 03 f5 ce 3d a3 7a 46 3d
       -0.15496323 -0.026619919 0.10105326 0.0484568
000330 52 b6 61 bd d2 ef e0 bd e7 64 1a be 22 b3 cc 3d
       -0.055105515 -0.10983242 -0.15077554 0.09995104
000340 e1 fc 92 3b 73 b2 2b be 51 53 a7 bd e4 cd 10 3e
       0.004485712 -0.16767292 -0.08170188 0.14141041
000350 ca fd 42 bd 38 f1 1a bd 13 db 8b bd 50 b5 b5 3d
       -0.047605313 -0.0378277 -0.068288945 0.08872473
000360 34 df de 3d 83 bf 09 be 03 8c 06 3e 5b 3d f1 bd
       0.10882416 -0.13451962 0.13139348 -0.11779281
000370 31 52 1a 3e 8f 80 b1 3c 66 b4 d6 bd 19 e7 1c bd
       0.15070416 0.021667747 -0.10483627 -0.03830633
000380 8d 33 94 3d 8e ed fd bd ce e3 c6 bc 2c c1 20 3e
       0.07236395 -0.123988256 -0.024278548 0.15698689
000390 99 83 d0 3d 88 87 cd 3d a6 9a 80 bd 91 94 36 3e
       0.1018135 0.10035616 -0.06279497 0.17830111
0003a0 ab e8 82 3d e1 7e 5b 3d 70 06 9f bc 4b a5 09 bc
       0.06392034 0.053587798 -0.01941225 -0.008401225
0003b0 36 d5 90 3d f0 f7 14 be bd 6c ed bd 0a 7a a4 3c
       0.07071917 -0.14547706 -0.11593006 0.020077724
0003c0 d5 a6 9e 3d 2e be c0 3c 9d c2 46 3e f6 b3 0c be
       0.077466644 0.023528185 0.19410177 -0.13740525
0003d0 77 17 63 3d 6b ce 18 3d 9a 3b 3d bd 37 49 e5 3d
       0.0554423 0.03730623 -0.04619942 0.11195605
0003e0 57 23 07 bd 1c 1a 2c 3d 0f c6 0b be b3 b3 29 be
       -0.032992687 0.042017087 -0.13649772 -0.16572456
0003f0 d6 8e fa bd 1f d6 d9 bd 4e d9 35 3c 9e 19 83 3c
       -0.12234275 -0.106365435 0.011099173 0.016003426

conv1.bias f4 [64]
000000 1a 7b 47 3d b6 0e 05 3a 18 81 0c bd 52 5b a4 bd
       0.048701383 0.00050757395 -0.0343028 -0.080252305
000010 ae e5 1d 3d 6a 91 ff 3d 22 90 17 be 33 4c 63 bd
       0.038549118 0.124789074 -0.14801076 -0.05549259
000020 4e 92 00 3e e1 7d 10 bd 2e 29 10 be 6f c5 51 3d
       0.12555811 -0.035276297 -0.14078209 0.051213678
000030 3d 5e 2b bd 1d a0 1f 3e bb fd 4a bd 53 1b 2a 3d
       -0.04183792 0.15588422 -0.049558382 0.041529965
000040 16 81 8f bd e4 3a 77 3d 87 4e 95 3d 61 be 14 3e
       -0.07007043 0.060358897 0.072903685 0.14525749
000050 38 ad dd 3d 12 8f 19 be 0d e6 b6 3d 38 6f 00 bd
       0.108240545 -0.14995983 0.089305975 -0.031356066
000060 52 9c 5c bd d0 2a 29 bd e3 32 0f 3e 03 8a 5b bc
       -0.053860016 -0.041300595 0.13984255 -0.013399604
000070 7b 0f 01 3e 51 7d 5d bd 32 9f 0f be 44 de 92 3d
       0.12603562 -0.05407459 -0.14025572 0.071713
000080 07 be 19 3e ae 22 7b bd cf 8b 13 be 4e 24 0e 3c
       0.15013896 -0.06131237 -0.14408801 0.008675648
000090 93 d3 07 be 97 c1 1e bd 96 45 5f bd ee e3 9b 3d
       -0.13264303 -0.03875884 -0.05450972 0.076118335
0000a0 4b 41 16 be 88 1a d5 3d 28 b5 41 bd ba e8 bf 3d
       -0.14673345 0.10405451 -0.047291905 0.09370561
0000b0 79 9f 38 3d 71 44 e8 bd 01 7d 1d 3e 18 13 8d bc
       0.04507396 -0.11341179 0.15379716 -0.017221019
0000c0 78 80 8b 3d f9 d9 e9 3c 10 c6 42 3c 7f fd 8e 3d
       0.06811613 0.02854632 0.011888042 0.06981944
0000d0 59 fb 08 bd e5 c4 b9 3d 25 0a 4b bd 78 bb d1 3d
       -0.03344283 0.09070758 -0.04957022 0.10240835
0000e0 2d 32 ea 3d 3e f7 9a 3d 15 f2 7b 3d c3 26 0e 3e
       0.114353515 0.07566689 0.061510164 0.13881974
0000f0 40 26 57 bd 09 ae 52 3d 34 6c d5 3d a7 d5 45 3d
       -0.052526712 0.051435504 0.10421029 0.048299458

bn1.weight f4 [64]
000000 68 04 7c 3f ea 47 80 3f 69 f1 81 3f ab 18 86 3f
       0.98444223 1.0021946 1.0151798 1.0476278
000010 b5 25 7e 3f cb 41 6e 3f b4 c2 80 3f c8 fe 85 3f
       0.99276286 0.9306914 1.0059419 1.0468378
000020 a7 ba 84 3f e5 1b 75 3f 49 48 74 3f 12 af 87 3f
       1.0369462 0.9574569 0.954228 1.0600302
000030 f2 ad 81 3f 38 7f 89 3f 9c be 7a 3f b0 06 81 3f
       1.0131209 1.0741949 0.97947097 1.0080166
000040 bc f3 86 3f e8 2f 80 3f e9 39 88 3f b3 e0 7a 3f
       1.0543132 1.001462 1.0642673 0.97999114
000050 75 3f 87 3f 69 68 78 3f ec 80 84 3f e3 f1 8a 3f
       1.056624 0.9703432 1.0351844 1.0855068
000060 12 1e 64 3f a8 e0 72 3f c3 33 61 3f 5c 4d 7d 3f
       0.89108384 0.9487405 0.8796961 0.98946166
000070 ea 0c 81 3f 30 53 92 3f 60 36 86 3f 36 05 90 3f
       1.0082066 1.1431637 1.0485344 1.125159
000080 61 32 81 3f a1 8b 96 3f 57 c6 84 3f 8e da 6f 3f
       1.00935 1.1761361 1.0373029 0.93692863
000090 ab b2 84 3f a6 80 7b 3f d1 1d 80 3f 0e d5 83 3f
       1.0367025 0.98243177 1.0009099 1.0299394
0000a0 76 7b 81 3f 6b 56 7b 3f f9 ec 7a 3f 48 c3 92 3f
       1.0115802 0.9817874 0.9801784 1.1465845
0000b0 fb bf 75 3f 7e 5a 79 3f 03 67 83 3f b7 c4 7c 3f
       0.95996064 0.97403705 1.0265812 0.98737663
0000c0 6d 61 4e 3f 99 25 85 3f 90 b6 5f 3f 1c 0c 91 3f
       0.8061741 1.0402099 0.87387943 1.133182
0000d0 b5 46 74 3f 96 27 8a 3f 0b c8 75 3f 9b 7d 86 3f
       0.9542039 1.0793331 0.96008366 1.0507082
0000e0 c9 62 75 3f fd 02 87 3f 48 1f 7c 3f 18 f1 86 3f
       0.9585386 1.0547787 0.9848523 1.0542326
0000f0 11 e1 84 3f f0 4f 85 3f 65 1c 77 3f 97 bf 87 3f
       1.0381185 1.041502 0.965277 1.0605344

bn1.bias f4 [64]
000000 8d 5f 12 bd a5 b7 df 3c 26 24 d5 bc 69 b9 49 bc
       -0.035735656 0.027309248 -0.026018213 -0.012312272
000010 8d 4c 4f bc b1 49 a1 bd c2 2e 80 bb fe 9c 85 bc
       -0.0126525285 -0.07875384 -0.003911824 -0.016310211
000020 c9 7e fd bc 56 70 78 bd 0f 7d 84 bd 66 bf 35 bc
       -0.030944245 -0.060654007 -0.064691655 -0.011092996
000030 05 0e b6 bc 48 3a 81 3a af 0c 34 bd 00 b3 fe 3b
       -0.022223482 0.0009859288 -0.04395741 0.0077728033
000040 04 64 32 bc a3 5f c6 bc ef a5 b5 bc a3 90 46 3d
       -0.010888103 -0.024215525 -0.02217385 0.04847778
000050 75 7e a0 3c 0e 3e 18 bd 84 88 38 3c d2 34 d4 bb
       0.01959155 -0.037168555 0.011263017 -0.0064760232
000060 b7 43 ea bd 89 3d 9e bd 58 3d e2 bd 6b 4e 2e bd
       -0.11438697 -0.07726581 -0.11046857 -0.042555254
000070 14 d6 03 bd 52 d2 04 bc dd f6 98 bc 66 4b 0f 3c
       -0.032186583 -0.008106785 -0.018672401 0.008746004
000080 7c 2a f8 bc 89 85 ad bb 47 dc aa bc 5f 23 98 bd
       -0.030293696 -0.0052954596 -0.02085699 -0.074286215
000090 ce 4b 0b bd 65 fa 23 bd 8e 9a 4c bd c0 50 f2 bc
       -0.03400784 -0.040033717 -0.049952082 -0.02957952
0000a0 4e 8e 06 bd ef b0 08 3d fd c1 4b bd 27 47 59 ba
       -0.032850556 0.033371862 -0.04974555 -0.00082884956
0000b0 b6 b1 71 bd c3 6c 60 bd 92 db 46 3b d4 03 18 3d
       -0.05900737 -0.054791223 0.0030343276 0.037113026
0000c0 6e 15 3f be 01 1a 10 bd f4 76 07 be b8 71 da 3b
       -0.18660519 -0.03518105 -0.13228971 0.0066663884
0000d0 6a db 56 bd fd 93 d4 bc 84 21 8b bd 69 2f 8f bc
       -0.052455343 -0.025949473 -0.06793502 -0.017478662
0000e0 bc 94 7d bd 76 cd e5 bb 00 92 7c bd b5 ee bb bb
       -0.061909422 -0.0070130182 -0.061662674 -0.005735243
0000f0 47 f0 65 bc 40 a4 a8 3b b9 98 7f bd 4c c7 db bb
       -0.014034337 0.0051465333 -0.062401507 -0.0067071076

bn1.running_mean f4 [64]
000000 5f 88 4e c2 75 9b 99 42 10 1d 77 c3 d7 a6 cf c2
       -51.633175 76.80363 -247.11353 -103.82586
000010 a7 25 61 c2 52 a8 ab c1 f6 16 0c c3 26 9f 6c c2
       -56.28677 -21.457188 -140.08969 -59.15542
000020 5c 9c 65 40 2e f1 d6 42 87 86 6a c2 c4 72 d9 c1
       3.5876684 107.471054 -58.631374 -27.181038
000030 d4 04 ac 42 40 fa 6f c3 5a af eb c1 a8 90 89 c2
       86.00943 -239.97754 -29.46062 -68.78253
000040 d3 c7 4b 43 cc 53 c9 42 89 1f 26 42 87 7f 99 c2
       203.78056 100.663666 41.530796 -76.74908
000050 68 37 48 40 99 8c ef 41 74 d4 4a c3 10 7d 67 40
       3.1283817 29.943651 -202.8299 3.6170082
000060 c8 d6 98 42 a9 cf 73 41 ba c7 88 42 1c c0 fc 41
       76.419495 15.238198 68.39009 31.593803
000070 3f df f7 c2 18 dc fb c1 ce b4 16 42 f7 60 de 3f
       -123.93603 -31.482468 37.676567 1.7373341
000080 d5 af af 42 64 49 eb 42 2a ce 7a c2 83 c3 13 c3
       87.84342 117.64334 -62.701332 -147.76372
000090 65 db d6 c2 52 68 02 c3 35 59 16 42 29 b2 01 42
       -107.428505 -130.4075 37.587116 32.423985
0000a0 3c c1 e9 c0 23 19 46 c2 ac ca 52 42 6a 94 a2 41
       -7.304838 -49.524548 52.69792 20.322468
0000b0 f9 81 91 42 dd 8b e7 c2 c7 6d 02 c2 62 d0 c5 c2
       72.75385 -115.77317 -32.607204 -98.907
0000c0 66 3e 39 42 14 7b 1c c1 db 32 8f 40 e9 6e 83 c2
       46.310936 -9.780048 4.474958 -65.71662
0000d0 e1 a1 86 42 b3 44 e9 42 da 67 b8 c1 83 5c d7 c0
       67.31617 116.63418 -23.050709 -6.730043
0000e0 8e 2d ac 41 34 3f a5 c2 eb b6 67 42 c2 9f ca c2
       21.522243 -82.62344 57.92863 -101.31203
0000f0 7a 00 a0 c2 1e d3 bc c2 7d f6 9c c2 5b 4c 59 42
       -80.00093 -94.41234 -78.48142 54.324566

bn1.running_var f4 [64]
000000 9e 57 3c 44 f8 f1 06 44 1a 97 b3 44 f5 b3 92 44
       753.369 539.78076 1436.7219 1173.6237
000010 c5 8f 08 44 d7 06 86 44 ee da ee 44 ca 1b de 44
       546.2464 1072.2137 1910.8416 1776.8684
000020 f0 25 80 44 37 fe c3 44 64 72 f8 43 be 44 ca 43
       1025.1855 1567.9442 496.89368 404.53705
000030 fd d6 20 44 97 9c 96 44 c6 3e 56 44 35 37 19 44
       643.3592 1204.8934 856.98083 612.8626
000040 c7 3c f2 44 ef c0 36 44 91 1e d1 43 c7 60 8b 45
       1937.8993 731.0146 418.2388 4460.097
000050 f5 4c 40 44 9e ea 64 44 1c 24 5e 45 35 26 9f 44
       769.20245 915.6659 3554.2568 1273.194
000060 a6 f2 8c 44 72 b0 47 43 7a 03 24 44 33 c7 41 45
       1127.5828 199.68924 656.0543 3100.45
000070 5f 29 e7 43 ab 08 d1 43 8e 2f b3 43 0b 92 47 44
       462.3232 418.06772 358.37152 798.2819
000080 60 56 09 45 f2 de f8 43 dd 4a 5d 44 e6 fd 31 44
       2197.3984 497.74176 885.16974 711.96716
000090 02 31 26 44 31 1d 8b 44 f4 70 50 44 62 b1 b1 43
       664.76575 1112.9122 833.7649 355.3858
0000a0 79 58 58 43 dc a5 22 43 68 9a fa 43 05 be bb 44
       216.3456 162.64789 501.2063 1501.9381
0000b0 3b e5 87 43 b5 bf 4a 44 53 51 c8 44 19 47 b6 44
       271.79086 810.9954 1602.5414 1458.2218
0000c0 1d dc 09 44 09 8e ae 44 33 50 bf 43 f3 3e 2f 45
       551.4393 1396.4386 382.62656 2803.9343
0000d0 b9 a9 97 43 73 1e 20 45 a4 ea 2c 44 3a d0 c1 43
       303.32596 2561.903 691.66626 387.62677
0000e0 69 96 27 44 d0 09 04 45 75 f2 5e 44 05 7e fc 44
       670.35016 2112.6133 891.7884 2019.9381
0000f0 18 44 fc 43 26 36 39 45 1d 0c 62 44 e9 d5 0f 44
       504.53198 2963.3843 904.1893 575.34235

conv2.weight f4 [64, 1, 3, 3]
000000 af a2 b6 3e 18 df bc bd 4f 1c c7 bb 8a 20 c3 3b
       0.35670993 -0.09222239 -0.0060763727 0.0059548067
000010 06 8f 9c be 3e e3 74 be a1 28 81 3e d2 13 28 3d
       -0.30577868 -0.23914811 0.2522631 0.041034527
000020 28 c8 a8 3e c0 e0 b6 be 8c 67 cf bd 04 dc 16 3e
       0.32965207 -0.35718346 -0.10127172 0.14732367
000030 38 f4 7f 3e e6 5c 76 3b 91 38 85 3d 84 02 8e 3e
       0.24995506 0.0037591993 0.0650493 0.27736294
000040 7b 38 9b 3e 8c 45 da 3d 7b 38 86 be 2a d7 a9 be
       0.3031653 0.10657796 -0.26214966 -0.3317197
000050 2f ec 1a be a1 1a 51 3e ad 24 cb 3d ea 0f 99 be
       -0.1512916 0.20420314 0.09919105 -0.29894954
000060 e7 fa 81 be 4b 9b 48 3d 80 3a 8e be 41 f9 75 3d
       -0.25386736 0.048976224 -0.27779007 0.06005216
000070 0f d5 a0 3e ae 32 21 bc c0 5e b0 be 65 3e 92 3d
       0.3141255 -0.009838743 -0.3444729 0.07140807
000080 4d b5 74 3e 94 0f 83 3e e3 0d 41 3e f9 b9 45 be
       0.23897286 0.25597823 0.18852954 -0.19309224
000090 99 b9 b0 bd 56 ca 90 3e 53 e8 5f 3d dd fe a4 3e
       -0.0862915 0.2827937 0.05466492 0.32225695
0000a0 16 40 95 3e 2c 62 00 3d a4 b3 a1 bc ea 7e 3c 3e
       0.29150456 0.031343624 -0.01973898 0.18407789
0000b0 0d 27 7c be c0 ca 3c bd f0 7e 42 3e 0c f2 bb 3d
       -0.24624272 -0.046091795 0.18993735 0.09177026
0000c0 cd ec 1a bd 1d 9b 54 3e 27 92 6e bd b1 a8 4c be
       -0.037823487 0.20762296 -0.05824485 -0.19986226
0000d0 6b 68 77 3e 43 5c 8d 3e 47 9b 99 bc 0b 13 fe bd
       0.24160926 0.27609453 -0.0187508 -0.12405976
0000e0 ba 65 21 be 7b 61 db 3c 20 06 8a be 9f 39 9c 3e
       -0.15761462 0.02677988 -0.26957798 0.3051271
0000f0 3a 5d 9e be 3a df b2 be 3f 6a 98 3e 6c 6d cf bd
       -0.309305 -0.34935933 0.2976856 -0.101282924
000100 5e a3 20 be 5a 8e ba bd c1 f5 2e 3e bb d6 b4 bd
       -0.1568732 -0.09109183 0.17085935 -0.08830019
000110 71 a4 fb bc 5c 5b b8 bd 40 78 a0 be 1e 14 5c 3e
       -0.03071806 -0.090018004 -0.31341743 0.21492049
000120 cd d4 52 3d 0e 32 7e 3c 3f b0 a3 be a4 ec 81 3e
       0.051472474 0.015514864 -0.31970403 0.25375855
000130 3d 89 9e be 3c 03 e0 be 2f e2 6d be c6 3a b6 3e
       -0.3096408 -0.43752468 -0.23230813 0.35591716
000140 cd 5a 98 be c8 33 ed bd 37 f6 f8 3c 9a 5c 3f be
       -0.29756775 -0.11582142 0.030390842 -0.18687668
000150 1d 23 c4 3e 2f 54 f5 3d 47 24 75 3e 29 e5 6a 3e
       0.3830804 0.11978947 0.2393962 0.2293898
000160 0c 07 11 3b af 5e 80 3d 97 39 89 3e 5d 01 1b 3e
       0.0022129444 0.062680595 0.2680175 0.15137239
000170 fb 24 68 be 14 6c 42 be 71 d6 77 be 47 37 c1 3c
       -0.22670357 -0.18986541 -0.24202897 0.023585929
000180 65 5d 13 3e b3 e6 12 be dd c9 76 3e ae eb 10 3e
       0.14391096 -0.14345817 0.24100442 0.14152405
000190 49 d7 ca bd dc 05 50 be 49 36 00 3e 37 55 df 3d
       -0.09904344 -0.20314735 0.12520708 0.10904925
0001a0 12 3f 7b bd 1e 40 59 3d 67 4a b1 bd d8 d0 4c 3e
       -0.061339445 0.053039663 -0.08656769 0.20001543
0001b0 7f 5d 12 be 47 e3 1f bd 8e a1 c9 bc 11 22 8d be
       -0.14293478 -0.039035108 -0.024613168 -0.27565053
0001c0 e8 65 bb 3d 2e c9 15 3e c4 d0 5d be 8c c9 f9 3c
       0.091502964 0.14627525 -0.21661669 0.030491613
0001d0 88 20 e5 3b 34 f2 82 3d 60 73 80 3e 78 84 69 3d
       0.0069924034 0.06393853 0.25088024 0.057011098
0001e0 ff 15 a1 be c9 12 87 be 5d 9e 3f 3e 14 09 05 3e
       -0.31462094 -0.2638152 0.18712755 0.12991744
0001f0 fe 7b 63 3e 8a 52 2b be 51 80 b4 3d 74 42 5e 3d
       0.22215268 -0.16730705 0.08813537 0.054262593
000200 71 1b 95 be d0 19 3e be 8d 89 0e be 80 e5 a5 be
       -0.291225 -0.18564534 -0.13919659 -0.32401657
000210 12 b2 44 bc ef 03 13 bd 5b 52 3f be 67 b0 a5 be
       -0.012005346 -0.035892423 -0.1868376 -0.32361147
000220 b9 0e 08 be 12 91 27 3e 2a c2 66 bd 97 e5 52 bd
       -0.13286866 0.16363934 -0.056337513 -0.051488485
000230 0e 45 84 3e 8c 3f 26 3e 14 33 7e 3d 36 9b 9c 3e
       0.25833935 0.16235179 0.06206043 0.30587167
000240 a7 3e c2 bd 72 8a 61 3e ad 58 07 be 80 34 13 be
       -0.09484606 0.22025469 -0.13217421 -0.14375496
000250 d1 84 bf 3d 47 6c 76 3e 65 55 67 3e 7a 3d 80 be
       0.093515046 0.24064742 0.22591169 -0.25046903
000260 a9 68 a6 bc fd b1 49 3e 99 ee 9f be 73 5e 96 be
       -0.020313578 0.19696803 -0.31236723 -0.29368934
000270 ef 3f 59 be a3 5f 41 be 94 30 8d bc ac 46 43 be
       -0.21215795 -0.18884139 -0.017235078 -0.19069928
000280 f0 24 9c bd 85 31 4e be 8b 69 2e be a9 d2 e5 3d
       -0.07624233 -0.20136078 -0.17032449 0.11221821
000290 38 8f 0b be 1e 00 af be 73 19 26 3e 04 21 de bd
       -0.13628852 -0.34179777 0.16220646 -0.10846141
0002a0 f7 98 b0 3e 15 88 5f 3e 95 18 70 3e fb c0 21 bd
       0.34491703 0.21829255 0.23446877 -0.03949068
0002b0 4a 70 9d 3e 4f 36 8a 3c ad f3 ec 3d a4 15 84 be
       0.30749732 0.0168716 0.11569915 -0.2579776
0002c0 8c e1 0e bd eb 8e 58 be d7 a4 a1 3e 71 aa 21 bd
       -0.034883067 -0.21148269 0.31571075 -0.039469186
0002d0 a4 de d4 3d a8 9b cd 3c f5 93 49 be d3 f6 36 be
       0.10394028 0.025098637 -0.19685347 -0.17867593
0002e0 64 cd 97 3e 1e 99 b6 3d 3c ad 08 3e 12 b5 e1 3c
       0.29648888 0.089159235 0.13347334 0.027552161
0002f0 2a 04 91 be c9 fb 85 3e 9a 1c 9a be c4 54 a0 be
       -0.2832349 0.2616866 -0.30099946 -0.3131467
000300 50 8c 1e 3e 3b 80 84 be 86 6e 20 3c e8 f7 0d 3e
       0.15483212 -0.25879082 0.009791976 0.138641
000310 73 e7 2d be 7d 9b 20 3e ce c5 3d be f5 c4 4e be
       -0.16982822 0.15684314 -0.18532488 -0.2019232
000320 da 4c 85 bd eb b3 aa 3e bc 3b 12 3e 17 b0 37 be
       -0.06508799 0.33340392 0.142806 -0.17938267
000330 d9 e1 48 3e 17 1a 0e bd 2d e8 03 be 60 9b 8e 3c
       0.19617404 -0.03469285 -0.12881537 0.017408073
000340 d4 10 ff 3c a4 42 8a bc 93 64 33 3d b4 a1 5e be
       0.031135954 -0.01687748 0.043797087 -0.21741372
000350 03 6b a6 3d 38 35 32 be 14 98 e0 bd 03 2a e6 bd
       0.081258796 -0.17403114 -0.109665066 -0.11238482
000360 56 70 32 be c0 73 65 3e 2d 47 2a be 13 f6 12 be
       -0.17425665 0.22407436 -0.16628714 -0.14351682
000370 0a ff 6e be 1f 32 a9 be ac f3 93 3d ba 34 90 3e
       -0.23339477 -0.33046052 0.07224211 0.28165227
000380 c1 7e e5 be 54 fb 9a 3e 1c b3 5f 3e 3e 73 b1 3d
       -0.44823268 0.30269873 0.21845669 0.08664559
000390 23 4c b0 bd b4 7a bb bd ed 2a 7e 3e 92 22 ca 3d
       -0.08608272 -0.09154263 0.24821062 0.09869875
0003a0 54 ab 2e be 9d 68 4f 3e ac 81 3d be 89 23 3d 3e
       -0.17057544 0.2025475 -0.18506497 0.18470587
0003b0 34 fb ad 3e 87 ac 71 be 9e 58 f3 bc 52 ee 60 3e
       0.33980715 -0.2360097 -0.029705342 0.21965912
0003c0 89 1a 32 be 0e 20 3d 3e 0a a2 e3 bd b2 45 23 bd
       -0.17392935 0.18469259 -0.11114891 -0.03986139
0003d0 32 54 9e 3e d4 5c e9 3d 04 55 42 be 10 df 22 3d
       0.3092361 0.11394659 -0.18977743 0.03976351
0003e0 52 16 3b 3d 77 75 5c be 14 0d 27 3d 1e 7b 9d 3e
       0.045675583 -0.21529184 0.040783957 0.30757993
0003f0 6b 58 87 be 82 c1 18 bd 86 76 13 3d d1 4a 4f be
       -0.26434645 -0.03729392 0.036001705 -0.20243384

conv2.bias f4 [64]
000000 99 bf 87 3d 1a 9f 5d 3e 1e 46 69 be 9b 71 9d bd
       0.06628341 0.21642724 -0.22780654 -0.07687684
000010 d3 e6 9d be 9f 77 1f be e2 bd 39 be d6 d9 6b be
       -0.30840167 -0.15572976 -0.18138841 -0.23032317
000020 68 e9 58 bd b6 ed 8f bc ed 10 92 be d7 0e 5a 3e
       -0.05295697 -0.017569404 -0.28528538 0.21294723
000030 1f 63 35 be 7c ea 4c be 50 c6 10 3e 84 b0 10 3e
       -0.17713593 -0.20011324 0.1413815 0.14129835
000040 36 7e 24 3e 3a a7 9e 3d 8e 25 8c 3d 39 43 0b be
       0.1606377 0.0774674 0.068431005 -0.13599862
000050 c8 d3 72 bd 13 9b 23 3e 2f 8b 25 be 8c b7 42 be
       -0.059284 0.15977125 -0.16166376 -0.1901533
000060 b2 a2 a5 be ab 41 7f 3e 2c 64 78 be 1c bb 5a be
       -0.3235069 0.24927394 -0.24256963 -0.21360439
000070 7a fd 24 3e fe 22 b6 bd 9c aa ae 3d 03 f4 6c 3e
       0.16112319 -0.08893393 0.08528635 0.23139958
000080 ef 1c 1b be 8f 56 38 bd 79 08 14 be dc 8c 6b be
       -0.15147756 -0.045004424 -0.14456357 -0.23002952
000090 14 cf 00 be 6e c5 6a bd eb 9e 10 be f3 05 a6 bd
       -0.12578994 -0.05731719 -0.14123122 -0.081066035
0000a0 9d 49 60 3e 1c 7a 68 3e 27 f3 1f 3e a1 be 77 3c
       0.21903081 0.22702831 0.15620099 0.015121133
0000b0 c0 25 99 3e 4f ca 7a be c6 b9 4c bd d3 78 36 3e
       0.29911613 -0.24491237 -0.049981855 0.17819528
0000c0 e6 7d 7d bd 78 de a6 3e d7 68 1e be 10 24 72 bb
       -0.061887644 0.32591605 -0.1546968 -0.0036947764
0000d0 b5 cd 8b 3d c3 5d a9 be c9 55 ec 3d e1 0f c4 bd
       0.06826345 -0.33079347 0.115398 -0.09573341
0000e0 25 3e 1d 3e 46 9a 75 be 27 8d 97 be c3 3a 37 be
       0.15355738 -0.23984632 -0.29599878 -0.1789351
0000f0 6e 5f 5d be 23 19 93 be d9 3a d6 bc d9 64 a7 3e
       -0.21618435 -0.28730115 -0.026151108 0.32694128

bn2.weight f4 [64]
000000 08 26 7f 3f 51 fd 73 3f 89 38 80 3f 84 e4 73 3f
       0.99667406 0.95308405 1.0017253 0.9527056
000010 a3 87 76 3f d4 b0 78 3f 37 f5 79 3f 17 75 71 3f
       0.96300715 0.9714482 0.97639793 0.9431929
000020 a6 37 8f 3f 16 80 6f 3f e5 bc 78 3f 7a 06 77 3f
       1.1188858 0.9355482 0.9716323 0.9649426
000030 c6 db 73 3f 49 98 6a 3f 1d 2b 75 3f 6a c0 77 3f
       0.9525722 0.9163862 0.9576891 0.96777976
000040 19 0b 8e 3f 50 09 7c 3f da 10 81 3f b4 93 7a 3f
       1.1097137 0.9845171 1.0083268 0.9788163
000050 50 38 74 3f 92 7d 7e 3f 63 a2 72 3f 2a 51 82 3f
       0.95398426 0.99410355 0.9477903 1.0181019
000060 75 f9 7f 3f 95 df 85 3f c4 1a 78 3f 62 90 76 3f
       0.99990016 1.0458857 0.9691584 0.9631406
000070 ab 47 73 3f 05 ba 83 3f 81 ea 7b 3f f5 3d 88 3f
       0.9503123 1.0291144 0.984047 1.0643908
000080 32 a4 81 3f a3 30 78 3f c2 29 81 3f 23 96 7a 3f
       1.0128233 0.96949214 1.0090868 0.9788534
000090 14 59 89 3f b9 1b 73 3f 01 23 87 3f ae 6e 78 3f
       1.073031 0.94964176 1.0557557 0.97043884
0000a0 66 1e 88 3f e3 c4 85 3f ca dd 79 3f 1b e6 8a 3f
       1.0634277 1.045071 0.9760405 1.0851473
0000b0 e1 cf 8c 3f 40 b4 72 3f 85 49 80 3f 76 22 74 3f
       1.100094 0.9480629 1.0022436 0.95365083
0000c0 1c ab 88 3f 22 f1 8f 3f f1 09 88 3f 56 98 73 3f
       1.0677218 1.1245463 1.0628034 0.9515432
0000d0 59 17 7e 3f 4f cc 79 3f 39 3c 84 3f a1 43 81 3f
       0.99254376 0.97577375 1.0330878 1.0098764
0000e0 ea e7 7c 3f 59 44 7b 3f 3d e3 87 3f e1 ba 6d 3f
       0.9879137 0.98151165 1.0616223 0.9286328
0000f0 22 d6 80 3f 36 75 73 3f 16 32 76 3f 21 7c 6f 3f
       1.0065348 0.95100725 0.96170175 0.9354878

bn2.bias f4 [64]
000000 4b 19 05 bd 1d 1d 63 bd e3 92 a4 3c aa 1f 32 bd
       -0.032494824 -0.055447686 0.020089572 -0.04348723
000010 61 e0 af bc 83 d0 e8 bc c9 c2 93 3c 5f 72 46 bc
       -0.021469297 -0.028419739 0.018037217 -0.012112229
000020 c4 15 79 3d b0 e8 9b bd 29 4e 53 bd 3a 55 30 bd
       0.060811773 -0.07612741 -0.05158821 -0.04305003
000030 02 07 e1 bc ee 23 62 bd de fd 1e bd b0 4e 87 bd
       -0.027469162 -0.055210046 -0.038816325 -0.06606805
000040 7f b8 32 3e 4a 04 6a bc c5 47 a7 bc 12 9a e3 3a
       0.17453192 -0.014283249 -0.020419965 0.0017364642
000050 6a 32 37 bd 51 29 7c bd 5a 70 36 bd 65 16 93 bc
       -0.044725813 -0.06156284 -0.04454074 -0.017955014
000060 4e 43 0c 3c d6 74 3d 3d 27 7f df 3c 77 00 05 bd
       0.008560969 0.046254 0.02728231 -0.032471146
000070 d9 2e ca bc 12 f2 c0 bc a3 2b c0 3a d0 a6 b2 3c
       -0.024680542 -0.023552928 0.0014661442 0.021808058
000080 83 5c b8 bb cf 44 0b bd c2 92 c1 3c 84 88 2e bd
       -0.0056262626 -0.034001168 0.02362955 -0.04261066
000090 fa 13 23 3d 2f 01 e9 bc f0 14 00 3d b5 bb 4d bd
       0.039813973 -0.028442947 0.031269968 -0.05022784
0000a0 f0 61 53 3d d1 00 f7 3d 12 53 31 bd c9 df c1 3d
       0.051607072 0.120607026 -0.043292113 0.09466512
0000b0 19 93 0f bd 0a 28 01 bd 32 4d dd bc 92 f1 ea bc
       -0.035052393 -0.031532325 -0.027014349 -0.028679643
0000c0 95 c7 8c bd ac 2b 1b 3c 97 45 ae bc de f0 41 bd
       -0.06874005 0.009470861 -0.021273417 -0.04734885
0000d0 1a e7 76 bd 5f 12 a0 bb 25 63 ca bc 91 65 34 3d
       -0.06027899 -0.0048850025 -0.024705479 0.044042174
0000e0 c9 6c 79 bd d4 07 12 bd 5e 3d f1 bc 6b e8 7e bd
       -0.06089476 -0.035651997 -0.029448207 -0.06223337
0000f0 c8 21 c1 bc dc c6 2a bd 0d c7 84 bd 0b 1d 23 bd
       -0.023575678 -0.041693553 -0.064832784 -0.03982262

bn2.running_mean f4 [64]
000000 d5 a1 1b 3e 91 49 00 3f bc ae de be 57 be 29 3e
       0.15198453 0.50112253 -0.43492687 0.16576515
000010 78 76 f8 3b cb f7 3c 3d cf 96 a1 be a9 5a d4 be
       0.007582482 0.04613475 -0.3156037 -0.41475418
000020 10 9c c1 be 74 39 11 3e cb a3 ae be 3c 8a 76 3e
       -0.3781438 0.14182073 -0.3410934 0.2407617
000030 59 01 bb be dc b4 3f be a6 2c e8 bd 03 ff 92 3e
       -0.36524466 -0.18721336 -0.11336641 0.28710184
000040 c5 98 44 3e 89 a4 36 be e0 80 4a 3e c2 0c 75 bd
       0.19198902 -0.17836203 0.19775724 -0.05982662
000050 25 d0 86 bd f5 d4 f9 3c 34 17 94 be af c5 91 be
       -0.06582669 0.030497054 -0.28923953 -0.28471133
000060 e1 b1 fb be 56 b5 f3 3e d0 eb 51 be 52 a7 75 3d
       -0.49159148 0.47599286 -0.20500112 0.059974022
000070 ef ed a2 bd 34 d6 7a be 65 d3 b9 3e 92 6d db 3c
       -0.079555385 -0.24495775 0.36294094 0.026785646
000080 c0 f1 23 be ea 56 36 3e 9a 4f b0 bd 2d db 18 bd
       -0.16010189 0.17806593 -0.08608933 -0.037318397
000090 87 4b 39 bd fc bb 67 be 2e 35 2d 3d ee 88 1e bd
       -0.045238044 -0.22630304 0.042287044 -0.038704805
0000a0 35 57 8a 3e 07 6c aa bd 29 98 1b 3c 75 73 98 bd
       0.2701966 -0.08321386 0.009496727 -0.07443897
0000b0 89 40 bd 3e 4a 21 a0 be ba 86 0b be db 21 77 3e
       0.369633 -0.31275398 -0.13625613 0.24134009
0000c0 ba 88 43 bd 6b 80 cb 3d 29 41 39 be f9 1e c3 3c
       -0.047737814 0.09936603 -0.18091263 0.02381848
0000d0 60 b3 82 3d ce a8 ed be 19 d9 d2 3d fb 32 81 be
       0.06381869 -0.4641785 0.10295314 -0.25234208
0000e0 b0 64 7c 3e e7 e9 6e bd 31 f2 66 be f5 e8 d2 be
       0.24647784 -0.058328535 -0.22553326 -0.41193357
0000f0 93 22 88 be 8e e1 67 bd 43 90 4c 3d b1 47 06 3f
       -0.26588878 -0.05661159 0.049942266 0.5245314

bn2.running_var f4 [64]
000000 85 4c 8a 3d 3b 38 38 3d 62 a0 40 3e 3e 08 3e 3e
       0.06752876 0.0449755 0.18811181 0.18557832
000010 a8 9d 50 3e 1a bc 5b 3d ef 62 f0 3e e0 90 41 3e
       0.20372641 0.053646185 0.4695048 0.18902922
000020 e6 57 07 3e 2d 64 15 3d bb 4b 20 3d 0d 00 3f 3d
       0.13217124 0.03647249 0.039134722 0.046630908
000030 5d 8a b1 3d 35 0c b3 3d fb 3a 29 3e 80 62 1b 3e
       0.08668969 0.08742563 0.16526406 0.15174294
000040 d7 c1 8c 3b e2 99 0c 3e 2b e6 12 3d a1 27 87 3d
       0.0042955684 0.13730577 0.035864037 0.065993555
000050 3e bc 5d 3e 3e 25 73 3d 68 2f cd 3d 60 2c 6e 3d
       0.2165384 0.05936169 0.10018808 0.058147788
000060 b1 51 d4 3d 33 a1 dd 3c e8 bd 65 3d 15 80 f6 3d
       0.10367144 0.027054405 0.05608931 0.120361485
000070 c1 f7 95 3e 15 1e 02 3e 6e da 9f 3d 14 e7 a6 3d
       0.29290584 0.12706788 0.07805334 0.081495434
000080 6f b7 41 3d 96 31 89 3d 80 db 07 3d 14 a6 1f 3e
       0.047294077 0.06698911 0.033168316 0.15590698
000090 c8 c0 72 3c 01 cb 21 3e 9f 14 c3 3c 47 bb c1 3c
       0.01481647 0.15800096 0.023813544 0.023648871
0000a0 00 ca 1c 3d d1 28 07 3e 30 e8 3b 3c 51 4c fb 3c
       0.03827858 0.13199164 0.011468932 0.030676039
0000b0 82 20 93 3c f1 9e f5 3d fc 84 77 3c 2b 86 24 3d
       0.017959837 0.11993206 0.01510739 0.040167015
0000c0 b2 00 8f 3b 9b 05 fb 3d 27 76 6f 3c 87 21 af 3e
       0.0043640966 0.122569285 0.014615572 0.34205267
0000d0 ab 01 b3 3b 15 b2 8e 3d 8a 5d a6 3c 63 c5 b6 3d
       0.0054628453 0.0696756 0.020308275 0.08924367
0000e0 12 d8 55 3c 5a da d2 3d d3 91 70 3c de c2 20 3e
       0.013052003 0.102955535 0.014683205 0.15699336
0000f0 41 eb 38 3d 4e 41 9f 3e 39 fd ff 3d 66 32 b1 3c
       0.04514623 0.3110451 0.1249947 0.021630477

conv3.weight f4 [64, 64, 1, 1]
000000 dc 94 98 3d 1f e4 d3 bd 14 c6 f6 3c a3 93 8c bd
       0.07450268 -0.10346245 0.030123748 -0.06864097
000010 96 be 6f 3d 1b 64 cc bb 6d 11 40 bc 69 fc ad bd
       0.058531366 -0.0062375194 -0.011722905 -0.08495409
000020 75 c8 07 bd 7b c3 7e 3d e6 3b f6 bd 3f e6 08 be
       -0.033150155 0.062198143 -0.120231435 -0.13369082
000030 81 12 47 3c 3f d3 a1 bd 97 ee be bd 7c 38 2a bd
       0.012150408 -0.0790162 -0.09322851 -0.041557774
000040 de 40 d4 bd 9a 26 a3 3d c1 78 0e 3e 73 68 b0 bd
       -0.10363935 0.07966347 0.13913251 -0.08613672
000050 e5 f7 04 bd 4f 88 e6 bc ff cc 9c 3d 8e 4c a8 3d
       -0.032462973 -0.028141169 0.076562874 0.08217727
000060 84 cc 3c bd 8e 05 ad 3d 08 53 b8 3d ff 21 81 3d
       -0.04609348 0.08448325 0.09000212 0.06305312
000070 b3 c7 87 3d 5f b3 d8 3d da 48 31 3d cd fb fe bd
       0.066298865 0.10581087 0.043282367 -0.12450371
000080 5f 15 b9 3d ab f2 68 3d 8f 8b c9 3d ca 64 ca 3b
       0.09037279 0.05687205 0.09841072 0.006176566
000090 df 2c 04 3d 2b 20 0a 3e dd 3f 7a 3d 34 28 18 3d
       0.032269355 0.13488834 0.06109606 0.037147716
0000a0 bf 1d 92 3d d9 b5 0e bd 45 cf b4 bd 36 ce 2b bc
       0.0713458 -0.034841392 -0.08828596 -0.010486176
0000b0 cb 51 df 3c 13 a0 7b 3d 4a be 1e bd 9f 59 83 3d
       0.027260682 0.061431956 -0.038755693 0.06413578
0000c0 33 b2 23 be 22 37 c4 3d 25 4f a4 3d e1 9d 9d 3d
       -0.15985946 0.09580828 0.08022908 0.07696129
0000d0 8a df 10 bd 64 69 af 3d 64 b2 5b 3d 84 36 30 bd
       -0.035369433 0.085650235 0.053636923 -0.04302074
0000e0 a8 09 89 bc 57 7a ee bc af d7 06 bd 00 1b 3c 3d
       -0.016728237 -0.02911107 -0.032920536 0.045924187
0000f0 bd a8 ee bc 3d 76 67 bd c2 36 d7 3d a6 e9 83 3d
       -0.029133195 -0.056509245 0.10508491 0.06441049
000100 25 3a 55 3b c3 e7 90 3d 58 1c 21 3e 6f 7e 06 3d
       0.0032535878 0.07075455 0.15733469 0.03283542
000110 b6 a1 59 3d d5 2f c4 3b 1f ef 9a bc f4 3e 1a 3a
       0.053132735 0.0059871473 -0.01891285 0.00058840145
000120 12 be 78 3d b9 95 a8 3d 94 93 f0 3d 38 d5 b4 3d
       0.06072814 0.08231682 0.11746898 0.08829731
000130 07 70 f3 bc b0 36 8e 3d e0 19 fb 3d 18 a3 b8 bd
       -0.029716505 0.069440246 0.12260795 -0.09015483
000140 9f 12 c0 bd bd 59 aa bd a6 3a e7 3d 87 ce 93 bd
       -0.09378552 -0.083178975 0.11290483 -0.07217126
000150 dd df 08 bc e1 43 27 3c 30 a3 ef 3d 79 41 79 bc
       -0.008354154 0.010209055 0.117010474 -0.015213364
000160 b4 f0 b2 3b 00 50 b4 bd f5 e7 02 bc 3c f1 88 3d
       0.005460823 -0.08804321 -0.007989873 0.06686637
000170 f9 82 f6 3d d7 ec 38 3d 0d 31 48 3c e4 de 8c bc
       0.120367 0.045147743 0.012218726 -0.017196126
000180 55 84 d7 3a ed 6e b2 bd 2d 54 37 3d 31 5d 83 bd
       0.0016442636 -0.08712564 0.04475801 -0.06414259
000190 72 f4 53 3b a2 0a b9 3d 91 40 21 3c f2 07 1b 3e
       0.0032341746 0.09035231 0.009842054 0.1513975
0001a0 a8 94 a5 3c a2 05 86 3d 5c b2 a8 bd ca 3b 2b 3e
       0.020212486 0.06544043 -0.08237144 0.16722026
0001b0 7a 8b 65 3e 53 a5 50 3c d9 38 9d 3c 9d 20 ca bc
       0.22416487 0.012734729 0.019192146 -0.024673754
0001c0 83 d8 1c be 6a 24 f3 bd eb 4d d8 bd 59 85 1f 3c
       -0.15316968 -0.1187218 -0.10561737 0.009736382
0001d0 a7 36 69 bd 9c 20 90 3b 66 9e d6 3c 84 bf 52 be
       -0.056936886 0.0043984186 0.026198577 -0.2058087
0001e0 bb e3 28 bd 58 e9 fb 3d 35 92 2d bc d7 33 2e 3d
       -0.041232806 0.12300366 -0.0105939405 0.042529907
0001f0 f5 ae 24 3d 77 03 34 bd ff aa 15 3d 6f c5 aa 3d
       0.040205915 -0.043948617 0.036540028 0.08338439
000200 c3 66 21 3d 8a d7 d4 bd dd 00 79 3d 61 e4 1f be
       0.03940464 -0.10392673 0.06079184 -0.15614463
000210 a2 17 f7 bc 80 f7 94 3d c7 2c 03 be d4 30 4d 3d
       -0.030162636 0.072737694 -0.1281005 0.050095394
000220 42 8c 9f 3d b9 eb d1 3c b5 33 8f bd f7 c3 fe 3d
       0.07790424 0.025625097 -0.06992284 0.12439721
000230 42 57 cc ba 20 d5 25 bd 3e 1e d8 3b c4 6d 34 bc
       -0.001558997 -0.040486455 0.006595402 -0.011012498
000240 c8 5f fe 3c 7d 2b 16 be 05 ea 8e 3d ea a5 65 3c
       0.031051531 -0.14665027 0.069782294 0.014016608
000250 f8 61 6d bd c5 5f 39 bd c2 84 66 bd 61 a6 48 be
       -0.05795476 -0.04525735 -0.05627895 -0.19594719
000260 b4 ae 73 3d 37 2a a6 bc 95 4e b3 3d ec ad 0a be
       0.05949278 -0.020283801 0.08755223 -0.13542908
000270 fb 8a f3 3a a6 f9 a2 3d f1 11 11 3e d9 0f d1 bd
       0.0018580848 0.07957773 0.14167 -0.10208101
000280 a9 4f a0 3b 7f ea 3f 3d d5 be 94 bd 0b b8 99 3d
       0.0048923087 0.046854492 -0.07262961 0.075058065
000290 88 c3 6a 3d 9b 60 af 3d 15 ae 2f 3e 4c dc 82 3c
       0.05731538 0.08563348 0.17156251 0.015974186
0002a0 3c 29 12 3e 40 96 0a bd 0d 4c 5c bd 7c 12 47 bb
       0.14273542 -0.033834696 -0.053783465 -0.0030376008
0002b0 e6 fa 28 3e b2 83 48 3b 14 78 12 3d 5f bf 14 bd
       0.1650196 0.0030596075 0.035759047 -0.03631532
0002c0 f4 8f ee bd fb aa e4 bb 85 e5 dd bd 1b ca 10 3c
       -0.11648551 -0.0069783903 -0.10834793 0.008837248
0002d0 0f 84 e2 b9 f3 b2 82 3d e0 c2 69 3d f2 37 0e 3e
       -0.0004320447 0.06381788 0.057070613 0.13888529
0002e0 23 c3 6f bd 48 06 39 3d cc 8b ca 3d 68 8c fa bd
       -0.058535706 0.045172006 0.098899454 -0.122338116
0002f0 2b c0 b5 bd c2 71 40 3d ad 05 d1 3d f6 39 d4 3c
       -0.08874544 0.046983488 0.10206161 0.025906544
000300 f0 9e f1 3d 0f de 12 be 12 28 46 3d 4a bb 09 3d
       0.11797893 -0.14342521 0.048378058 0.03362588
000310 c3 4e 29 3e dd 4c ef 3d 64 09 04 3e 16 45 3b bb
       0.16533951 0.116845824 0.12894207 -0.0028575114
000320 b9 95 fe 3c c7 61 df bd 80 94 dd bd 5e df 2a 3d
       0.031077253 -0.109073214 -0.1081934 0.041716926
000330 85 dd dc 3d 3b 95 b9 3d 1d ba 07 bd 07 f5 f0 3d
       0.10784439 0.090616666 -0.033136476 0.11765485
000340 ef b3 70 3d 7f bd 92 3d bb 80 aa 3d 9b 0a 0f 3e
       0.058765348 0.0716505 0.08325335 0.1396889
000350 84 6b a4 3d 78 c6 c1 3d 73 93 85 bc b9 e3 89 3d
       0.080283195 0.09461683 -0.01630566 0.06732888
000360 81 3a d8 3d 2e ea c8 bc 0c 5a 68 3d 9a b2 ce bd
       0.10558034 -0.024525728 0.0567265 -0.10092659
000370 a7 b2 d5 bd ea 33 fd bd 60 f0 2c 3e 4f 99 14 3e
       -0.10434466 -0.123634174 0.16888571 0.14511608
000380 6c d5 b5 bd b3 f1 e1 3d 97 d6 ec bd 24 a0 ec 3d
       -0.088785976 0.110324286 -0.11564367 0.11553982
000390 c9 1c 99 bd b5 ef 37 bd 8b 10 06 3e 72 17 b6 bd
       -0.074761935 -0.044906337 0.13092248 -0.088911906
0003a0 3a a4 d5 3c 85 30 32 3b 53 c7 e8 3c 93 e1 93 bd
       0.026079286 0.0027189564 0.028415358 -0.07220759
0003b0 48 d3 84 bd 7f 72 dc 3d bb 1b bc 3c 57 86 58 bb
       -0.06485611 0.10764026 0.022962442 -0.0033039057
0003c0 23 f0 9b bd 28 26 e8 3d 9c 77 85 3d d9 69 d0 3d
       -0.07614162 0.11335403 0.06516954 0.10176439
0003d0 21 e0 7c bd 7a 4d 0b 3d 6c f1 bb 3d 3e 20 54 bc
       -0.061737183 0.034009434 0.09176907 -0.01294714
0003e0 c4 8c f3 3c a2 56 2e bd 19 df c9 bc 1c 47 0f 3d
       0.029730208 -0.04256309 -0.024642514 0.034979925
0003f0 c8 27 c6 3d f6 40 9a bb fd 64 11 3e a6 62 00 bd
       0.096755564 -0.004707451 0.1419868 -0.03134408

conv3.bias f4 [64]
000000 60 a6 c7 bd a0 53 7d 3d 39 99 d9 3c 4e 18 a9 bd
       -0.097485304 0.06184733 0.02656232 -0.08256589
000010 1b d7 84 3d bc e7 0b 3e d4 a2 6d 3d a7 4d 54 3d
       0.064863406 0.13662618 0.058016613 0.051831868
000020 6c cc 55 bd 30 3e 94 3c 49 50 29 bd 66 79 de bc
       -0.052196905 0.01809606 -0.04133633 -0.027157497
000030 f8 c9 b8 bd 47 6a 5d 3d c0 90 de 3b 83 c4 9d 3b
       -0.090228975 0.054056432 0.006792158 0.004814686
000040 7d 5b a3 bd 54 8b da 3d 30 06 64 3d 94 70 3e bd
       -0.079764344 0.10671106 0.055669963 -0.04649408
000050 93 31 98 bc d2 49 a1 bc ec c1 9b bd db f6 c2 bd
       -0.018578326 -0.01968852 -0.07605347 -0.0951974
000060 6d b0 b4 bd 6a df 9d 3c 8c 5c fc 3d ef 36 76 3d
       -0.08822713 0.019271571 0.123223394 0.060110983
000070 3f b4 34 3d 09 a4 56 3c 63 2c 57 3d 1c 3a 60 3b
       0.04411721 0.0131006325 0.052532565 0.0034214323
000080 5a bf d8 3d e3 1f df 3d 0c 33 fd bd 30 3a c6 3d
       0.105833724 0.10894754 -0.12363252 0.09679067
000090 5b 54 0f 3d ed 5b af bd 6e 6c f9 3d 3e 13 e4 3d
       0.034992557 -0.08562455 0.121788844 0.11136483
0000a0 34 50 9d bd 25 aa ff 3d b2 49 52 bd 84 cd 97 bd
       -0.07681313 0.12483624 -0.051339813 -0.07412246
0000b0 54 38 f3 bc 9c c4 8c bc b9 3e 5a 3d ce f6 0b bd
       -0.029689945 -0.017183594 0.053282473 -0.03417092
0000c0 8b 8f 9d 3c e8 ba e4 3c d2 cb 9b 3c 2b 8b 47 3c
       0.019233486 0.027921155 0.019018088 0.012179176
0000d0 13 c4 be 3d 6b 80 2b 3c 24 83 45 3c d6 fe c0 3d
       0.09314742 0.010467629 0.012055192 0.09423606
0000e0 84 f8 98 3c 96 4b 7b 3d e1 3a 83 3d e3 d5 e4 bd
       0.018673189 0.06135138 0.06407715 -0.11173608
0000f0 2a c0 6e bc 81 c4 fd bd f1 7a f7 3d 1c 5c 9d bd
       -0.014572183 -0.12390996 0.12083996 -0.07683584

bn3.weight f4 [64]
000000 d5 e0 6d 3f a3 6a 72 3f e8 3d 82 3f 88 25 7b 3f
       0.9292119 0.94693965 1.0175142 0.98104143
000010 bb 5d 86 3f c7 07 83 3f a1 7d 74 3f dd 5f 65 3f
       1.0497354 1.0236748 0.95504194 0.895994
000020 dd ab 70 3f bf 80 87 3f 2c f8 84 3f ab 19 82 3f
       0.9401224 1.0586165 1.0388236 1.0164083
000030 45 fa 80 3f 12 03 84 3f 17 43 90 3f e9 60 82 3f
       1.0076376 1.0313437 1.1270474 1.0185825
000040 07 50 7b 3f 3f 08 89 3f f9 f0 7f 3f 43 7a 81 3f
       0.9816899 1.0705642 0.9997707 1.0115436
000050 bf b7 7d 3f 4a b2 75 3f 8e 97 8a 3f 96 ba 80 3f
       0.991085 0.9597517 1.0827501 1.0056942
000060 5f d8 85 3f cc f6 76 3f 7e 38 86 3f 1c 18 7f 3f
       1.0456656 0.9647033 1.048599 0.99646163
000070 c4 63 6d 3f 32 e4 78 3f 29 50 86 3f d8 36 85 3f
       0.92730355 0.972232 1.0493213 1.0407362
000080 b8 71 77 3f 1b 6b 83 3f d7 0c 80 3f b0 f8 8b 3f
       0.96657896 1.0267061 1.0003918 1.0935268
000090 2f 75 95 3f 06 d0 6c 3f 8f 94 89 3f 00 71 84 3f
       1.1676387 0.9250492 1.0748461 1.0346985
0000a0 71 8e 7f 3f bf 66 8d 3f 69 06 81 3f 47 e1 86 3f
       0.99826723 1.1046981 1.0080081 1.0537499
0000b0 2f cd 7f 3f 68 9f 82 3f 4d 2b 8a 3f 76 51 84 3f
       0.9992246 1.0204897 1.0794464 1.033736
0000c0 ab 56 88 3f 3e d9 8a 3f ef 98 8c 3f 65 bf 6c 3f
       1.0651449 1.0847547 1.0984172 0.92479545
0000d0 f2 62 80 3f 3d bf 86 3f 33 a8 88 3f 0e 7a 89 3f
       1.0030196 1.0527111 1.067633 1.0740373
0000e0 4d 69 60 3f 80 9f 76 3f b0 e7 64 3f b2 3a 8f 3f
       0.87660676 0.9633713 0.8941603 1.1189787
0000f0 2e 1f 84 3f 45 4f 7e 3f 6e b1 8d 3f 49 59 8a 3f
       1.0322015 0.99339706 1.1069772 1.0808498

bn3.bias f4 [64]
000000 d9 35 a1 bd 10 6c a2 bd 68 87 43 3d 59 d1 50 bd
       -0.07871599 -0.079307675 0.047736555 -0.0509809
000010 5e 7d cd 3a 67 6d 4f bd b0 8e 8d bd 51 10 e3 bd
       0.0015677621 -0.050641444 -0.06911981 -0.110870965
000020 8c 2d 8f bd f0 63 23 38 0f 68 0b bd 6e 56 ab 3c
       -0.06991109 3.8955302e-05 -0.034034785 0.020915236
000030 5a 7e f2 3c 84 fe 03 ba cb c8 35 bc 17 f8 62 bd
       0.029601265 -0.0005035179 -0.011095236 -0.05541238
000040 89 9e 2b 3d a5 f7 83 bc 27 42 2a 3d dc 9f f9 bc
       0.041899238 -0.016109297 0.041566994 -0.030471735
000050 f4 72 31 3d 21 59 5d 3d 17 b3 cb 3b db 56 a2 bc
       0.04332252 0.054040078 0.0062164175 -0.019816807
000060 8d 6e 9e 3b b6 6d 56 bd fe a4 d4 bc 1d 47 04 3d
       0.004834956 -0.052350722 -0.02595758 0.03229438
000070 03 65 b8 bd 88 1d 59 bd 40 76 80 bb 0f e2 61 3c
       -0.090036415 -0.05300668 -0.0039203465 0.013786807
000080 e9 01 56 3d 30 5b 98 bc 9b 78 17 3d 55 9e 35 3b
       0.052247915 -0.01859817 0.036980253 0.0027712781
000090 b4 e2 4c bb af 35 af bd 3e 9a 8f 3c ac 7b 94 3c
       -0.0031263055 -0.08555161 0.017529603 0.018125378
0000a0 1f 5c 52 3d 59 56 86 bc 35 5a 0d 3d e7 4b 41 3c
       0.051357385 -0.016398596 0.034509856 0.011797882
0000b0 3e 98 34 bd eb 33 00 bd ea b2 94 bc ed 0b 17 bd
       -0.044090502 -0.031299513 -0.01815172 -0.036876608
0000c0 d4 a0 48 bc 90 dd 2e 3b 31 e6 22 bc e0 ef e1 bd
       -0.012245376 0.0026682355 -0.009942577 -0.11032081
0000d0 c0 de 16 bd 9c 8d 07 3c 1a b4 17 bc cc d1 b9 3c
       -0.036833525 0.008273508 -0.009259248 0.022683047
0000e0 b3 3a de bd f8 ed 55 bd b4 de da bd a8 74 c4 3b
       -0.1085104 -0.052228898 -0.106870085 0.005995352
0000f0 86 d0 94 3c 9a 5d df bc 77 cd 44 39 4b 3c c5 bc
       0.018165838 -0.027266312 0.00018768558 -0.024076601

bn3.running_mean f4 [64]
000000 74 d7 ee 3d fc d2 be 3e 09 74 42 3e 37 73 08 3f
       0.11662188 0.37270343 0.18989576 0.53300804
000010 fc 1c 43 be a8 17 a5 3e f9 6c 90 bd e1 b3 1b bd
       -0.19054025 0.3224461 -0.07052035 -0.038013343
000020 1f 8c 17 be ac 79 cf be 3f 8f 1d 3d 3f 7e 76 bc
       -0.14799546 -0.40522516 0.03846669 -0.015044748
000030 a0 4c 7f 3d c7 48 1e be 52 71 68 3d 42 83 35 be
       0.062328935 -0.1545745 0.056748696 -0.17725852
000040 c4 ee 5f bc 02 61 2d 3e 92 fe d3 bd 14 e1 52 be
       -0.013667766 0.16931537 -0.1035129 -0.20593673
000050 9b 67 10 bf 1f 8d a2 be d4 39 9d be d3 ef 05 be
       -0.5640809 -0.31748292 -0.30708182 -0.13079767
000060 5e 41 88 be 7c f9 56 be 68 65 8d be c3 8f 83 3d
       -0.2661237 -0.20993608 -0.2761643 0.06423905
000070 75 df 10 3d 2e de 23 be b2 f1 4d 3e d5 bc 2c be
       0.035369355 -0.16002724 0.2011173 -0.16868909
000080 05 e4 1d bd 41 f4 8c 3e 08 ec ac be 14 31 f1 3e
       -0.038547534 0.275301 -0.33773828 0.47107756
000090 74 b8 03 3e 55 55 71 bd b8 27 d3 3c d6 3e 22 3f
       0.12863332 -0.05891927 0.025775775 0.6337713
0000a0 a0 3f fa be 82 ec c5 bd c1 5b ad bc 71 c8 a2 be
       -0.48876667 -0.09664251 -0.021161916 -0.3179355
0000b0 73 1a db be 25 28 11 3e cf 85 bf 3e ce ae 53 3e
       -0.42793617 0.1417547 0.37406775 0.20672151
0000c0 74 94 14 be 24 bc 58 3d 5d 56 af be 3c 2f 02 be
       -0.14509755 0.0529138 -0.34245577 -0.12713331
0000d0 bf 59 7f 3e d0 7c 06 3e f3 ae bd 3a e2 94 0a 3e
       0.24936579 0.1313355 0.0014471695 0.13533357
0000e0 e4 18 d9 3e d7 5b cc 3d a8 d6 94 3b 45 ee d5 bd
       0.42401803 0.099784546 0.0045421906 -0.10445837
0000f0 39 a2 d6 3d 01 af 93 be e4 96 36 be f4 c9 8e 3d
       0.1048016 -0.28844455 -0.17830998 0.06972113

bn3.running_var f4 [64]
000000 c3 fc 87 3d f5 d6 28 3e 2f b2 d3 3e 17 c1 64 3e
       0.06640007 0.1648825 0.4134688 0.22339283
000010 52 05 14 3e fc 12 02 3e b3 81 16 3e 20 f9 d9 3d
       0.14455155 0.12702554 0.14697914 0.1064322
000020 89 89 af 3d c0 5c d7 3d 5d 7f a5 3d 10 51 11 3e
       0.085711546 0.105157375 0.08080933 0.14191079
000030 e9 88 66 3e f1 f7 20 3e 73 32 17 3e 29 9a 59 3e
       0.22513165 0.15719582 0.14765339 0.21250214
000040 f6 5d 0f 3e f0 ad 2d 3e 8b 9a 20 3e 28 b9 41 3e
       0.14000687 0.16960883 0.15683953 0.18918288
000050 90 5a 25 3e 08 34 4c 3e a4 b4 23 3e 33 e9 73 3e
       0.16147828 0.19941723 0.15986878 0.23819427
000060 cd 61 1b 3e 00 59 9e 3e 2e 90 0f 3e be 59 86 3e
       0.15174027 0.30927277 0.14019844 0.26240343
000070 c2 30 0d 3e b4 26 12 3e 84 09 d3 3d e6 de 43 3e
       0.13788131 0.14272577 0.10304549 0.19127998
000080 d7 9e f6 3d f2 85 1d 3e 72 80 24 3e 38 1b 1f 3e
       0.12042015 0.15383127 0.16064623 0.15537727
000090 eb 8a 01 3e 68 88 e4 3d 60 81 36 3e ea 5a 75 3e
       0.12650649 0.1115883 0.1782279 0.23960462
0000a0 06 eb 9e 3e bd 6b ff 3d 9e 6b 6e 3e fc 6f 5b 3e
       0.31038684 0.12471721 0.2328324 0.21429437
0000b0 67 04 00 3e 9e 44 cf 3d ca 02 1f 3e e9 db 55 3e
       0.1250168 0.101205096 0.15528408 0.2088467
0000c0 a3 a8 29 3e 79 c0 4a 3e 14 fd 6c 3e da 38 19 3e
       0.16568236 0.19799985 0.23143417 0.14963093
0000d0 4b 36 25 3e 2a d4 a3 3e af 49 6f 3e 7d bf e8 3d
       0.16133992 0.31997806 0.23367952 0.113646485
0000e0 17 20 24 3e 94 12 16 3e 74 c6 ae 3d e6 8a 09 3e
       0.16027866 0.14655524 0.08533946 0.13431892
0000f0 fa 46 db 3d 79 16 e5 3d b4 dc 87 3e 98 2b 2b 3e
       0.10706897 0.11185927 0.2653557 0.16715848
