models/trained_models/dscnn_mfcc/model_acc_44.53125.pth (torch_old, 110035 bytes, 56 tensors)

conv1.weight f4 [64, 1, 10, 4]
-0.025744284 -0.1537559 -0.06647645 0.13580611 -0.0040796297 0.08958019 -0.053932216 -0.15828335
-0.045738876 -0.11033149 -0.17160988 -0.14128424 -0.12826273 -0.00029999315 0.040220764 0.072822616
-0.0121346135 -0.02762537 -0.10397681 0.104450226 -0.113145456 0.10064274 0.018983802 -0.12225724
0.10225648 0.12704454 0.03306494 0.103110895 0.17113096 -0.014023192 -0.032341514 0.0289253
0.13881047 0.14014529 0.06516835 -0.020636905 0.12930802 -0.12006143 0.069122925 -0.04986307
0.08548648 -0.03209962 0.14352703 0.010221702 0.008014293 0.048632585 0.02026996 -0.09849988
-0.125432 -0.085332125 0.089763775 0.12814133 -0.07428998 -0.15662962 -0.07029438 -0.092309825
-0.068221614 0.1144259 -0.045420066 0.049113236 -0.13748276 -0.13204701 0.024373226 0.1496656
-0.062540226 0.11624935 0.15609176 -0.11592148 0.08475777 0.13188899 -0.052274927 0.10451768
0.12531348 -0.03391868 0.16517468 0.101296335 -0.10828614 -0.011506589 -0.11788469 0.023364738
0.11962431 -0.1016772 0.11130545 -0.10449585 0.02189019 -0.036968183 -0.11128165 0.08012144
-0.055566136 -0.14566861 0.019837063 0.037384618 0.15373765 -0.21201394 -0.1115963 -0.1349369
-0.15292133 0.035456765 -0.12767358 -0.14833164 0.008124001 0.040573113 0.09417928 -0.052054018
-0.00097211933 -0.11826883 -0.14205387 -0.054455385 -0.12910838 -0.14692888 0.07565879 -0.05720746
0.025195861 -0.2004287 0.11612743 -0.055753343 -0.1118014 0.09156362 0.056808837 0.018156277
-0.08237823 -0.12905808 0.024150698 -0.023851935 0.0031031861 0.12818573 0.049824484 -0.09937393
-0.108199984 -0.119149394 0.030150834 0.0771491 -0.08885924 -0.012736538 0.056647956 0.1376331
-0.038501296 -0.09889536 0.0066124857 -0.058544546 -0.12115731 -0.23981708 -0.050088465 -0.01860313
0.030760089 -0.18498461 0.022572706 -0.04054321 0.096647255 -0.22171418 -0.091979116 -0.07912336
0.06589318 0.045129444 -0.12799688 0.1237329 0.05919104 -0.15451062 0.08022189 -0.10903882
0.058429867 -0.120984584 0.026388653 0.058356695 -0.103332914 0.12423295 -0.13017176 0.02018989
-0.10452925 -0.15037209 0.08030066 -0.095748566 -0.04817409 0.10610695 0.09662767 -0.100501545
0.06675771 -0.020123154 0.018997112 0.15801117 -0.068460554 -0.20491992 -0.124270506 -0.12852754
0.06357638 -0.008571077 0.036617067 0.14647897 0.14950414 -0.15508045 -0.031997878 0.009057481
-0.08594123 -0.060607046 -0.024349278 -0.009596035 -0.08075686 -0.1288611 -0.130812 -0.038281504
-0.06970239 0.059966687 -0.0018763563 0.1729672 0.077498704 -0.15574364 -0.11772609 0.16015327
-0.03523996 0.10415146 -0.004450543 -0.08682972 0.12093024 -0.0023556878 0.0962392 -0.022321794
0.071558006 -0.04057006 0.10106119 -0.0015534391 -0.122495405 0.069717556 0.090408266 -0.12563741
0.06775659 -0.017683323 0.033196844 -0.1488492 -0.032082208 0.1784191 0.05162893 0.13048509
-0.031208338 0.08034086 -0.13580298 -0.083557285 0.100707576 -0.028738372 -0.05757918 -0.071611896
-0.13259882 0.018532157 0.16978104 0.08149646 -0.084902756 -0.105148524 -0.057769787 -0.015183892
-0.044359334 -0.102163665 0.08111976 0.019392509 -0.08455636 -0.14645144 -0.07077038 -0.15764698
00000000: ade5 d2bc 3072 1dbe ce24 88bd c210 0b3e
00000010: 6aae 85bb d275 b73d 07e8 5cbd 0815 22be
00000020: b058 3bbd 7af5 e1bd 80ba 2fbe d1ac 10be
00000030: 4e57 03be 6648 9db9 87be 243d 0624 953d
00000040: 42d0 46bc 9a4e e2bc cbf1 d4bd 00ea d53d
00000050: ceb8 e7bd c81d ce3d eb83 9b3c 0162 fabd
00000060: d86b d13d f717 023e 1a6f 073d ce2b d33d
00000070: f43c 2f3e 88c1 65bc 8978 04bd c0f4 ec3c
00000080: 5524 0e3e 3f82 0f3e fc76 853d ba0e a9bc
00000090: 5269 043e c4e2 f5bd 5290 8d3d 383d 4cbd
000000a0: 8913 af3d e47a 03bd c0f8 123e ed78 273c
000000b0: 624e 033c f632 473d 300d a63c 4eba c9bd
000000c0: 3f71 00be 9cc2 aebd 12d6 b73d 7b37 033e
000000d0: 5825 98bd 8463 20be 80f6 8fbd ef0c bdbd
000000e0: c6b7 8bbd 2058 ea3d 640a 3abd f62a 493d
000000f0: 48c8 0cbe 5537 07be 5caa c73c f041 193e
00000100: 1715 80bd 2414 ee3d 85d6 1f3e 3e68 edbd
00000110: 7b95 ad3d e80d 073e 3c1e 56bd 5e0d d63d
00000120: 2d52 003e 50ee 0abd 8d23 293e 7474 cf3d
00000130: 20c5 ddbd 2286 3cbc 876d f1bd 6867 bf3c
00000140: 97fd f43d 233c d0bd 1df4 e33d ec01 d6bd
00000150: 0e53 b33c f36b 17bd a2e7 e3bd b616 a43d
00000160: 5199 63bd 272a 15be 5681 a23c 9d20 193d
00000170: 676d 1d3e 2f1a 59be 9a8c e4bd e62c 0abe
00000180: 6997 1cbe 1d3b 113d ddbc 02be 40e4 17be
00000190: 881a 053c fe2f 263d 11e1 c03d 9836 55bd
000001a0: d3d5 7eba ee36 f2bd 9276 11be 9c0c 5fbd
000001b0: fd34 04be 8674 16be fff2 9a3d 5f52 6abd
000001c0: 8d67 ce3c 2e3d 4dbe 38d4 ed3d 9e5d 64bd
000001d0: 22f8 e4bd b585 bb3d 62b0 683d 79bc 943c
000001e0: ebb5 a8bd cd27 04be afd7 c53c 2265 c3bc
000001f0: d35e 4b3b 1f43 033e c214 4c3d 8f84 cbbd
00000200: f497 ddbd 9904 f4bd e2fe f63c 5900 9e3d
00000210: d5fb b5bd eaac 50bc b007 683d b1ef 0c3e
00000220: 89b3 1dbd a789 cabd 8dad d83b 68cc 6fbd
00000230: 5321 f8bd 9c92 75be 9029 4dbd 9765 98bc
00000240: 95fc fb3c 9b6c 3dbe 65ea b83c a310 26bd
00000250: ffee c53d 0b09 63be 8c5f bcbd 6e0b a2bd
00000260: 01f3 863d a7d9 383d 9d11 03be ad67 fd3d
00000270: 4e72 723d 0838 1ebe 604b a43d bf4f dfbd
00000280: 2854 6f3d c4c6 f7bd 042d d83c 6e07 6f3d
00000290: 35a0 d3bd d86d fe3d bf4b 05be 4565 a53c
000002a0: 6e13 d6bd 24fb 19be ac74 a43d d317 c4bd
000002b0: 3252 45bd 9a4e d93d bae4 c53d c1d3 cdbd
000002c0: 44b8 883d 50d9 a4bc d59f 9b3c aecd 213e
000002d0: 0c35 8cbd 87d6 51be 8981 febd b99c 03be
000002e0: 5534 823d b46d 0cbc c7fb 153d 95fe 153e
000002f0: 9d17 193e 69cd 1ebe 3510 03bd d465 143c
00000300: f501 b0bd 183f 78bd 2378 c7bc b038 1dbc
00000310: da63 a5bd 2af4 03be 95f3 05be 11cd 1cbd
00000320: 20c0 8ebd a19f 753d 12f0 f5ba 501e 313e
00000330: a4b7 9e3d 437b 1fbe 601a f1bd 38ff 233e
00000340: c757 10bd 5c4d d53d dcd5 91bb c8d3 b1bd
00000350: 46aa f73d e261 1abb 0f19 c53d 32dc b6bc
00000360: 018d 923d cb2c 26bd 2bf9 ce3d c49c cbba
00000370: dfde fabd 14c8 8e3d f827 b93d 18a7 00be
00000380: f8c3 8a3d 9edc 90bc 6af9 073d ed6b 18be
00000390: a268 03bd 7fb3 363e db78 533d e29d 053e
000003a0: a1a8 ffbc c089 a43d f00f 0bbe 1520 abbd
000003b0: c63f ce3d bc6c ebbc 25d8 6bbd 42a9 92bd
000003c0: fcc7 07be c0d0 973c 15db 2d3e 9ee7 a63d
000003d0: 7fe1 adbd 1c58 d7bd 03a0 6cbd dcc5 78bc
000003e0: 22b2 35bd 2f3b d1bd 1e22 a63d 0add 9e3c
000003f0: e32b adbd 5ef7 15be 10f0 90bd 366e 21be

conv1.bias f4 [64]
0.07888251 0.060167257 0.11569872 -0.024078717 -0.070220195 -0.10108409 -0.15613408 0.005080481
0.045319896 -0.093080245 -0.017346917 -0.014157851 0.014260398 0.1419539 -0.0859975 0.108318575
-0.100501075 -0.0072443844 -0.15183972 0.07345682 0.052306585 0.0023348785 -0.04893438 0.0054963557
0.13929453 -0.12765831 -0.05716955 0.023574106 0.014068123 -0.006649295 -0.1529172 -0.14951265
-0.052257333 -0.05474681 0.12956579 0.04739332 0.056180343 -0.1280223 0.02022998 -0.047352437
-0.07738067 -0.0790016 -0.09619424 0.13489702 0.11011921 0.035009995 -0.066733144 -0.14243847
-0.13482857 0.0033504593 0.007700841 0.1426789 0.078627646 -0.026830362 -0.1523249 -0.016163917
0.10218442 -0.09626989 -0.024493786 0.077504456 -0.04054463 0.09124476 -0.13793203 0.018785758
00000000: 278d a13d f171 763d 73f3 ec3d bb40 c5bc
00000010: 9bcf 8fbd 2d05 cfbd 9de1 1fbe 2a7a a63b
00000020: 5ba1 393d dba0 bebd 1f1b 8ebc 55f6 67bc
00000030: 72a4 693c 5d5c 113e 751f b0bd 21d6 dd3d
00000040: 82d3 cdbd 4d62 edbb df7b 1bbe 8770 963d
00000050: 6e3f 563d c304 193b 6b6f 48bd c61a b43b
00000060: 3aa3 0e3e dcb8 02be 9e2a 6abd 7c1e c13c
00000070: fc7d 663c 54e2 d9bb 5496 1cbe d819 19be
00000080: c90b 56bd 313e 60bd e5ac 043e 7f1f 423d
00000090: 5c1d 663d 4718 03be 58b9 a53c a1f4 41bd
000000a0: c279 9ebd 97cb a1bd 7c01 c5bd 7222 0a3e
000000b0: 2e86 e13d a466 0f3d 63ab 88bd 64db 11be
000000c0: 8010 0abe 6193 5b3b 5657 fc3b 6b1a 123e
000000d0: 8807 a13d 59cb dbbc 0ffb 1bbe 316a 84bc
000000e0: 1146 d13d 2629 c5bd 31a7 c8bc a8ba 9e3d
000000f0: 2012 26bd 88de ba3d 0e3e 0dbe 97e4 993c

bn1.weight f4 [64]
0.99612814 0.99095404 1.0564245 1.0715806 1.0742444 1.0345464 0.9974011 1.0228562
1.017175 0.9871771 0.97752434 0.9984574 0.9977756 1.0023439 0.9781791 0.9800294
0.9846165 0.9781478 1.0443444 0.92275757 0.94834524 1.0493335 1.0539831 1.0346266
1.028335 1.013837 0.9659983 0.995838 0.99037474 0.9832403 1.0054919 1.0223686
0.97867024 0.98881173 0.97937775 1.015807 1.0486828 0.968769 1.0356363 1.0096474
1.057026 1.009882 0.973415 1.0166199 0.94972324 1.0211316 0.97790927 1.1089622
0.96889085 0.98205 1.0195717 1.039771 0.98568755 1.0385566 0.9778423 1.0385135
1.0333214 1.0008283 1.0132917 1.0362263 1.009887 0.9587761 1.0561336 1.0298524
00000000: 4102 7f3f 2aaf 7d3f eb38 873f 8e29 893f
00000010: d780 893f 046c 843f ae55 7f3f f4ec 823f
00000020: ca32 823f a3b7 7c3f 093f 7a3f e79a 7f3f
00000030: 396e 7f3f ce4c 803f f269 7a3f 35e3 7a3f
00000040: d40f 7c3f e567 7a3f 14ad 853f d739 6c3f
00000050: c1c6 723f 8f50 863f ebe8 863f a56e 843f
00000060: 7ba0 833f 69c5 813f aa4b 773f 3def 7e3f
00000070: 3389 7d3f a3b5 7b3f f5b3 803f f9dc 823f
00000080: 228a 7a3f c422 7d3f 80b8 7a3f f705 823f
00000090: 3d3b 863f 3f01 783f bb8f 843f 203c 813f
000000a0: a14c 873f d043 813f ba31 793f 9a20 823f
000000b0: 1021 733f 71b4 823f 4358 7a3f 79f2 8d3f
000000c0: 3b09 783f a167 7b3f 5381 823f 3717 853f
000000d0: 0556 7c3f 6cef 843f df53 7a3f 03ee 843f
000000e0: e043 843f 241b 803f 8bb3 813f 10a3 843f
000000f0: fa43 813f 5a72 753f 632f 873f 34d2 833f

bn1.bias f4 [64]
0.013243665 0.023091339 -0.002934559 -0.01328095 -0.009360584 -0.0004712357 0.017566193 -0.0064458847
-0.00048160032 -0.010890958 -0.03326359 -0.0154887065 -0.0154474685 0.016339295 -0.03246007 -0.030633805
-0.03175398 0.024802616 -0.0018752716 -0.07552696 -0.06046594 -0.0036231747 0.0192041 -0.0073260395
-0.020993521 0.009022429 0.0424243 -0.019855952 -0.025704073 -0.029779129 0.00872674 -0.010123879
-0.040196244 0.021259036 0.038631633 -0.02227632 -0.0053910245 -0.044964213 0.020187903 -0.01650877
-0.013047195 0.014566271 -0.030801347 0.01840333 -0.07129895 -0.014711198 -0.03457254 0.007710358
-0.04061538 -0.028659426 -0.025231063 0.004396016 -0.032935023 0.004966526 0.029422348 0.00051559566
0.0018706904 0.013521812 -0.014213153 0.009312634 0.011385689 0.044278193 -0.003711748 0.0066178655
00000000: f5fb 583c 0c2a bd3c bb51 40bb 5798 59bc
00000010: 235d 19bc 2f10 f7b9 fae6 8f3c 0038 d3bb
00000020: 4d7f fcb9 fd6f 32bc 673f 08bd 58c4 7dbc
00000030: 6117 7dbc fcd9 853c daf4 04bd bff3 fabc
00000040: 7610 02bd db2e cb3c accb f5ba e1ad 9abd
00000050: 22ab 77bd c972 6dbb eb51 9d3c 460f f0bb
00000060: 9bfa abbc cfd2 133c 1ac5 2d3d f3a8 a2bc
00000070: 5991 d2bc 5cf3 f3bc 9afa 0e3c a0de 25bc
00000080: d1a4 24bd 6e27 ae3c 343c 1e3d d47c b6bc
00000090: 31a7 b0bb 652c 38bd 1a61 a53c 663d 87bc
000000a0: e7c3 55bc 5ea7 6e3c 1b53 fcbc 95c2 963c
000000b0: 2f05 92bd 3d07 71bc f09b 0dbd 2ca7 fc3b
000000c0: 505c 26bd 2cc7 eabc 60b1 cebc 740c 903b
000000d0: e0e6 06bd 3dbe a23b 2307 f13c 0a29 073a
000000e0: f431 f53a 978a 5d3c 49de 68bc 0594 183c
000000f0: 0a8b 3a3c 0d5d 353d cc40 73bb aeda d83b

bn1.running_mean f4 [64]
-5.8203077 33.474323 -149.487 -142.7909 -101.98377 41.11285 -64.91962 -93.384995
50.637024 139.15575 -8.725957 -93.45273 -20.002739 -58.62484 94.09647 157.92778
-111.16015 63.371727 22.320107 135.68362 75.78845 -92.03534 -17.41545 20.578127
97.116005 122.731865 -158.05315 -62.140503 14.391155 -32.00123 11.245658 -93.74916
65.57802 23.421291 -8.377768 3.2863648 115.673874 71.27537 70.505104 85.68608
9.603848 -20.637537 37.50958 68.864426 13.876697 -30.902264 40.62777 45.99159
135.4243 60.895374 44.23232 137.49309 -21.076464 -72.37282 -22.644537 -70.136505
97.336876 -88.72645 -64.72402 -30.572258 -54.28263 188.26869 89.41162 -64.43304
00000000: f63f bac0 b5e5 0542 ac7c 15c3 78ca 0ec3
00000010: b1f7 cbc2 8f73 2442 d8d6 81c2 1ec5 bac2
00000020: 508c 4a42 df27 0b43 859d 0bc1 cce7 bac2
00000030: 9c05 a0c1 d67f 6ac2 6531 bc42 83ed 1d43
00000040: ff51 dec2 a67c 7d42 948f b241 02af 0743
00000050: b093 9742 1812 b8c2 d752 8bc1 01a0 a441
00000060: 653b c242 b776 f542 9b0d 1ec3 e08f 78c2
00000070: 2c42 6641 4201 00c2 37ee 3341 927f bbc2
00000080: f227 8342 ce5e bb41 560b 06c1 cd53 5240
00000090: 0659 e742 fd8c 8e42 9d02 8d42 465f ab42
000000a0: 5da9 1941 ad19 a5c1 cf09 1642 96ba 8942
000000b0: f306 5e41 d637 f7c1 d682 2242 63f7 3742
000000c0: 9f6c 0743 dd94 7342 e5ed 3042 3b7e 0943
000000d0: 999c a8c1 e2be 90c2 0328 b5c1 e445 8cc2
000000e0: 7bac c242 f173 b1c2 b372 81c2 fc93 f4c1
000000f0: 6a21 59c2 c944 3c43 c0d2 b242 b7dd 80c2

bn1.running_var f4 [64]
1228.8759 670.3244 1253.3208 752.7479 541.1925 316.98416 667.6077 414.01602
225.85164 1003.2144 583.0344 763.39197 1025.8105 376.34555 658.8961 890.77466
350.83536 1051.8938 535.1507 1198.2001 410.28622 872.43134 1018.7312 292.64856
711.4639 1968.7087 742.0551 553.5267 607.50543 112.51406 552.5312 1612.0132
1154.6898 488.94742 220.78 152.77599 1634.6548 610.333 968.7815 879.94775
235.851 668.1214 383.4901 243.55898 244.47423 1415.7053 239.88606 502.98785
1980.338 1120.1132 222.60109 1699.3674 391.5827 1131.7245 1049.3069 720.61127
1359.2025 2065.1553 427.88803 433.49567 918.4819 1661.7578 945.5749 1365.3234
00000000: 079c 9944 c394 2744 44aa 9c44 de2f 3c44
00000010: 524c 0744 f97d 9e43 e5e6 2644 0d02 cf43
00000020: 05da 6143 b9cd 7a44 34c2 1144 16d9 3e44
00000030: f039 8044 3b2c bc43 5ab9 2444 94b1 5e44
00000040: ed6a af43 9a7c 8344 a5c9 0544 67c6 9544
00000050: a324 cd43 9b1b 5a44 ccae 7e44 0453 9243
00000060: b1dd 3144 ae16 f644 8783 3944 b561 0a44
00000070: 59e0 1744 3307 e142 ff21 0a44 6c80 c944
00000080: 1356 9044 4579 f443 aec7 5c43 a7c6 1843
00000090: f454 cc44 5095 1844 0432 7244 a8fc 5b44
000000a0: dbd9 6b43 c507 2744 bcbe bf43 198f 7343
000000b0: 6779 7443 92f6 b044 d5e2 6f43 727e fb43
000000c0: d18a f744 9f03 8c44 e199 5e43 c26b d444
000000d0: 96ca c343 2f77 8d44 d229 8344 1f27 3444
000000e0: 7be6 a944 7c12 0145 abf1 d543 72bf d843
000000f0: d79e 6544 40b8 cf44 cb64 6c44 59aa aa44

conv2.weight f4 [64, 1, 3, 3]
0.13269788 -0.23719566 0.2535635 -0.14609711 0.0644358 0.2227855 -0.26233494 0.1520749
0.11291889 -0.22419156 -0.10863369 0.0625096 -0.20297986 -0.0358198 0.30943033 0.1978305
-0.052726626 -0.13833946 0.00936674 -0.17730871 -0.104119636 0.24368256 0.0023453282 -0.10229768
-0.3110942 -0.2905989 0.23942843 0.16539739 -0.15876932 -0.24075343 0.0065435567 -0.13785325
0.13060954 -0.19299115 0.047744337 0.16033271 -0.26697966 -0.016785901 0.27869713 0.116645835
-0.21175426 0.21231604 0.31587642 -0.11793565 -0.19576564 -0.25808513 0.032321353 -0.099247985
0.29893506 0.0011330626 0.047398742 -0.21826164 0.13274093 -0.15448932 -0.3401541 0.06994952
-0.17673813 0.11268183 -0.051474333 -0.1043272 0.27334252 -0.13175488 -0.23002605 -0.0020952302
-0.31511012 0.11682812 0.066884674 0.29303607 -0.00080290745 0.039685294 -0.011899066 -0.05885266
-0.23055139 -0.0055051274 0.13911638 0.14103268 -0.07575811 -0.13207859 -0.29647225 0.31577748
-0.30457586 0.31420112 -0.075345434 0.044953022 0.33937836 0.13723043 -0.286404 0.20706558
-0.07579385 0.25395355 0.14906831 -0.051592223 0.18515593 0.0056406455 0.21533489 0.12540796
-0.028980283 0.27045292 0.009470177 -0.06986822 -0.06158143 0.119845495 -0.27021325 0.20890689
-0.23840928 0.08275109 0.24450493 -0.27658874 0.0048605287 0.041403238 0.18629009 0.28475055
-0.07524395 0.047239944 -0.0032521642 0.2777178 0.18721056 0.15926528 0.013637775 0.19023784
-0.10635296 0.113155656 0.16260315 -0.17985491 -0.1361556 -0.317105 0.068014614 0.011385599
0.12978779 0.00062136416 -0.1633919 -0.35231885 0.3635369 -0.09999631 -0.25830817 0.123517916
-0.16914128 0.2480745 0.12701108 -0.15048671 0.06694155 -0.18818003 -0.11238029 -0.3115635
0.062190928 0.019789563 0.098088 -0.15075627 -0.2651031 -0.11390355 -0.11097001 0.2069661
-0.21242605 -0.31532368 -0.2485642 0.13070108 0.27215138 -0.30781063 0.087627426 -0.018774688
0.21092694 -0.08778546 0.18054834 0.10666254 0.2816137 0.2127389 0.16504769 0.2052208
-0.06239733 -0.06521614 0.26821253 0.26616138 0.24717961 -0.1725692 0.015686246 0.25929442
-0.24289697 0.13936186 -0.17253155 -0.27207926 0.0034939724 -0.17537683 -0.2618154 0.08449888
0.3158937 0.010539445 -0.11129838 0.14535819 0.03668172 -0.020487234 -0.12306595 -0.30295312
-0.20058735 -0.15568715 0.23942044 -0.029053567 0.0133298775 -0.029162653 0.1024961 0.29887494
0.09448944 0.3700516 0.20617199 0.019140368 0.36435044 -0.25958335 0.04934837 0.004521253
0.12592036 -0.28340316 -0.3466766 0.22096293 -0.075958505 -0.021859903 -0.1388248 -0.27562255
-0.015349602 0.06386567 -0.16636115 -0.014105739 -0.018396428 -0.22658384 0.20266095 -0.19249341
-0.100762166 0.17420863 -0.009145591 0.104522645 0.01980352 -0.2752463 0.047550637 0.30865285
-0.26729542 -0.10526966 0.3252266 0.20052224 0.14310482 0.023894982 -0.22242151 0.34112817
0.25998554 0.26693738 0.1630673 -0.32726908 -0.19486466 -0.31061867 -0.30103338 0.16062957
-0.224787 0.2830039 0.0043194867 0.04279897 0.12754901 -0.036945216 0.34251374 0.08035649
00000000: f4e1 073e 6be3 72be 13d3 813e 7b9a 15be
00000010: ebf6 833d e221 643e c450 86be 86b9 1b3e
00000020: 0542 e73d 7992 65be 577b debd 0805 803d
00000030: f4d9 4fbe c8b7 12bd a76d 9e3e 1494 4a3e
00000040: e0f7 57bd dca8 0dbe f476 193c 6a90 35be
00000050: ad3c d5bd ec87 793e 14b4 193b 7281 d1bd
00000060: bd47 9fbe 61c9 94be ba2c 753e ef5d 293e
00000070: 6d94 22be 1188 76be 556b d63b 6729 0dbe
00000080: 82be 053e 799f 45be 918f 433d 422e 243e
00000090: 8fb1 88be 9682 89bc 64b1 8e3e 03e4 ee3d
000000a0: 1cd6 58be 6069 593e 8eba a13e 3f88 f1bd
000000b0: ca76 48be bc23 84be 6563 043d 8742 cbbd
000000c0: 040e 993e 4683 943a 2f25 423d fb7f 5fbe
000000d0: 3ded 073e 7332 1ebe ae28 aebe b241 8f3d
000000e0: d7fa 34be bbc5 e63d c0d6 52bd 80a9 d5bd
000000f0: 8df3 8b3e c0ea 06be f38b 6bbe 2150 09bb
00000100: 1d56 a1be 9543 ef3d d5fa 883d d308 963e
00000110: 357a 52ba 0c8d 223d 4df4 42bc 7d0f 71bd
00000120: aa15 6cbe 5b64 b4bb 8674 0e3e df6a 103e
00000130: 1127 9bbd 9c3f 07be 36cb 97be 96ad a13e
00000140: 5ef1 9bbe f8de a03e b54e 9abd a920 383d
00000150: 00c3 ad3e 2286 0c3e 8ca3 92be 0009 543e
00000160: ce39 9bbd 3306 823e 5da5 183e 5e52 53bd
00000170: 8499 3d3e 2ad5 b83b c080 5c3e f26a 003e
00000180: 0f68 edbc ce78 8a3e cd28 1b3c 1217 8fbd
00000190: cf3c 7cbd 8e71 f53d 6459 8abe b0eb 553e
000001a0: 9021 74be 6779 a93d 805f 7a3e 0a9d 8dbe
000001b0: 1245 9f3b 7196 293d d4c2 3e3e d3ca 913e
000001c0: 8019 9abd ac7e 413d 4322 55bb 0731 8e3e
000001d0: 20b4 3f3e 7016 233e f970 5f3c b5cd 423e
000001e0: 95cf d9bd 27be e73d 7181 263e e32b 38be
000001f0: 606c 0bbe 965b a2be 3f4b 8b3d aa8a 3a3c
00000200: 17e7 043e 0be3 223a 3550 27be 2363 b4be
00000210: 8221 ba3e deca ccbd f840 84be f6f6 fc3d
00000220: 5f33 2dbe 3e07 7e3e 310f 023e 3019 1abe
00000230: a718 893d 44b2 40be a327 e6bd 4085 9fbe
00000240: eabb 7e3d b91d a23c 5de2 c83d da5f 1abe
00000250: 98bb 87be 4446 e9bd 3f44 e3bd ecee 533e
00000260: 3786 59be 1b72 a1be 9d87 7ebe 81d6 053e
00000270: 6d57 8b3e 5b99 9dbe 0276 b33d 60cd 99bc
00000280: 3bfd 573e ddc8 b3bd aae1 383e e471 da3d
00000290: ac2f 903e 3ad8 593e 4302 293e 6725 523e
000002a0: 5894 7fbd 0a90 85bd 2753 893e 4e46 883e
000002b0: a71c 7d3e fbb5 30be 7180 803c 3dc2 843e
000002c0: fcb9 78be e0b4 0e3e 1cac 30be f94d 8bbe
000002d0: 21fb 643b fc95 33be ab0c 86be c00d ad3d
000002e0: d2bc a13e a3ad 2c3c 68f0 e3bd c7d8 143e
000002f0: 923f 163d d8d4 a7bc 000a fcbd ac1c 9bbe
00000300: c566 4dbe 746c 1fbe a22a 753e bf01 eebc
00000310: 8f65 5a3c 84e6 eebc 7ae9 d13d 2306 993e
00000320: ae83 c13d 6777 bd3e c01e 533e 43cc 9c3c
00000330: 248c ba3e 1ce8 84be 8421 4a3d 0527 943b
00000340: 44f1 003e 381a 91be 987f b1be 1b44 623e
00000350: 2290 9bbd 8a13 b3bc 1728 0ebe 661e 8dbe
00000360: e67c 7bbc 01cc 823d 945a 2abe c21b 67bc
00000370: 1bb4 96bc 9805 68be 5a86 4f3e fe1c 45be
00000380: 655c cebd bf63 323e 64d7 15bc f80f d63d
00000390: fe3a a23c 15ed 8cbe 75c4 423d bf07 9e3e
000003a0: f2da 88be 9f97 d7bd 1a84 a63e b455 4d3e
000003b0: 128a 123e 69bf c33c 77c2 63be 5aa8 ae3e
000003c0: d31c 853e 04ac 883e 1dfb 263e d08f a7be
000003d0: 9a8a 47be 6909 9fbe 0c21 9abe 147c 243e
000003e0: 902e 66be e3e5 903e 7b8a 8d3b f94d 2f3d
000003f0: 359c 023e de53 17bd f65d af3e f291 a43d

conv2.bias f4 [64]
-0.33348253 0.037417565 0.03850697 0.18643422 0.2917655 0.1391988 0.13250518 0.28204083
-0.025112558 -0.037128646 0.23515017 -0.0021530767 0.21150123 -0.17719744 -0.25640452 -0.009306174
0.20000692 0.22049968 -0.037139624 0.009486882 -0.14263245 -0.11717029 0.3017848 0.080304846
-0.25419965 0.16013016 0.32924458 -0.3067162 -0.09034137 -0.29466105 -0.0918157 0.014606156
0.024851734 0.10476054 0.21693376 0.0049838643 -0.1523954 0.024392534 -0.23133363 0.136145
-0.29387835 0.0050807805 0.0122029465 -0.10516154 0.19797477 -0.048252303 -0.23406814 0.10320008
-0.17170805 -0.23966731 0.27229032 0.25500074 0.09430547 0.24269404 -0.2663226 -0.20842709
0.096796036 -0.11555247 0.28007287 -0.27157632 0.24048264 0.022369206 0.013448322 0.2719371
00000000: 39be aabe 2943 193d 7cb9 1d3d 9de8 3e3e
00000010: 4a62 953e 218a 0e3e 70af 073e a867 903e
00000020: dab8 cdbc 3514 18bd 35cb 703e a21a 0dbb
00000030: c793 583e 3f73 35be 7447 83be ec78 18bc
00000040: 9dce 4c3e abca 613e b81f 18bd de6e 1b3c
00000050: 3e0e 12be faf6 efbd 8a83 9a3e de76 a43d
00000060: 7526 82be 29f9 233e bf92 a83e e809 9dbe
00000070: e504 b9bd d0dd 96be df09 bcbd a94e 6f3c
00000080: dd95 cb3c b28c d63d e223 5e3e af4f a33b
00000090: 8a0d 1cbe dad2 c73c b9e2 6cbe 9869 0b3e
000000a0: 3977 96be ad7c a63b deee 473c ef5e d7bd
000000b0: e6b9 4a3e 35a4 45bd 8faf 6fbe 905a d33d
000000c0: 3cd4 2fbe 596b 75be a369 8b3e 758f 823e
000000d0: 3a23 c13d c984 783e 705b 88be e96d 55be
000000e0: 003d c63d c6a6 ecbd b665 8f3e 0d0c 8bbe
000000f0: 1541 763e a03f b73c 5a56 5c3c 573b 8b3e

bn2.weight f4 [64]
0.96793336 1.0147626 1.0073582 1.0352701 1.0192469 0.9896232 1.0159044 0.9682487
1.0044348 0.9968552 1.0469462 0.9696209 0.993094 0.98606867 1.0205415 0.9924816
0.99676347 0.96623194 0.9455495 1.0060276 1.0068699 0.9852884 0.9860132 1.0181063
1.0026037 1.0036713 0.99329156 0.9941732 0.99977815 1.0303783 1.0076058 0.99778044
0.9920817 0.97703993 0.9894928 1.0418454 0.99543434 1.0349846 0.989529 1.0089692
1.0612389 1.0115641 0.9460259 1.0379013 1.0276438 0.98233813 1.0118481 1.041701
0.98248684 1.0212699 0.9702263 1.016696 1.0276492 0.9835296 0.9696374 1.0204633
0.98276085 0.9902936 0.98102605 0.9764962 1.0150353 0.96325254 0.99756587 0.9761478
00000000: 7bca 773f bee3 813f 1df1 803f bb83 843f
00000010: af76 823f f257 7d3f 2809 823f 26df 773f
00000020: 5291 803f e731 7f3f 5502 863f 1339 783f
00000030: 693b 7e3f ff6e 7c3f 1ba1 823f 4613 7e3f
00000040: e42b 7f3f fa5a 773f 880f 723f 83c5 803f
00000050: 1de1 803f dc3b 7c3f 5c6b 7c3f 4f51 823f
00000060: 5155 803f 4d78 803f 5b48 7e3f 2382 7e3f
00000070: 76f1 7f3f 70e3 833f 3af9 803f 8a6e 7f3f
00000080: 11f9 7d3f 4a1f 7a3f 664f 7d3f 315b 853f
00000090: c9d4 7e3f 607a 843f c651 7d3f e725 813f
000000a0: add6 873f ef7a 813f c12e 723f f3d9 843f
000000b0: d589 833f 837a 7b3f 3d84 813f 7556 853f
000000c0: 4284 7b3f f9b8 823f c060 783f 1823 823f
000000d0: 028a 833f 99c8 7b3f 283a 783f 8b9e 823f
000000e0: 3796 7b3f e283 7d3f 8624 7b3f a8fb 793f
000000f0: adec 813f b897 763f 7a60 7f3f d2e4 793f

bn2.bias f4 [64]
-0.0076258527 0.015477774 0.013377564 0.013215782 0.026016321 -0.0024656889 -0.054681875 -0.0057089305
-0.013710126 -0.008411083 0.01685629 -0.022056138 -0.0036783323 0.010396894 0.004638617 0.00061786023
0.022346267 -0.036181584 -0.027376696 -0.025907012 -0.0010442269 -0.023681514 -0.015280753 -0.009519385
-0.0014375714 0.0076662195 0.008919485 0.0054650716 -0.008161881 -0.051317066 0.026598735 0.0009708379
-0.023896549 -0.044907406 -0.036504295 0.0641927 -0.0025425616 0.009776605 -0.03267402 0.03478045
0.010899123 -0.016734581 -0.049358353 0.014870265 -0.012134237 -0.017555831 0.030284801 0.060784083
-0.042674713 -0.017311674 -0.024706168 0.035787024 -0.013334147 -0.00783186 -0.024613554 0.024523826
-0.008897792 -0.008799352 -0.009866774 0.009435744 0.021293333 0.011767424 -0.008687236 -0.022548461
00000000: 4ae2 f9bb 7d96 7d3c 922d 5b3c 0287 583c
00000010: 2e20 d53c 6597 21bb 1afa 5fbd fb11 bbbb
00000020: 70a0 60bc a4ce 09bc 3416 8a3c 13af b4bc
00000030: 2d10 71bb bc57 2a3c 8aff 973b e6f7 213a
00000040: 850f b73c 2433 14bd 1845 e0bc f13a d4bc
00000050: 71de 88ba bcff c1bc 205c 7abc 32f7 1bbc
00000060: e46c bcba e934 fb3b 0823 123c 5814 b33b
00000070: 69b9 05bc d831 52bd 97e5 d93c d47f 7e3a
00000080: b2c2 c3bc d4f0 37bd 8785 15bd 7677 833d
00000090: 1ba1 26bb 0e2e 203c 31d5 05bd f275 0e3d
000000a0: 3c92 323c f616 89bc fc2b 4abd 69a2 733c
000000b0: aece 46bc 3fd1 8fbc d517 f83c bbf8 783d
000000c0: aecb 2ebd 36d1 8dbc 9764 cabc 6a95 123d
000000d0: 7777 5abc 3451 00bc 5da2 c9bc 31e6 c83c
000000e0: 0bc8 11bc 282b 10bc 40a8 21bc 6198 1a3c
000000f0: 5b6f ae3c 27cc 403c e954 0ebc 8db7 b8bc

bn2.running_mean f4 [64]
-0.24547946 -0.09969914 -0.1166724 0.09445966 0.2537768 0.09559223 0.05850056 0.34480312
-0.10033592 0.26059482 0.54004955 -0.0065369196 0.41722068 -0.17944473 -0.30790785 -0.14218365
0.06997852 0.09522402 0.23810501 0.030784078 -0.123265326 -0.30001333 0.5260957 -0.123160474
-0.46916637 0.13720195 0.6072524 -0.53506446 0.11107508 -0.21555169 0.17997888 -0.36226958
-0.2805491 -0.19902003 0.24556237 -0.061357282 -0.23518269 0.055113535 -0.18186852 0.10519787
-0.47964552 -0.33736894 0.042402115 -0.09100815 0.54411703 -0.2188024 -0.15202178 0.19555439
0.052841365 -0.24084766 0.29144874 0.1923939 0.052032594 0.24966826 -0.6990505 -0.35415995
0.16159078 -0.44386002 0.30841225 -0.07342197 0.22922821 0.24625282 -0.21748291 0.51027954
00000000: f85e 7bbe 102f ccbd f0f1 eebd 1174 c13d
00000010: 08ef 813e dcc5 c33d 489e 6f3d 098a b03e
00000020: eb7c cdbd af6c 853e b040 0a3f a833 d6bb
00000030: f39d d53e 5cc0 37be 19a6 9dbe 9798 11be
00000040: e650 8f3d d004 c33d cdd1 733e e42e fc3c
00000050: 8872 fcbd 599b 99be 35ae 063f 8f3b fcbd
00000060: 9336 f0be ab7e 0c3e e574 1b3f fcf9 08bf
00000070: 557b e33d 95b9 5cbe 624c 383e 667b b9be
00000080: 22a4 8fbe e8cb 4bbe b474 7b3e c651 7bbd
00000090: bbd3 70be bbbe 613d be3b 3abe fb71 d73d
000000a0: 1994 f5be 9fbb acbe d7ad 2d3d 7b62 babd
000000b0: 414b 0b3f bd0d 60be 99ab 1bbe 693f 483e
000000c0: 3070 583d c5a0 76be c538 953e e802 453e
000000d0: 2120 553d 09a9 7f3e f9f4 32bf 7454 b5be
000000e0: 0e78 253e 9f41 e3be 36e8 9d3e 425e 96bd
000000f0: cdba 6a3e b329 7c3e d7b3 5ebe aea1 023f

bn2.running_var f4 [64]
0.06067243 0.01959314 0.08758799 0.038747396 0.0872995 0.029560408 0.039338768 0.05131758
0.061214097 0.08873478 0.018111734 0.082155086 0.12922098 0.08535284 0.05275074 0.024134334
0.13615979 0.04918801 0.27633142 0.070639096 0.016686227 0.13453439 0.044212777 0.061929047
0.06697495 0.034491092 0.3691779 0.188131 0.112738155 0.042783733 0.02709076 0.24579631
0.054926407 0.14911747 0.010868211 0.08018466 0.014419157 0.01383119 0.04500716 0.05330466
0.03749548 0.13728173 0.036320623 0.01611522 0.045528673 0.07178026 0.10866859 0.0130016105
0.048849087 0.10064748 0.008415816 0.023208207 0.041055884 0.11870771 0.037449244 0.2872029
0.04770789 0.25035807 0.13349117 0.08245251 0.15000221 0.016765982 0.03617502 0.088255584
00000000: a783 783d cb81 a03c 5561 b33d 97b5 1e3d
00000010: 15ca b23d ab28 f23c b021 213d 6232 523d
00000020: a2bb 7a3d 95ba b53d 0f5f 943c ed40 a83d
00000030: 8152 043e 78cd ae3d 2911 583d 5eb5 c53c
00000040: 796d 0b3e 5e79 493d 507b 8d3e 3bab 903d
00000050: 8eb1 883c 62c3 093e 7518 353d 50a9 7d3d
00000060: 2a2a 893d 8846 0d3d e304 bd3e 6aa5 403e
00000070: 43e3 e63d ff3d 2f3d 71ed dd3c 07b2 7b3e
00000080: 83fa 603d 40b2 183e 9510 323c db37 a43d
00000090: 543e 6c3c 379c 623c 6e59 383d fd55 5a3d
000000a0: dc94 193d 9593 0c3e efc4 143d 1104 843c
000000b0: 467c 3a3d 8701 933d a38d de3d b504 553c
000000c0: fb15 483d 4420 ce3d 7ee2 093c 231f be3c
000000d0: 372a 283d 071d f33d 6164 193d 420c 933e
000000e0: 5969 433d ef2e 803e e9b1 083e dddc a83d
000000f0: 2e9a 193e d058 893c 422c 143d 58bf b43d

conv3.weight f4 [64, 64, 1, 1]
-0.040984903 0.050815664 0.078291066 -0.043341495 0.024162011 0.0933916 -0.008437311 -0.13726626
0.09153094 0.017245224 -0.018970182 -0.016528726 0.11732045 0.024199152 -0.042311355 -0.13579881
0.01854071 0.03788165 -0.06784447 -0.060971454 -0.005756143 0.09638307 0.018592078 0.0028988223
-0.112631164 0.085632816 0.041538067 -0.098560125 -0.06183687 -0.06094721 0.012745697 0.055951394
-0.019045375 0.036932107 0.05486614 0.09707459 -0.0023188815 0.11377541 0.023187073 -0.03453979
0.04754238 0.09619376 -0.0711302 -0.09789415 -0.07010874 -0.08283712 0.046720315 0.1378464
-0.0026905588 0.10440688 0.09436498 -0.029481824 0.09346397 0.05284018 0.09907515 -0.10346983
0.023778822 -0.09871591 -0.12873922 -0.03054525 -0.09934581 -0.13161297 0.016473787 -0.061804194
-0.058671165 -0.071573995 0.13363016 0.025752744 0.11344391 -0.09483589 -0.17388408 0.008163558
-0.10621706 -0.03625935 -0.11118426 0.10173031 0.027960423 -0.048767224 0.14955732 -0.04784763
-0.05084223 -0.035831764 -0.022061119 -0.116264574 -0.047097314 -0.010457793 -0.017010381 -0.088435374
0.11055611 0.03537037 0.028491633 0.07878904 0.045116905 0.03783269 -0.08632021 -0.058095723
0.009239413 -0.062549956 -0.06783483 -0.0012485716 0.052579243 -0.04909718 -0.051131476 -0.036703993
0.07536039 0.019375512 0.1481333 -0.007258915 -0.04050686 -0.08003951 0.06912311 -0.014325418
-0.11858626 -0.05552398 -0.0031306362 0.08660449 0.101674385 -0.016557558 -0.098882884 -0.13605277
0.10585884 0.111837946 -0.019501673 -0.027461557 0.0029814418 -0.07841284 0.052261334 -0.08652323
0.11793794 0.0109459255 0.047345296 0.023240786 -0.03267078 0.07992643 -0.09026525 0.034667786
-0.01617942 -0.08667906 0.06954325 0.052689087 -0.061838772 0.015269472 0.10868891 0.053529657
0.049823027 -0.03599804 0.009297205 0.025340712 0.1724819 0.06636682 -0.094421156 -0.11157747
0.09573018 0.03107031 0.042773254 0.009099601 -0.022644905 -0.008019398 -0.048806086 -0.07844842
0.122702695 0.043344457 0.15448321 0.015743745 0.0629515 -0.1037213 -0.05314499 -0.045522522
0.0036174373 -0.08399829 0.028708998 -0.02839754 0.05905747 -0.0045902357 0.13977592 0.052807838
0.15071012 -0.0601719 -0.11692746 0.050353646 -0.036418766 -0.013319633 0.07848074 -0.01000887
0.007086654 0.09250333 0.0031948807 -0.07202526 -0.06081367 -0.09851641 0.11401585 -0.05747285
0.10312566 -0.003203674 -0.018340066 0.0015726998 0.09957765 -0.110747464 -0.018192656 -0.008406008
-0.009649215 -0.1304612 -0.035847012 -0.03750934 0.026280832 -0.028165894 0.15577236 0.04848889
0.08905026 -0.07978764 -0.0287691 0.04803536 -0.13135041 -0.062177107 -0.13921826 0.02952784
-0.04398758 -0.04372017 -0.086313345 0.10355387 -0.01843522 0.03380937 0.003168583 -0.10877178
0.0769448 -0.15169743 -0.117608905 -0.0170521 -0.14153698 0.05330948 -0.033955343 0.031167684
-0.0012309963 0.064994834 0.056402847 0.029671794 -0.09466784 -0.11939233 0.012645833 0.12838127
0.10457175 -0.03068944 0.08119306 -0.055331472 -0.014680226 0.072173834 -0.040768016 0.05595653
0.08260744 0.011611338 -0.119394824 0.09385528 -0.013479239 -0.06475501 -0.0062764003 0.012954309
00000000: c9df 27bd 1624 503d 1157 a03d da86 31bd
00000010: 69ef c53c 1844 bf3d a63c 0abc 878f 0cbe
00000020: 9374 bb3d db45 8d3c 5b67 9bbc 4067 87bc
00000030: b445 f03d 4d3d c63c ac4e 2dbd d80e 0bbe
00000040: b0e2 973c ca29 1b3d 0bf2 8abd 34bd 79bd
00000050: 079e bcbb 7d64 c53d 6a4e 983c 2bfa 3d3b
00000060: 2bab e6bd 4260 af3d d223 2a3d e4d9 c9bd
00000070: a848 7dbd c8a3 79bd 54d3 503c 4a2d 653d
00000080: 0c05 9cbc 1f46 173d 51bb 603d 0bcf c63d
00000090: 60f8 17bb 1503 e93d d1f2 bd3c 9879 0dbd
000000a0: ccbb 423d 3c01 c53d b6ac 91bd ba7c c8bd
000000b0: 2c95 8fbd 82a6 a9bd cd5d 3f3d 9b27 0d3e
000000c0: 1654 30bb 46d3 d53d 6d42 c13d de83 f1bc
000000d0: 0a6a bf3d f26e 583d eae7 ca3d fde7 d3bd
000000e0: cecb c23c 912b cabd 37d4 03be 083a fabc
000000f0: d175 cbbd 8dc5 06be 09f4 863c 6526 7dbd
00000100: 2d51 70bd 6395 92bd 58d6 083e 6bf7 d23c
00000110: 4855 e83d 5239 c2bd ab0e 32be 72c0 053c
00000120: 5488 d9bd af84 14bd 93b4 e3bd fb57 d03d
00000130: 420d e53c 24c0 47bd 8e25 193e e0fb 43bd
00000140: f13f 50bd 54c4 12bd 85b9 b4bc 1f1c eebd
00000150: 1de9 40bd 2a57 2bbc 5b59 8bbc 9b1d b5bd
00000160: 3e6b e23d 85e0 103d 4967 e93c 265c a13d
00000170: 81cc 383d 73f6 1a3d a6c8 b0bd c8f5 6dbd
00000180: e860 173c 311a 80bd fdec 8abd 1ca7 a3ba
00000190: 555d 573d 201a 49bd 3d6f 51bd ed56 16bd
000001a0: 8c56 9a3d 65b9 9e3c 41b0 173e 31dc edbb
000001b0: 85ea 25bd c1eb a3bd 6b90 8d3d 28b5 6abc
000001c0: 5add f2bd 1d6d 63bd 5c2b 4dbb b25d b13d
000001d0: a93a d03d b7a3 87bc 1c83 cabd 6b51 0bbe
000001e0: 85cc d83d 4b0b e53d f9c1 9fbc 0ff7 e0bc
000001f0: 4b64 433b e996 a0bd fb0f 563d 1733 b1bd
00000200: 7289 f13d 8a56 333c 24ed 413d 7663 be3c
00000210: ccd1 05bd 78b0 a33d fddc b8bd cfff 0d3d
00000220: b48a 84bc ca84 b1bd b16c 8e3d 83d0 573d
00000230: a74a 7dbd cf2c 7a3c 4b98 de3d ea41 5b3d
00000240: 3b13 4c3d ae72 13bd 4e53 183c 5397 cf3c
00000250: 189f 303e 54eb 873d e15f c1bd bb82 e4bd
00000260: 2f0e c43d 2a87 fe3c 0233 2f3d 7e16 153c
00000270: cf81 b9bc cb63 03bc e4e8 47bd 91a9 a0bd
00000280: 8d4b fb3d f589 313d d930 1e3e 07f9 803c
00000290: b7ec 803d d56b d4bd 90ae 59bd d375 3abd
000002a0: 8712 6d3b 4c07 acbd 222f eb3c f5a1 e8bc
000002b0: 3fe6 713d b069 96bb 6b21 0f3e 084d 583d
000002c0: c153 1a3e cf76 76bd aa77 efbd a03f 4e3d
000002d0: d82b 15bd 973a 5abc 83ba a03d 3efc 23bc
000002e0: 2a37 e83b 6372 bd3d 3461 513b fb81 93bd
000002f0: c117 79bd f9c2 c9bd 2481 e93d a768 6bbd
00000300: 8c33 d33d bbf4 51bb e83d 96bc 0c23 ce3a
00000310: 5eef cb3d 91cf e2bd c408 95bc 5ab9 09bc
00000320: be17 1ebc 9f97 05be 51d4 12bd 65a3 19bd
00000330: e64a d73c 29bc e6bc ca82 1f3e 499c 463d
00000340: fc5f b63d b467 a3bd 2dad ebbc bac0 443d
00000350: b980 06be 6cad 7ebd 3b8f 0ebe 5ee4 f13c
00000360: 522c 34bd ec13 33bd 0dc5 b0bd 0d14 d43d
00000370: 7505 97bc b27b 0a3d 00a8 4f3b bdc3 debd
00000380: 3c95 9d3d 9256 1bbe f0dc f0bd d8b0 8bbc
00000390: 12ef 10be 0b5b 5a3d c214 0bbd 5f53 ff3c
000003a0: 6259 a1ba 031c 853d ac06 673d 4312 f33c
000003b0: 36e1 c1bd f783 f4bd 7830 4f3c 6176 033e
000003c0: b729 d63d 6c68 fbbc 8c48 a63d 41a3 62bd
000003d0: 5585 70bc e0cf 933d 5dfc 26bd ad32 653d
000003e0: 172e a93d 7b3d 3e3c 4685 f4bd 3237 c03d
000003f0: 07d8 5cbc 469e 84bd 43aa cdbb 4f3e 543c

conv3.bias f4 [64]
0.091045395 0.056247335 -0.037092995 0.096794486 0.08750455 0.10213986 -0.06851176 -0.045284905
-0.08756781 -0.084600456 -0.095817715 -0.047591504 -0.10359755 0.040675305 0.053235482 0.107983425
0.008274128 -0.03400982 -0.12354368 -0.09694733 0.113879435 -0.04992335 -0.114700966 -0.0011250647
-0.025509762 -0.07274511 -0.11484518 0.058457505 0.04418996 -0.087103695 0.054082867 -0.06154151
-0.043076314 -0.10950861 -0.017977055 0.0580725 0.111062504 -0.11889321 0.050994802 -0.023800764
0.091647856 -0.075167686 -0.08377464 0.0879435 -0.045042034 0.04831156 0.036193103 0.056475345
-0.10346592 -0.06777984 -0.032952987 -0.029470509 0.121971965 0.08125514 -0.043775134 0.07349045
-0.059719052 -0.056347523 0.04810711 0.049915496 0.12040117 -0.07152012 -0.09596744 0.046133693
00000000: 0276 ba3d 9b63 663d d3ee 17bd 303c c63d
00000010: 9635 b33d b42e d13d e54f 8cbd aa7c 39bd
00000020: c156 b3bd 0143 adbd 143c c4bd 4fef 42bd
00000030: f42a d4bd 269b 263d 730d 5a3d 6a26 dd3d
00000040: 3590 073c e24d 0bbd 7804 fdbd 528c c6bd
00000050: 9f39 e93d 6d7c 4cbd 57e8 eabd e876 93ba
00000060: d9f9 d0bc 63fb 94bd f333 ebbd 2371 6f3d
00000070: 8800 353d 6c63 b2bd ff85 5d3d f312 7cbd
00000080: ca70 30bd 0d46 e0bd 9e44 93bc 6edd 6d3d
00000090: bd74 e33d 497e f3bd eddf 503d d2f9 c2bc
000000a0: dfb1 bb3d 84f1 99bd 0a92 abbd b91b b43d
000000b0: ff7d 38bd 58e2 453d 383f 143d b152 673d
000000c0: f1e5 d3bd 28d0 8abd b6f9 06bd 236c f1bc
000000d0: 70cc f93d 1869 a63d 8e4d 33bd 2982 963d
000000e0: f79b 74bd a9cc 66bd f60b 453d 3174 4c3d
000000f0: e394 f63d 2479 92bd 948a c4bd aff6 3c3d

bn3.weight f4 [64]
0.96686304 0.9796661 1.0309818 0.9889245 1.0042866 0.9824734 1.0252811 1.0232744
1.0121655 0.96262723 0.9910441 1.0108492 1.0312734 0.9655733 1.0277561 0.9929414
1.0232736 0.9726612 1.0237712 0.9983649 1.0113124 1.0181617 1.0036409 0.9520483
0.962515 1.0330087 1.0448635 1.0022339 1.0161723 1.0352787 0.9941938 0.92803675
1.0078522 1.0086381 0.99702454 1.0286328 1.060479 1.0119469 1.0478879 1.0772593
1.006896 1.0529373 0.9823156 0.96784997 0.95884424 0.9160124 0.9363101 0.9651547
1.0376289 0.9582153 1.0566542 1.027476 1.011379 1.008148 1.0151786 0.9658756
1.0112439 1.0485831 0.968637 1.0444775 1.0003364 0.97567546 0.9609605 0.9842445
00000000: 5684 773f 66cb 7a3f 36f7 833f 282a 7d3f
00000010: 778c 803f 6083 7b3f 693c 833f a8fa 823f
00000020: a48e 813f bd6e 763f 11b5 7d3f 8263 813f
00000030: c400 843f d02f 773f 838d 833f 6831 7e3f
00000040: a1fa 823f 5300 793f ef0a 833f d894 7f3f
00000050: af72 813f 1f53 823f 4e77 803f 70b9 733f
00000060: 6267 763f a139 843f 16be 853f 3349 803f
00000070: ef11 823f 0384 843f 7c83 7e3f d193 6d3f
00000080: 4d01 813f 0e1b 813f 003d 7f3f 3daa 833f
00000090: c7bd 873f 7a87 813f 3121 863f a2e3 893f
000000a0: f8e1 803f a6c6 863f 0979 7b3f 04c5 773f
000000b0: d176 753f ca7f 6a3f 05b2 6f3f 6114 773f
000000c0: 06d1 843f 994d 753f 7240 873f 5584 833f
000000d0: de74 813f fe0a 813f 5ff1 813f a043 773f
000000e0: 7170 813f f937 863f 98f8 773f 70b1 853f
000000f0: 060b 803f dec5 793f 8201 763f 73f7 7b3f

bn3.bias f4 [64]
0.04681199 -0.029400885 0.0024053182 0.021767275 -0.026294231 -0.029702434 -0.009901033 -0.013401522
0.0018530679 -0.04444015 -0.04774188 0.017151915 0.011465352 -0.055809643 0.009168533 0.009954044
0.012699586 -0.03678298 -0.0022998487 -0.027608735 0.007860435 0.011028856 0.022658752 -0.052158173
-0.044145316 0.008198517 -0.0031096009 -0.020129522 -0.033510327 -0.007828672 0.024432374 -0.08337488
-0.023907714 0.0039520683 0.021938022 -0.007821474 -0.00912262 -0.015357579 -0.0028440284 -0.002623004
0.009914748 -0.0010183294 -0.039961938 0.034689695 0.0492793 -0.083608285 -0.06958526 0.0442206
0.0016536195 -0.044854477 0.002233553 -0.009224853 0.009655125 -0.021253716 0.00851017 0.039150964
0.004482317 0.0031195232 -0.033368163 -0.0019836666 -0.020226048 -0.041166876 0.049507637 0.024081614
00000000: eebd 3f3d 20da f0bc 8ba2 1d3b 4951 b23c
00000010: 0067 d7bc 8552 f3bc f137 22bc 0f92 5bbc
00000020: a4e2 f23a e006 36bd fd8c 43bd 2c82 8c3c
00000030: 2cd9 3b3c a798 64bd 9d37 163c 4916 233c
00000040: ed11 503c c0a9 16bd 0fb9 16bb b72b e2bc
00000050: 0ec9 003c 60b2 343c d99e b93c cfa3 55bd
00000060: b8d1 34bd 1353 063c 72ca 4bbb abe6 a4bc
00000070: 2042 09bd d543 00bc 6726 c83c 73c0 aabd
00000080: 1cda c3bc 5a80 813b 5eb7 b33c a425 00bc
00000090: 0b77 15bc 5b9e 7bbc e162 3abb b4e6 2bbb
000000a0: 7871 223c 7779 85ba 21af 23bd c816 0e3d
000000b0: 17d9 493d d23a abbd b782 8ebd a920 353d
000000c0: 43be d83a 54b9 37bd cd60 123b d623 17bc
000000d0: 8830 1e3c 461c aebc 3d6e 0b3c c35c 203d
000000e0: 66e0 923b ea70 4c3b 0ead 08bd 6700 02bb
000000f0: 19b1 a5bc 999e 28bd 85c8 4a3d ce46 c53c

bn3.running_mean f4 [64]
0.11050611 -0.17426196 0.23078342 -0.090378925 0.14005685 0.29649833 0.07083633 0.049220838
-0.22469695 -0.19275554 -0.16585614 -0.27081788 -0.1523464 -0.40157047 0.056140434 -0.11938051
0.079445325 0.18501055 -0.60469246 -0.14349777 -0.058840673 -0.13387316 -0.017909812 0.1513232
0.7943098 -0.2822684 -0.53216004 0.04028362 -0.40640163 0.010163913 -0.06170743 -0.14807048
-0.15472215 0.26821488 -0.14687161 -0.10520959 0.4919489 -0.04959649 0.2764122 -0.33093303
0.17321654 0.20182821 0.0315134 0.2064373 -0.14628877 -0.07270884 0.16788056 -0.15927063
-0.030363435 -0.2617038 -0.47131297 -0.18523009 0.4158128 0.334456 -0.25457674 0.2626644
-0.040273618 -0.2777735 0.533106 -0.12365149 0.13885768 0.1657479 0.18477409 0.028751077
00000000: 0751 e23d ba71 32be 7d52 6c3e 9618 b9bd
00000010: 106b 0f3e a1ce 973e a312 913d ca9b 493d
00000020: f516 66be b561 45be 31d6 29be a4a8 8abe
00000030: b200 1cbe a59a cdbe 83f3 653d c57d f4bd
00000040: 3bb4 a23d 6873 3d3e 20cd 1abf 14f1 12be
00000050: eb02 71bd 0c16 09be 99b7 92bc 78f4 1a3e
00000060: e357 4b3f 7c85 90be a43b 08bf 7000 253d
00000070: e013 d0be 8a86 263c eec0 7cbd ca9f 17be
00000080: 7c6f 1ebe 7653 893e 8365 16be 2078 d7bd
00000090: bae0 fb3e b025 4bbd e685 8d3e 0e70 a9be
000000a0: ad5f 313e 0eac 4e3e 3214 013d 4d64 533e
000000b0: b9cc 15be 5fe8 94bd e2e8 2b3e d717 23be
000000c0: bdbc f8bc 0afe 85be ef4f f1be f5ac 3dbe
000000d0: 6ae5 d43e d13d ab3e e257 82be f37b 863e
000000e0: f3f5 24bd 5438 8ebe a379 083f fe3c fdbd
000000f0: b530 0e3e d1b9 293e 6b35 3d3e 6187 eb3c

bn3.running_var f4 [64]
0.13096955 0.079842776 0.07994138 0.07814507 0.07380352 0.113271154 0.0729463 0.07979126
0.10257311 0.107107826 0.08919249 0.091413625 0.08946524 0.18913512 0.0961549 0.2492148
0.103158705 0.14152059 0.10732974 0.11410199 0.16652153 0.16110644 0.27515683 0.13787328
0.19430417 0.1554549 0.15804923 0.16862313 0.17986366 0.11045712 0.19177467 0.05007204
0.091492236 0.14602078 0.16678533 0.09865185 0.12608585 0.117723376 0.1310445 0.17026739
0.18030708 0.26198885 0.09438706 0.08993234 0.22808075 0.16181721 0.06003209 0.10043917
0.19617186 0.1359895 0.2567623 0.11437216 0.15943539 0.14928938 0.09473541 0.121789694
0.20318991 0.109436385 0.14528832 0.13035563 0.105335124 0.07110868 0.377592 0.07953843
00000000: e21c 063e 9c84 a33d 4eb8 a33d 860a a03d
00000010: 4d26 973d b5fa e73d df64 953d 9a69 a33d
00000020: da11 d23d 595b db3d 8daa b63d 1137 bb3d
00000030: 8d39 b73d a3ac 413e dcec c43d 2a32 7f3e
00000040: df44 d33d c6ea 103e b2cf db3d 4eae e93d
00000050: 9f84 2a3e 16f9 243e 5be1 8c3e a72e 0d3e
00000060: acf7 463e 922f 1f3e a8d7 213e 8bab 2c3e
00000070: 2e2e 383e 5837 e23d 9460 443e 5718 4d3d
00000080: 4860 bb3d 7986 153e c6c9 2a3e fb09 ca3d
00000090: a61c 013e f418 f13d 8830 063e 935a 2e3e
000000a0: 6ba2 383e 6723 863e 014e c13d 722e b83d
000000b0: 008e 693e 69b3 253e 35e4 753d 0db3 cd3d
000000c0: 47e1 483e d540 0b3e 5976 833e f33b ea3d
000000d0: 0843 233e 51df 183e a304 c23d e06c f93d
000000e0: 0411 503e 2f20 e03d 76c6 143e f27b 053e
000000f0: f1b9 d73d 6da1 913d bd53 c13e 0be5 a23d

conv4.weight f4 [64, 1, 3, 3]
-0.07368608 0.11408728 -0.013633823 -0.16440646 0.19584201 -0.3170867 0.17358612 -0.18913223
0.19033983 -0.28354225 -0.27591974 -0.25365376 0.22972482 0.15241683 0.22688904 0.03078458
0.1322379 0.15242633 0.050695837 -0.295712 0.070371285 -0.20030378 0.09381691 -0.13360609
-0.034271576 0.32864386 0.19799437 -0.21932419 -0.04425485 0.008928542 0.15600045 -0.177506
-0.1353677 0.2506193 0.19176884 0.05813934 0.25567165 -0.105271325 0.07493622 0.14870572
-0.25965223 -0.1769628 0.072974876 -0.13686499 0.15828992 0.28454143 -0.008120523 0.038333982
0.3164916 0.24360728 -0.21921773 0.27025956 0.05507581 0.051032647 -0.02619642 -0.012014326
0.056354046 0.046830975 0.17011683 -0.26926252 0.096677735 0.14979444 -0.19585946 0.33133772
0.084599204 -0.091811955 0.15045872 -0.22187601 -0.27579218 -0.15838392 0.2642325 -0.21943648
0.17091317 0.04739516 -0.27730596 -0.17792274 0.21803533 -0.22310095 0.21345887 -0.0046782815
-0.06873727 -0.29858175 0.22385588 -0.07285399 0.081888646 -0.098037615 -0.13639547 0.049872894
-0.1899033 0.15807661 0.32365438 -0.18261713 -0.18911275 -0.06445581 -0.29158318 0.11162107
-0.15063262 0.17750697 0.25295115 0.15537825 -0.01494774 -0.23171505 -0.26475194 -0.1410667
-0.31388327 -0.044273023 0.3481479 0.072178885 0.16553605 0.21972163 -0.22220825 -0.19267005
0.1524382 -0.23977023 -0.117227346 0.24063416 0.13280933 -0.02992913 0.2902905 -0.032620467
-0.25616518 0.18815152 0.2640102 0.3196232 -0.026808083 0.02643315 -0.19594616 0.25502014
-0.29746556 -0.32385626 0.18351012 0.035604708 0.2804185 0.18504792 0.086558886 -0.1641675
-0.039524004 0.20785727 0.14956515 0.28132063 0.15072668 0.22682153 -0.2855923 0.24048568
-0.27024046 0.23388572 -0.22234955 0.13059439 0.29817793 0.03490305 -0.19085568 -0.23375285
0.16955192 -0.25284475 -0.18052287 -0.15036732 0.24202529 0.19461296 0.2556812 0.20784403
0.3072424 -0.16703752 -0.15299214 0.001576553 -0.32154125 0.28283852 0.2767724 0.03952988
0.10406332 -0.27686262 -0.26163572 0.18192047 0.13945064 0.033817735 0.104029685 -0.3234931
-0.32666138 0.055148847 -0.23404942 -0.27432397 -0.22435665 -0.04123582 0.28427863 -0.28838834
0.19923794 0.22317582 0.25618264 -0.0052427757 -0.33825395 -0.083575286 0.015495456 0.08658647
-0.31270102 -0.06194852 -0.3282225 -0.24179998 -0.13107005 -0.18795973 0.2531194 -0.28389087
-0.07827155 -0.11003365 -0.3342191 -0.35609606 0.21058215 0.061661243 0.034121506 0.18533121
-0.048130654 0.11251821 -0.08740499 0.30296162 -0.01656266 0.048314087 -0.008663429 -0.028199418
-0.12201669 -0.29998046 -0.2875045 -0.2996596 -0.21696678 -0.3202856 -0.030104494 -0.326993
0.0073625688 -0.02047593 -0.29999667 -0.2825204 0.33467945 -0.031783663 0.05241243 0.18405078
0.067552924 0.17600757 -0.061256424 -0.047186155 0.2237993 -0.09019384 -0.3014725 0.23979637
-0.061723962 -0.28520226 0.03344186 -0.15120016 0.12020658 0.011180356 -0.19068629 -0.17084491
0.16497084 0.36589566 0.108049035 -0.072384976 0.12823164 -0.085125335 0.32356128 0.21167468
00000000: bae8 96bd 98a6 e93d 6660 5fbc 2b5a 28be
00000010: cf8a 483e 3059 a2be 8fc0 313e e1ab 41be
00000020: 72e8 423e 732c 91be 5a45 8dbe e8de 81be
00000030: fc3c 6b3e 2813 1c3e 9a55 683e f22f fc3c
00000040: 5f69 073e a615 1c3e 70a6 4f3d 9067 97be
00000050: d21e 903d 6f1c 4dbe 1523 c03d 09d0 08be
00000060: 5a60 0cbd 0244 a83e 09bf 4a3e 8596 60be
00000070: 9344 35bd 0549 123c 95be 1f3e 22c4 35be
00000080: d59d 0abe 2c51 803e 0d5f 443e 8423 6e3d
00000090: 65e7 823e 7e98 d7bd 2978 993d 5046 183e
000000a0: 23f1 84be bc35 35be da73 953d 5626 0cbe
000000b0: c116 223e 6aaf 913e f10b 05bc 1804 1d3d
000000c0: 300b a23e 3074 793e 9d7a 60be 765f 8a3e
000000d0: 2c97 613d 9c07 513d e099 d6bc bcd7 44bc
000000e0: 80d3 663d d6d1 3f3d 1b33 2e3e c7dc 89be
000000f0: fafe c53d b763 193e 628f 48be 19a5 a93e
00000100: 5942 ad3d e807 bcbd da11 1a3e 7733 63be
00000110: a234 8dbe 652f 22be 7b49 873e f5b3 60be
00000120: dd03 2f3e 6d21 423d 0cfb 8dbe 6131 36be
00000130: a744 5f3e 9374 64be f694 5a3e 454c 99bb
00000140: 20c6 8cbd b5df 98be 7a3a 653e 7934 95bd
00000150: 3cb5 a73d f2c7 c8bd 41ab 0bbe 8547 4c3d
00000160: 0376 42be d6de 213e 07b6 a53e fcff 3abe
00000170: c6a6 41be 6801 84bd 644a 95be 9699 e43d
00000180: 703f 1abe 63c4 353e d082 813e 7a1b 1f3e
00000190: 5ee7 74bc b646 6dbe 918d 87be ca73 10be
000001a0: 4fb5 a0be a157 35bd 7140 b23e 86d2 933d
000001b0: 4882 293e b5fe 603e 8f8a 63be 4c4b 45be
000001c0: c218 1c3e 5486 75be e414 f0bd cd68 763e
000001d0: 2bff 073e ef2d f5bc f5a0 943e 0a9d 05bd
000001e0: 1528 83be cbaa 403e 582c 873e a7a5 a33e
000001f0: a09c dbbc 558a d83c 1ca6 48be 0092 823e
00000200: 684d 98be 7dd0 a5be 14ea 3b3e 3ed6 113d
00000210: 0393 8f3e 347d 3d3e c945 b13d 861b 28be
00000220: ece3 21bd 89d8 543e 9b27 193e 4209 903e
00000230: 1858 1a3e e743 683e 2739 92be e141 763e
00000240: f55c 8abe bd7f 6f3e 9aaf 63be 89ba 053e
00000250: c7aa 983e 80f6 0e3d ac6f 43be e85c 6fbe
00000260: 059f 2d3e de74 81be fdda 38be e4f9 19be
00000270: 7ad5 773e 9f48 473e a5e8 823e 11d5 543e
00000280: e04e 9d3e e20b 2bbe f9a9 1cbe 57a4 ce3a
00000290: 0ea1 a4be 36d0 903e 1db5 8d3e 15ea 213d
000002a0: 261f d53d f0c0 8dbe 1ef5 85be 5c49 3a3e
000002b0: 26cc 0e3e 7784 0a3d 840d d53d e3a0 a5be
000002c0: 2940 a7be c2e3 613d a7aa 6fbe 3174 8cbe
000002d0: c0bd 65be e4e6 28bd f88c 913e a3a7 93be
000002e0: 0805 4c3e 3488 643e 5f2a 833e 97cb abbb
000002f0: 9f2f adbe 8529 abbd a7e0 7d3c 3f54 b13d
00000300: 591a a0be bbbd 7dbd c80c a8be 6a9a 77be
00000310: 3a37 06be 8478 40be de98 813e 255a 91be
00000320: d64c a0bd 5359 e1bd c41e abbe 3952 b6be
00000330: d9a2 573e 8090 7c3d fec2 0b3d 77c7 3d3e
00000340: a624 45bd f36f e63d 6301 b3bd c91d 9b3e
00000350: 6aae 87bc fee4 453d 0ef1 0dbc 7702 e7bc
00000360: e3e3 f9bd 0a97 99be ca33 93be fc6c 99be
00000370: 8a2c 5ebe 79fc a3be b39d f6bc a06b a7be
00000380: b441 f13b 23bd a7bc 2a99 99be 84a6 90be
00000390: 1b5b ab3e 962f 02bd 6bae 563d cf77 3c3e
000003a0: 3059 8a3d 543b 343e 04e8 7abd 4546 41bd
000003b0: a52b 653e 8cb7 b8bd 9b5a 9abe 2e8d 753e
000003c0: 44d2 7cbd 0806 92be 55fa 083d 37d4 1abe
000003d0: de2e f63d d02d 373c 4443 43be f8f1 2ebe
000003e0: 1eee 283e ad56 bb3e d048 dd3d 933e 94bd
000003f0: 284f 033e 3156 aebd d3a9 a53e 3fc1 583e

conv4.bias f4 [64]
-0.19052143 -0.32549968 0.1631161 -0.27698058 0.08939064 -0.315303 -0.2900529 -0.13609657
-0.21908343 -0.25210986 -0.0055777873 -0.19609256 -0.24703516 0.27944955 -0.23912115 0.16686524
0.25253287 -0.09810441 -0.29820082 -0.112417854 0.12290417 -0.32149526 -0.12995249 0.06103789
-0.20192644 0.081725284 0.009353872 -0.28202954 -0.122661196 0.023840336 -0.30742577 -0.24913618
-0.042718858 0.05354947 -0.27581903 0.009339455 0.2821117 0.28412724 0.19253333 0.32020897
0.07398653 -0.26798126 0.00085998076 0.09431881 0.17426214 0.22609162 -0.30969003 0.17308865
-0.008338938 0.1528168 0.28727695 -0.062018704 0.22165558 -0.0076453355 0.22132826 0.15089962
0.26754624 0.31147107 0.2072491 0.31807074 0.25735283 -0.08103929 -0.043720767 0.11502754
00000000: 0d18 43be e5a7 a6be e807 273e 66d0 8dbe
00000010: 7112 b73d 656f a1be d081 94be e65c 0bbe
00000020: 6857 60be 8b14 81be dfc5 b6bb 7dcc 48be
00000030: c9f6 7cbe 0314 8f3e 2ddc 74be b9de 2a3e
00000040: fd4b 813e f7ea c8bd c7ad 98be 553b e6bd
00000050: 2eb5 fb3d 079b a4be 4412 05be de02 7a3d
00000060: cec5 4ebe 965f a73d fc40 193c 2d66 90be
00000070: cb35 fbbd cf4c c33c e966 9dbe 8e1d 7fbe
00000080: f8f9 2ebd b056 5b3d 2738 8dbe 8304 193c
00000090: f270 903e 2079 913e 7527 453e 6ef2 a33e
000000a0: 4086 973d d734 89be 5570 613a 382a c13d
000000b0: c671 323e 9084 673e b18f 9ebe 273e 313e
000000c0: 0aa0 08bc 027c 1c3e f715 933e 5307 7ebd
000000d0: aef9 623e b985 fabb e0a3 623e 6e85 1a3e
000000e0: d2fb 883e 2379 9f3e 1c39 543e 2bda a23e
000000f0: c0c3 833e edf7 a5bd 8c14 33bd 8f93 eb3d
