models/trained_models/dscnn_mfcc/model_acc_39.0625.pth (torch_old, 110035 bytes, 56 tensors)

conv1.weight f4 [64, 1, 10, 4]
000000 4f 02 24 3e 7c f0 ae bd ff 78 00 be 2c 46 9a bd
       0.16016506 -0.085419625 -0.12546156 -0.075329155
000010 23 01 d0 3d 26 22 93 bd 35 02 88 3d a8 fa 8b 3d
       0.10156467 -0.07184248 0.06641046 0.06834918
000020 32 93 20 3e 3b 9d b5 3d a2 d6 1b be 48 6e 1a bd
       0.1568115 0.0886788 -0.15218595 -0.03770283
000030 78 86 da ba 85 c0 80 bd 89 bb d7 3d 62 c6 6b bd
       -0.0016672155 -0.0628672 0.10533816 -0.05756224
000040 42 ef 95 3d 9b 28 36 be ae 26 62 bd 04 e4 93 3d
       0.073210254 -0.17788927 -0.05521267 0.07221225
000050 4b e4 19 3d c4 3b ce bc 2d b2 d5 bd 18 4a e4 3c
       0.037571233 -0.025174983 -0.10434375 0.027867362
000060 cf 95 05 be b3 21 b8 bd 6b 34 ec bd d8 d6 dd 3d
       -0.13045429 -0.089908026 -0.115334354 0.10831994
000070 7c 23 0c 3e fd 62 22 bd 26 05 b5 3d 13 8d b8 3c
       0.13685411 -0.039645184 0.088388726 0.022528207
000080 9b 36 ac 3d f3 66 11 be 1d b5 cd bd 2b 18 13 3e
       0.08408853 -0.14199428 -0.1004431 0.14364688
000090 45 9a a2 bc ae 23 c3 bc 0f b3 11 3e f3 cf cd bd
       -0.019848952 -0.023820724 0.14228462 -0.10049429
0000a0 7c d1 a6 3d 9a 12 2a 3e 0e 22 10 3e c6 b3 57 3d
       0.08145425 0.16608658 0.14075491 0.05266168
0000b0 97 f6 85 3d 69 97 c1 bd 4c 55 c1 bc a5 61 2c 3e
       0.06541174 -0.09452707 -0.023600243 0.16834123
0000c0 23 a5 61 bc 71 2a bf bd 46 b5 48 3c 6e 77 04 3d
       -0.013772282 -0.09334267 0.01225025 0.03234046
0000d0 b7 ed 85 bb fd fd 2f bd f8 4f 2b be 34 23 20 3e
       -0.0040871757 -0.04296683 -0.16729724 0.15638429
0000e0 ba 6e dd bb c3 55 c4 3d c4 55 b9 3d 9f d3 e4 bd
       -0.0067575844 0.0958667 0.090495616 -0.11173176
0000f0 42 e1 9f 3c a0 38 89 3d d7 2c e7 3d a6 31 d8 3b
       0.019516591 0.067002535 0.112878494 0.0065977154
000100 aa 56 af bd 7a fd 7b bd b0 be 2c 3e da 01 50 bd
       -0.08561452 -0.06152103 0.16869617 -0.050783016
000110 88 ef 44 bd eb b4 3e bd d9 b6 a0 3d ea 4f 0e 3e
       -0.048079997 -0.046559256 0.078473754 0.13897672
000120 aa f9 85 3d 90 3d 8b 3d f3 61 26 bd d4 82 e5 3d
       0.0654176 0.067988515 -0.040620755 0.11206594
000130 26 20 22 3c 6f b4 0f be 55 3a 25 3d e6 65 86 bd
       0.00989536 -0.14033674 0.040338833 -0.06562404
000140 63 1d d6 3c 49 3f d6 3d 47 fd d5 bd 95 6f 0e be
       0.02613706 0.104612894 -0.104486994 -0.13909753
000150 f7 44 01 be 3e df 34 3d 31 28 28 be ce 98 f1 3d
       -0.12623964 0.044158213 -0.16421582 0.11796723
000160 02 c1 65 bc c4 c7 14 be 87 f7 1e 3d aa f8 15 3c
       -0.014023067 -0.1452933 0.03881028 0.009153524
000170 80 c0 8c 3d 4d a7 1a be 93 1c 43 bc c5 ac 9b bc
       0.06872654 -0.15102883 -0.011908668 -0.019003281
000180 56 14 99 bc 25 59 49 be 16 d1 1f be b6 f3 b4 3d
       -0.018686455 -0.19662912 -0.15607104 0.08835547
000190 a4 b1 4e bd 1b 6b 1b be de 99 70 3d a9 1d ee bd
       -0.05046238 -0.15177576 0.05874049 -0.11626751
0001a0 a4 18 0a be 0f 6d 57 3d 80 96 02 be 09 c1 20 3e
       -0.13485962 0.05259424 -0.12752724 0.15698637
0001b0 d9 95 d5 bd 75 3b 0f be 14 fa 2d bd 24 34 55 bd
       -0.10428972 -0.13987525 -0.04247482 -0.05205168
0001c0 42 00 8f bc 0b 96 9c bc c9 b6 29 be 19 fe 36 bd
       -0.017456178 -0.019114515 -0.16573633 -0.04467592
0001d0 f1 08 10 3e 35 f0 12 bd 30 b8 ad bd bd c9 e3 bd
       0.14065911 -0.03587361 -0.084823966 -0.11122463
0001e0 8d 08 4f bd c6 1a 3b 3d 30 c0 a4 bd 9e 26 80 3d
       -0.050545264 0.04567983 -0.08044469 0.06257366
0001f0 b8 18 d2 bd 53 59 c7 3d 25 bc d5 bd 2e 62 fc 3d
       -0.10258621 0.09733834 -0.10436276 0.12323414
000200 02 d4 1c 3e 6e e8 f3 3d 0c fd 70 bd c0 9c 87 3c
       0.1531525 0.11909567 -0.058835074 0.016554236
000210 45 5a dc 3d 28 ff f9 3d 70 57 93 bd d6 b3 34 be
       0.10759405 0.1220687 -0.07194412 -0.17646727
000220 25 e8 b8 3d 01 c4 d8 bd 0c 49 3a be c0 02 26 be
       0.09028653 -0.1058426 -0.18191928 -0.16211987
000230 90 b1 67 bd 1f 53 49 bd 20 60 3e be 66 20 97 3d
       -0.05656582 -0.049151536 -0.18591356 0.073792264
000240 7f f6 8e bd 8a 40 b0 3d 27 80 b6 3d da 7b 14 be
       -0.06980609 0.0860606 0.08911162 -0.1450037
000250 87 e1 0c 3e 06 66 98 bd f6 e9 4c bd c9 03 1f be
       0.13757907 -0.074413344 -0.05002781 -0.15528788
000260 24 58 62 ba f9 32 b7 bd df 61 34 3e 86 e1 ca bd
       -0.000863435 -0.08945269 0.1761546 -0.099062964
000270 70 28 e5 bd 7a 4b 5d bd b2 4b 20 3e b0 a7 97 3c
       -0.111893535 -0.05402706 0.15653875 0.018512577
000280 3b ae 40 3c b9 a9 94 3d c8 7b 5e 3d 58 6c 0b be
       0.01176029 0.072589345 0.054317266 -0.13615549
000290 2f be 8b 3c 3d 59 c5 3d 15 3e 32 3c ae e3 1c bd
       0.01705846 0.096361615 0.010879059 -0.03830307
0002a0 7f 7a 12 3e 39 08 be 3d 73 d7 3f 3c cd 43 c1 3d
       0.14304541 0.09278912 0.011709082 0.0943676
0002b0 1b 63 89 bc 81 8c 2e bd 0a d7 a2 3d 55 18 3f 3c
       -0.01677089 -0.042614464 0.07951172 0.011663516
0002c0 a5 14 27 be 6d ab 88 3d a4 e6 30 be ee 47 f0 3d
       -0.16316469 0.06673322 -0.17275482 0.117324695
0002d0 90 8e 15 be f7 5f 33 be 86 ff a6 bd 92 f6 83 bd
       -0.14605165 -0.17517076 -0.08154206 -0.06443514
0002e0 de 08 8c bc f1 ec 62 bd 3e 17 85 3d 6a 31 b7 bd
       -0.017094072 -0.055401746 0.06498574 -0.08944972
0002f0 bc 4d c5 bd 4d ee 12 be 5e a3 1e 3e 1b 79 48 3d
       -0.09633967 -0.14348717 0.15492007 0.04894362
000300 0f 60 57 3d 1a bf fa 3d 4e d3 e0 bd 81 f8 aa bd
       0.052581843 0.12243481 -0.10977803 -0.083481796
000310 0b f8 e7 bd 0c b7 cd 3d 11 3d 6d 3d f8 bd ae 3b
       -0.11326607 0.10044679 0.057919566 0.0053327046
000320 f8 6e 10 be 5d f0 b6 bc f4 50 bb 3d a5 fd 4d 3d
       -0.14104831 -0.022331411 0.091463 0.050290722
000330 bd 84 1c bd 8d 0c d1 bd 1b fe 2c be da 30 c0 3d
       -0.038212527 -0.10207472 -0.16893809 0.09384318
000340 f0 ed 8f 3c 74 47 1f be ef c7 d5 bd a3 e0 09 3e
       0.017569512 -0.15554601 -0.10438525 0.13464598
000350 a1 00 ce bc 9a 63 36 bb 4e 32 9d bd 39 e1 a7 3d
       -0.025146784 -0.0027830363 -0.076756105 0.08197255
000360 83 03 f9 3d 8d f5 de bd 67 61 e3 3d 51 97 fe bd
       0.12158873 -0.10886679 0.111025624 -0.12431205
000370 6e 12 1d 3e f0 cd 34 3d 98 7b e2 bd fd 68 1f bd
       0.15339062 0.04414171 -0.1105873 -0.038918484
000380 d5 3a 67 3d f7 a9 e3 bd e2 75 4b bd b3 8f 20 3e
       0.05645259 -0.111164026 -0.04967297 0.15679817
000390 f9 12 96 3d c4 e9 df 3d ab e1 a4 bd df 5e 3a 3e
       0.073278375 0.10933259 -0.08050855 0.18200253
0003a0 5c c2 2f 3d bd a5 96 3d fb 33 b3 bc ae d9 07 3c
       0.042909965 0.07355831 -0.021875372 0.008291645
0003b0 23 36 2e 3d a6 03 fd bd a8 ab e6 bd 61 01 1e 3d
       0.042532098 -0.123542115 -0.112632096 0.038575534
0003c0 cf aa c0 3d 51 8e cf 3c 14 32 4a 3e 96 2c 02 be
       0.09407579 0.025336416 0.19745666 -0.1271232
0003d0 11 c5 ae 3d 29 b7 47 3d f8 cd f8 bc f0 97 ff 3d
       0.08533681 0.04875866 -0.030371651 0.12480152
0003e0 d1 e3 1c bc b3 26 58 3d 39 58 f7 bd 10 82 1b be
       -0.0095758 0.05277128 -0.12077374 -0.15186334
0003f0 7b da d9 bd 26 71 b6 bd 8d 6a d9 3c 72 a6 02 3d
       -0.10637375 -0.089083 0.026540065 0.031897016

conv1.bias f4 [64]
000000 5e 7c 49 3d 21 5d d4 39 80 7f 0d bd a0 61 a4 bd
       0.04919087 0.00040505177 -0.03454542 -0.08026433
000010 2c 34 1e 3d 5d a6 ff 3d be a0 17 be 49 3e 63 bd
       0.038623974 0.12482903 -0.14807412 -0.05547932
000020 2a c3 01 3e 24 aa 10 bd ae 0e 10 be db 29 53 3d
       0.12672105 -0.03531851 -0.140681 0.05155359
000030 62 8a 2b bd 9e b1 1f 3e 03 50 4b bd 02 16 2a 3d
       -0.04188002 0.155951 -0.049636852 0.041524895
000040 d1 bd 8c bd f9 89 76 3d 6c cb 95 3d 16 a9 14 3e
       -0.06872142 0.060190175 0.0731419 0.14517626
000050 31 78 dd 3d 05 35 19 be 62 ed b6 3d c1 97 fd bc
       0.1081394 -0.14961632 0.08931996 -0.030956151
000060 12 02 5f bd 76 bb 28 bd 1f ad 0e 3e 23 5e 5b bc
       -0.054445334 -0.0411944 0.13933228 -0.013389143
000070 90 20 01 3e 89 74 5c bd 58 8c 0f be 15 17 93 3d
       0.12610078 -0.053822074 -0.1401838 0.07182137
000080 6c fb 19 3e 3a 23 79 bd 6d b0 13 be d6 56 0f 3c
       0.15037316 -0.06082461 -0.1442277 0.008748731
000090 36 dd 07 be e8 84 1e bd b3 9b 5a bd 86 6d 9c 3d
       -0.13267979 -0.038700968 -0.053371143 0.076380774
0000a0 88 f5 16 be da b7 d5 3d e3 3c 45 bd df c1 be 3d
       -0.147421 0.104354575 -0.04815377 0.09314322
0000b0 57 33 31 3d 74 5a e8 bd ae b3 1d 3e 80 ef 8b bc
       0.043261852 -0.113453776 0.15400574 -0.017081976
0000c0 a2 0e 8e 3d d0 4a e7 3c e9 cd 3e 3c 01 0d 8f 3d
       0.06936385 0.028233916 0.0116457725 0.06984902
0000d0 0e 66 10 bd e3 f5 b9 3d f6 78 49 bd 99 f4 d1 3d
       -0.035253577 0.09080102 -0.049187623 0.102517314
0000e0 08 79 e9 3d 69 fe 9a 3d c0 24 79 3d f8 19 0e 3e
       0.11400038 0.07568056 0.060826063 0.13877094
0000f0 99 4c 58 bd cb d7 52 3d 30 70 d5 3d 8d 28 48 3d
       -0.052807424 0.051475327 0.10421789 0.048866797

bn1.weight f4 [64]
000000 60 f6 79 3f ed 85 7c 3f a2 7f 7d 3f 68 bc 80 3f
       0.97641563 0.98641855 0.9902288 1.0057497
000010 3f af 77 3f 39 99 76 3f 1f 6d 74 3f 91 d7 83 3f
       0.9675178 0.9632755 0.95479006 1.0300161
000020 fa a2 84 3f 61 d0 79 3f 08 3e 7d 3f ea 17 83 3f
       1.0362236 0.97583586 0.9892278 1.0241673
000030 de fc 82 3f d4 a7 81 3f e2 1d 77 3f 03 6b 7a 3f
       1.0233419 1.0129342 0.9652997 0.97819537
000040 ba 55 83 3f 27 c0 7c 3f c0 c3 84 3f e1 2d 81 3f
       1.0260537 0.987307 1.0372238 1.0092126
000050 0f 69 84 3f 9f 10 80 3f 72 b9 83 3f 82 bf 82 3f
       1.0344561 1.0005072 1.0290968 1.0214694
000060 17 45 7d 3f da 2e 7a 3f 87 ec 7d 3f 88 6c 82 3f
       0.9893355 0.9772774 0.9918904 1.0189371
000070 ec 17 82 3f b9 d6 8a 3f d4 e4 82 3f a6 34 86 3f
       1.016355 1.0846778 1.0226083 1.0484817
000080 69 9c 7e 3f c3 e5 83 3f 84 c6 80 3f b6 fc 77 3f
       0.9945741 1.0304493 1.0060582 0.9686998
000090 2b 21 85 3f 75 eb 81 3f dd 8f 82 3f 27 69 83 3f
       1.0400747 1.0149981 1.0200154 1.0266465
0000a0 0b 4f 83 3f 7c 30 7d 3f 77 2b 80 3f 9e f6 82 3f
       1.0258497 0.98902106 1.0013264 1.0231512
0000b0 0c 88 7b 3f d9 6b 82 3f b1 39 7b 3f ae aa 80 3f
       0.98254466 1.0189162 0.98134905 1.0052087
0000c0 2d da 72 3f 56 f8 84 3f b2 60 6d 3f 54 50 89 3f
       0.9486416 1.0388286 0.9272567 1.0727639
0000d0 25 54 70 3f a8 c2 84 3f a6 a3 82 3f c7 4c 83 3f
       0.93878394 1.0371904 1.0206192 1.0257806
0000e0 9d 40 82 3f ad 86 82 3f 9a fe 81 3f 2f f9 82 3f
       1.0175968 1.019735 1.0155823 1.0232295
0000f0 c6 3b 81 3f 4e 8a 81 3f e3 53 7e 3f 49 5a 80 3f
       1.0096366 1.0120332 0.9934675 1.0027553

bn1.bias f4 [64]
000000 ab 6e f9 bc 15 26 f1 3c a5 2d b7 bc ae 43 aa bc
       -0.030448278 0.029437104 -0.022360632 -0.020784225
000010 16 59 0f 3d 88 66 31 bd fe a9 38 bd 63 cf 09 bc
       0.03499707 -0.043310672 -0.045083992 -0.008411261
000020 83 d5 ae bb 5c a1 14 bd e3 30 e7 bc 35 40 3c bc
       -0.005335511 -0.036286697 -0.028221553 -0.0114899175
000030 48 62 05 bc 53 f7 e8 bb 4c a9 3d bd 37 d0 f4 3c
       -0.008141108 -0.0071095615 -0.046304032 0.02988444
000040 4c 64 ad bc f3 d7 da bc fe c1 94 bb 12 68 0b 3c
       -0.02116599 -0.0267143 -0.0045397272 0.008508699
000050 97 df cf 3b 56 40 44 bc 57 3b 16 3c 65 33 52 bc
       0.0063437927 -0.0119782295 0.009169421 -0.012829636
000060 97 06 01 bd b0 42 35 bd ea f1 d0 bc 59 ea e7 bb
       -0.031500425 -0.04425305 -0.025505979 -0.007077497
000070 ba 9f cd bb 26 fd 50 bb 04 89 4c bc 56 42 0b bb
       -0.0062751444 -0.003188917 -0.012483839 -0.0021249256
000080 c8 2c be bc 10 78 f6 3a e6 dd 31 3c a3 b8 27 bd
       -0.023214713 0.0018804092 0.010856127 -0.040947568
000090 75 12 3f 3c db 90 81 bc 3b 1c 83 bc c5 0e e2 bb
       0.011662115 -0.015816143 -0.016004672 -0.0068987333
0000a0 c9 b8 ae bb a3 f9 ab 3c 52 c1 a4 bc 0c d6 b3 ba
       -0.0053320867 0.02099306 -0.020111714 -0.0013720407
0000b0 95 80 e7 bc 6c e7 11 bc c3 46 08 3d 33 29 07 39
       -0.028259555 -0.008905273 0.03327061 0.00012889951
0000c0 10 ef 88 bd 2f d8 0d bc de 4a 9e bd 9f 87 8a 39
       -0.066862226 -0.008657499 -0.077291235 0.00026422457
0000d0 11 4f 7f bd a7 f4 8e bb 20 91 f8 3b b6 9c 80 b9
       -0.062331263 -0.004362661 0.0075856596 -0.0002453082
0000e0 d2 21 59 bc 2a be 36 3c 77 17 c1 bc d8 4c 9c bb
       -0.013252692 0.011153737 -0.02357076 -0.0047699027
0000f0 d0 af cb bc 62 9a 59 bc d3 99 fa bc 76 fa 2b bc
       -0.024864107 -0.013281437 -0.030590927 -0.010496726

bn1.running_mean f4 [64]
000000 7f 96 ea c1 20 fd b1 42 77 3f 46 c3 18 8c 80 c2
       -29.323484 88.994385 -198.24791 -64.27362
000010 ec 41 d0 c1 df b6 91 c1 a5 3b 44 c2 4b 77 7f 41
       -26.032188 -18.214293 -49.058247 15.966624
000020 c5 ef de c1 3d 0c b0 42 9d ce 1a c2 f4 a2 e2 c1
       -27.867075 88.0239 -38.70177 -28.329567
000030 10 36 79 42 11 18 3b c3 13 b9 d2 c0 60 90 94 c1
       62.302795 -187.09401 -6.585092 -18.570496
000040 71 e7 14 43 c0 17 c1 42 fa 96 fb 41 e1 7b 4e c2
       148.90407 96.54639 31.448719 -51.620975
000050 4a 67 d0 41 0f 61 95 42 44 10 fd c2 a7 d7 cf c1
       26.050434 74.68957 -126.53177 -25.980299
000060 fe ff a0 42 68 6e b6 40 01 0e 36 42 7d 5b 89 c2
       80.499985 5.7009773 45.513676 -68.67869
000070 bc ee 82 c2 9d 0f fe c1 13 be 49 42 9e 92 e4 bf
       -65.46628 -31.757624 50.43562 -1.7857244
000080 83 d2 66 42 fc 2f 8c 42 af 4a e8 c1 f3 c8 8f c2
       57.705578 70.09372 -29.036467 -71.89248
000090 04 1a b9 c2 1b 91 35 c2 c2 e8 ea 41 fd 25 d3 41
       -92.55081 -45.391705 29.363651 26.393549
0000a0 c9 50 1b c2 61 e2 9c c1 ac 40 53 42 ff 5e 99 42
       -38.82889 -19.610537 52.813156 76.68554
0000b0 cd 18 17 42 47 e7 94 c2 aa ee 5e 41 30 ad 82 c2
       37.77422 -74.45171 13.933268 -65.33826
0000c0 43 2c ad 42 4b 3d 48 41 36 ab 8e c2 98 11 81 c1
       86.58645 12.514964 -71.3344 -16.13359
0000d0 ff 67 a5 42 da c1 e6 42 65 d7 ec c1 62 1e 53 40
       82.70312 115.37862 -29.605173 3.2987294
0000e0 99 8a ea 41 b0 c4 82 c2 16 1f 61 42 f0 a4 ef c2
       29.317675 -65.384155 56.280357 -119.82214
0000f0 18 25 85 c2 05 d5 f6 c2 32 bf 84 c2 84 06 c2 41
       -66.57245 -123.41605 -66.37343 24.253181

bn1.running_var f4 [64]
000000 07 16 15 44 20 d0 35 44 c6 c2 88 44 56 cb 25 44
       596.3442 727.25195 1094.0867 663.1771
000010 a0 4b cf 43 f5 4c 81 44 04 89 80 44 72 2b 6f 44
       414.59082 1034.4049 1028.2817 956.67883
000020 f4 77 8f 44 93 48 a2 44 22 75 dd 43 98 82 23 43
       1147.7485 1298.268 442.9151 163.51013
000030 67 c7 0d 44 8d 2e 5f 44 13 82 22 44 bf 60 09 44
       567.11566 892.72736 650.0324 549.51166
000040 f9 d6 6e 44 de 45 eb 43 ae 8a 93 43 68 93 20 45
       955.35895 470.54584 295.08344 2569.213
000050 19 b4 f8 43 59 c8 58 44 9e 3e 0e 45 13 1f 4c 44
       497.407 867.13043 2275.9136 816.48553
000060 ba a2 1a 44 86 81 f1 42 09 87 10 44 10 8d cd 44
       618.5426 120.752975 578.1099 1644.4082
000070 98 31 3c 43 71 a5 e2 43 88 d6 fe 43 89 86 22 44
       188.19373 453.2925 509.67603 650.1021
000080 63 41 00 45 75 56 97 43 a8 cc 15 44 bb 4f 4b 43
       2052.0867 302.67545 599.19775 203.31145
000090 21 ac 3b 44 27 12 49 44 5a 50 1c 44 7b f1 7a 43
       750.6895 804.2836 625.2555 250.94328
0000a0 f8 a7 68 43 63 90 d7 42 40 41 e4 43 68 55 7e 44
       232.65613 107.782005 456.50977 1017.3345
0000b0 db 99 32 43 1a 62 f9 43 69 fe 8f 44 fc 4f 7d 44
       178.601 498.76642 1151.9503 1013.24976
0000c0 80 d5 7f 44 0a f3 30 44 21 9d 20 44 04 14 85 44
       1023.33594 707.7975 642.45514 1064.6255
0000d0 55 fb 97 43 a0 62 e0 44 70 a2 db 43 8e 11 c2 43
       303.96353 1795.082 439.26904 388.13715
0000e0 50 80 62 44 05 33 a8 44 aa 88 89 44 fd d4 c1 44
       906.0049 1345.5944 1100.2708 1550.6559
0000f0 15 1d d8 43 84 ee 21 45 55 7a 2c 44 f1 c3 f9 43
       432.2272 2590.9072 689.91144 499.5308

conv2.weight f4 [64, 1, 3, 3]
000000 00 4b b1 3e e4 b2 b1 bd 1e 69 a2 bc 13 8a 0d bd
       0.34627533 -0.08676699 -0.019825514 -0.034555506
000010 ca d4 9d be eb 60 82 be 44 d5 82 3e 99 97 4d 3d
       -0.30826408 -0.25464568 0.25553334 0.050193403
000020 b4 58 9d 3e 5a 8c 93 be b8 3e 07 be 7a e1 0c 3e
       0.30731738 -0.28818017 -0.13207519 0.13757887
000030 4c 4f 94 3e bb 2e de 3c 87 f1 bb 3d 68 67 97 3e
       0.2896675 0.027121892 0.09176927 0.2957108
000040 48 2a 95 3e 20 12 10 3e af df 87 be cc 22 98 be
       0.2913382 0.14069414 -0.26537845 -0.29714048
000050 75 8e f8 bd 10 df 69 3e f1 ff e0 3d 3f 72 98 be
       -0.121365465 0.22838998 0.10986317 -0.29774663
000060 2b 3b 80 be 26 0b 5b 3d bd 62 a7 be 7d 6f 79 3d
       -0.25045142 0.05347743 -0.3269252 0.06089734
000070 2c 4a 90 3e 55 15 22 3c 83 06 ac be 3e 5b 19 3d
       0.2818159 0.009892781 -0.33598718 0.03744053
000080 7d 7e 83 3e f1 de 98 3e 2a 07 40 3e a0 d0 2e be
       0.2568244 0.2985759 0.18752733 -0.17071772
000090 86 18 a7 bd 63 ab 8e 3e d3 0d 43 3d e6 63 a1 3e
       -0.08158974 0.27865133 0.047620606 0.3152153
0000a0 b9 7b 89 3e 08 4d 07 3d 6a 52 9d bc 61 38 65 3e
       0.26852205 0.033032447 -0.019204337 0.22384788
0000b0 f0 ed 84 be 2a 37 7f bd 8f 63 85 3e 5d fd 9b 3d
       -0.25962782 -0.062308468 0.2605252 0.076166846
0000c0 8d da ec bc 73 6d 4b 3e 79 a5 a3 bd 57 67 36 be
       -0.028912807 0.1986597 -0.07990546 -0.17812859
0000d0 1d 61 4a 3e cc 7a 85 3e ec ff 08 bd 74 c7 d2 bd
       0.19763608 0.2607025 -0.03344719 -0.10291949
0000e0 d0 6c 20 be 26 89 fc 3c 8a fd 7c be 5c 6d a1 3e
       -0.15666509 0.030827116 -0.24706092 0.31528747
0000f0 14 e1 93 be 2c 7f a9 be 43 68 9f 3e c5 65 de bd
       -0.28882658 -0.33104837 0.31134233 -0.10859255
000100 ea 35 0a be ad ab a3 bd 19 26 22 3e 29 11 90 bd
       -0.13497129 -0.07991729 0.15834846 -0.07034523
000110 21 0f a3 bc 0e 61 bb bd aa ae 94 be 4f d5 68 3e
       -0.019904675 -0.09149371 -0.29039508 0.22737621
000120 bb b4 c7 3d b9 c3 81 3d 5e 40 a8 be bf 70 8c 3e
       0.097512685 0.06336159 -0.32861608 0.27429768
000130 68 61 99 be 28 c7 b3 be 50 af 53 be 5c 58 b8 3e
       -0.29957128 -0.35112882 -0.20672345 0.36004913
000140 d9 30 9a be 6c ff b5 bd 85 77 9f bc fb 29 3a be
       -0.30115393 -0.088866085 -0.019466171 -0.18180077
000150 8d 81 b4 3e 4b 77 a4 3d e1 69 89 3e 09 4e 50 3e
       0.3525509 0.08030566 0.26838592 0.20342268
000160 20 07 d4 3a 04 7b c6 3d d3 80 7f 3e 5e 8c 4f 3e
       0.001617644 0.09691432 0.24951486 0.2026839
000170 1a 55 72 be c4 c6 36 be 1f 6a 67 be 4f 4f 5b 3c
       -0.23665276 -0.1784926 -0.22599076 0.013385608
000180 b3 64 27 3e 2e 05 08 be 8f ee 72 3e 15 5c 1b 3e
       0.16347007 -0.13283226 0.23723815 0.15171845
000190 86 b1 c5 bd 6b 31 2e be 10 05 f1 3d ba df f1 3d
       -0.096530005 -0.17011039 0.11768544 0.118102506
0001a0 63 c0 2b bd 27 12 53 3c f7 16 b1 bd 95 dd 54 3e
       -0.04193152 0.012882746 -0.08646958 0.20787652
0001b0 5d bb 0d be d8 90 27 bd 27 3a ec bc 55 e2 70 be
       -0.13841005 -0.04090962 -0.028836323 -0.23523839
0001c0 b1 4c d7 3d 54 15 13 3e 4b e3 45 be a3 9b 07 3d
       0.105126746 0.14363605 -0.19324987 0.03310741
0001d0 90 54 31 bc 2c 63 ce 3d 34 f5 74 3e b5 b8 84 3d
       -0.010823384 0.10077509 0.23921663 0.064805426
0001e0 61 95 8f be b7 89 88 be 81 95 45 3e f0 74 09 3e
       -0.28043655 -0.26667568 0.19295312 0.13423514
0001f0 5c 6e 64 3e b8 78 3b be a5 a8 8a 3d 5d 31 9e 3d
       0.22307724 -0.1830777 0.06770448 0.07724259
000200 85 02 92 be 6f 84 44 be bb 53 c4 bd 3a 2f a0 be
       -0.28517547 -0.19191144 -0.09586283 -0.3128603
000210 5f c4 34 bd ab d0 36 bc dc 70 68 be fe a9 ac be
       -0.044132587 -0.011158149 -0.22699302 -0.33723444
000220 67 ea 26 be d0 6d 32 3e 70 a6 6a bd d8 09 90 bd
       -0.16300355 0.17424703 -0.057287633 -0.070331275
000230 03 0c 75 3e 52 6c 2e 3e 6b f3 74 3d 83 bb 75 3e
       0.23930363 0.17033508 0.059802454 0.23997311
000240 4e 11 ab bd 69 e7 6b 3e 8c 84 3d be 07 ea 0b be
       -0.0835291 0.23037495 -0.18507594 -0.13663493
000250 26 ae c6 3d 06 4b 7f 3e 61 ac 45 3e 17 e5 73 be
       0.09701185 0.24930963 0.19304039 -0.2381786
000260 67 99 24 38 c5 ac 4c 3e c4 11 9e be 13 a4 51 be
       3.9243514e-05 0.19987781 -0.3087293 -0.20472746
000270 bd d5 57 be 63 7f 3d be b1 ae 40 3d 84 e3 53 be
       -0.21077628 -0.18505625 0.0470416 -0.20692259
000280 66 42 d3 bd 64 6d 53 be 61 3c 24 be fc 0f 40 3e
       -0.10315399 -0.20647198 -0.16038658 0.18756098
000290 f8 2f 3a be 64 07 ab be c6 9a 3d 3e 73 ab f3 bd
       -0.18182361 -0.33404076 0.18516073 -0.11897936
0002a0 c8 9b 91 3e a9 01 9c 3e dc d6 5a 3e 6e 75 4f bd
       0.28439164 0.30470017 0.21371025 -0.0506491
0002b0 c9 93 94 3e 76 ee 0d 3b 36 51 d1 3d 12 1d 94 be
       0.29019 0.0021657026 0.10220568 -0.2892843
0002c0 33 bd 76 bd 38 59 48 be 3b 1c 9a 3e 04 42 15 bd
       -0.06023903 -0.19565284 0.30099663 -0.03643991
0002d0 94 e9 e3 3d a4 5f 4d 3d cb f0 32 be f2 40 15 be
       0.11128536 0.050140038 -0.17474668 -0.14575556
0002e0 72 91 98 3e f2 29 e4 3d 29 0f 2c 3e df b9 4d 3d
       0.29798466 0.11140813 0.16802658 0.05022609
0002f0 c2 b1 85 be 24 00 86 3e c5 25 98 be da 9b 9e be
       -0.2611218 0.26171982 -0.29716316 -0.3097828
000300 c8 a9 1a 3e 2a 64 78 be c5 ba 71 3c 10 dc 17 3e
       0.15103829 -0.2425696 0.014754002 0.14830041
000310 ae 39 10 be af 49 3a 3e 5d fc 15 be 03 63 52 be
       -0.14084503 0.1819217 -0.1464705 -0.20545582
000320 61 3f 81 bd 78 bd a8 3e 2d 7a 06 3e 37 a8 3c be
       -0.06310917 0.32957053 0.13132544 -0.18423544
000330 6c 00 42 3e 46 35 24 bd 37 43 0b be 69 dc 8f bc
       0.18945473 -0.040089868 -0.13599859 -0.017561154
000340 77 42 27 3d 5e 7f ba 3c f4 54 7a 3d 9b f3 77 be
       0.04083487 0.022765812 0.061116174 -0.24214022
000350 04 0d a1 3d 3c 77 fe bd e2 bf 9a bd 90 7d 48 be
       0.07863811 -0.12425086 -0.0755613 -0.19579148
000360 7d 15 28 be c3 0a 75 3e 34 7d 58 be 3b fa f7 bd
       -0.16414447 0.23929887 -0.21141511 -0.121082745
000370 72 86 7d be 65 59 9d be c7 d1 01 3e 36 3d 9e 3e
       -0.24758318 -0.30732265 0.1267768 0.30906075
000380 a1 03 c0 be 4e 50 9c 3e 7a 77 70 3e b5 7f 00 3e
       -0.3750277 0.30530018 0.23483077 0.12548716
000390 99 5d d0 bd 92 29 f9 bc 7c c6 7d 3e 0e 1c e0 3d
       -0.10174102 -0.03041533 0.24782747 0.10942851
0003a0 da 2c d2 bd 1b b6 42 3e cb 47 4d be a5 60 4d 3e
       -0.10262461 0.1901478 -0.20046918 0.20056398
0003b0 9a 51 94 3e 7a e2 67 be da 35 8d 3c 11 2c 5c 3e
       0.28968507 -0.22644988 0.017237592 0.21501185
0003c0 1b 38 61 be 19 c0 36 3e 25 7f 06 be b3 b5 06 bc
       -0.21994059 0.17846717 -0.1313444 -0.008222031
0003d0 a9 de 99 3e 98 37 f2 3d ff 59 40 be 3b 93 ce 3c
       0.3005269 0.1182701 -0.18784331 0.02521669
0003e0 95 14 53 3d af e1 6d be 12 73 d8 3c f6 43 a0 3e
       0.0515333 -0.23230623 0.026422057 0.3130185
0003f0 f1 58 82 be 34 68 34 bd f8 0b d8 3c 05 15 2e be
       -0.25458482 -0.04404469 0.026372895 -0.17000206

conv2.bias f4 [64]
000000 b2 70 5a 3d 7e f6 48 3e f7 62 82 be 05 fd 9e bd
       0.05333013 0.1962528 -0.2546613 -0.077631034
000010 36 24 9b be c6 85 29 be 91 82 3e be 9a a5 65 be
       -0.30301064 -0.16554937 -0.18604495 -0.22426453
000020 f0 e5 45 bd c1 ef d3 bc 9c 9c 8a be 6c 1f 5c 3e
       -0.04831499 -0.02587116 -0.27072608 0.21496361
000030 dc fd 3a be 8b 48 49 be 1d e6 0c 3e 3a bf 0b 3e
       -0.18260902 -0.19656579 0.13759656 0.13647166
000040 de 48 32 3e bd a0 a8 3d 13 b0 8e 3d 34 48 11 be
       0.17410609 0.082337834 0.06967177 -0.141877
000050 3a 4f 66 bd 0f 90 2d 3e 31 28 0a be 37 09 47 be
       -0.0562279 0.16949485 -0.13491894 -0.19437109
000060 f0 93 a8 be 67 b6 79 3e c5 2a 76 be c9 f0 5d be
       -0.32925367 0.24385987 -0.24039753 -0.21673883
000070 88 ce 28 3e cc 63 af bd eb 08 d0 3d eb 36 72 3e
       0.16485035 -0.085639566 0.10157951 0.23653762
000080 74 4b 19 be 43 49 44 bd 91 2b f8 bd 78 8f 6d be
       -0.1497019 -0.04792143 -0.12117685 -0.2319926
000090 96 16 c5 bd 7f 0a 81 bd f0 d1 20 be 27 44 91 bd
       -0.096234486 -0.0630083 -0.15705085 -0.07093077
0000a0 69 2c 7d 3e 61 0f 67 3e 99 d7 34 3e c2 b4 e2 3c
       0.24723972 0.2256446 0.17660369 0.027674083
0000b0 f2 c2 83 3e 94 a7 77 be cf 7e 31 bd e7 e8 33 3e
       0.2573467 -0.2418502 -0.043333825 0.17569314
0000c0 02 63 6f bd 6e a1 a3 3e 2d 34 17 be 94 e7 90 bb
       -0.05844403 0.319591 -0.14765997 -0.0044221375
0000d0 ac 63 03 3d 9e 1b aa be 36 48 de 3d d4 71 e5 bd
       0.032077476 -0.33224195 0.10853617 -0.112033516
0000e0 bc 66 13 3e da fa 79 be 65 c6 8e be 95 a9 3a be
       0.14394659 -0.24412099 -0.27885738 -0.18228753
0000f0 bf d4 5f be 7e 01 91 be 56 e4 fa bc e8 5d 98 3e
       -0.218585 -0.2832145 -0.030626457 0.29759145

bn2.weight f4 [64]
000000 b2 25 82 3f 8d ff 77 3f 88 de 83 3f aa f8 7b 3f
       1.0167754 0.96874315 1.0302286 0.98426306
000010 fa b6 79 3f 35 95 7d 3f cd 7e 7f 3f ac ed 79 3f
       0.97544825 0.99055797 0.9980286 0.97628284
000020 1e dc 86 3f b8 8d 80 3f 84 a3 7e 3f 84 b5 7c 3f
       1.0535924 1.0043249 0.99468255 0.9871447
000030 96 f4 7d 3f 3d d0 77 3f 73 37 79 3f e2 e8 7b 3f
       0.99201334 0.9680212 0.97350234 0.98402226
000040 5d b5 89 3f 1a d7 82 3f a4 eb 7d 3f e3 57 7f 3f
       1.0758473 1.0221894 0.99187684 0.9974348
000050 a4 a2 7c 3f 9a 44 7d 3f ce da 7a 3f b9 7c 81 3f
       0.9868567 0.989328 0.9799012 1.0116187
000060 bb 26 7a 3f 5a c8 82 3f d4 54 7c 3f e0 28 7e 3f
       0.9771535 1.0217392 0.9856694 0.9928112
000070 bc 80 7c 3f 08 31 83 3f 93 d4 7c 3f 44 93 84 3f
       0.98633933 1.0249338 0.9876186 1.0357442
000080 5c b0 80 3f 40 f0 7e 3f c4 18 80 3f 78 3d 80 3f
       1.0053821 0.9958534 1.0007558 1.0018759
000090 e1 93 83 3f 94 93 77 3f e1 fc 80 3f d1 57 7b 3f
       1.0279504 0.9670956 1.0077173 0.9818087
0000a0 67 8b 86 3f 33 d0 81 3f 23 0e 77 3f 08 0e 86 3f
       1.0511292 1.0141662 0.96505946 1.0473032
0000b0 9c 69 87 3f 54 e4 76 3f 6a 8a 79 3f 66 72 7e 3f
       1.0579104 0.9644215 0.9747683 0.9939331
0000c0 43 0a 7e 3f 8c d1 7a 3f 61 3e 84 3f 97 94 7c 3f
       0.9923441 0.97975993 1.0331537 0.9866423
0000d0 4e 15 81 3f 07 79 7c 3f 4a 4f 7d 3f b5 a7 81 3f
       1.0084627 0.98622173 0.9894911 1.0129305
0000e0 82 56 7f 3f 33 2e 7c 3f 3b d0 83 3f 98 4f 76 3f
       0.99741375 0.98507994 1.0297922 0.962152
0000f0 5c 9b 7f 3f a3 3a 7b 3f 2b 3b 7f 3f 26 88 7b 3f
       0.99846435 0.9813635 0.9969966 0.9825462

bn2.bias f4 [64]
000000 15 57 53 bb b1 67 17 3c 39 74 ca 3c dc cf 14 bc
       -0.003224795 0.009241031 0.024713622 -0.009082761
000010 e0 85 40 3c 8f b1 32 bd 0c 2a 8f 3c 30 6d f6 bb
       0.011750668 -0.043626364 0.017476104 -0.0075203404
000020 6b 21 21 3d 23 97 19 bd d2 21 46 3b b5 dd b5 bc
       0.03933851 -0.03749765 0.003023256 -0.022200445
000030 09 d4 03 bb de dd 70 bc 8e 29 f4 bc 32 ac df bc
       -0.0020115396 -0.014701335 -0.029804971 -0.027303789
000040 50 da 9b 3d 68 e1 d1 3b 07 fa 74 bc 1f d8 3e 3b
       0.07609999 0.0064050443 -0.014952189 0.0029120517
000050 22 16 06 bd 08 e0 33 3c 2e 27 aa bc 49 d3 7a bc
       -0.03273595 0.010978706 -0.020770635 -0.015309163
000060 64 8a d8 bc 68 b5 a5 3c b4 6f 6a 3c 73 e1 b9 bb
       -0.026433177 0.020228103 0.014308859 -0.0056726276
000070 b5 d1 0e bc 53 d8 75 bb 83 f5 d4 3a e8 6f b9 bb
       -0.00871699 -0.0037512972 0.0016247485 -0.005659092
000080 7c 09 65 ba 4b 7a 90 3b bc ec 41 bc d3 ad a7 bc
       -0.000873707 0.0044091097 -0.011836227 -0.020468628
000090 d0 15 38 3d 09 f3 a1 bc cf 66 c1 bb 0f 0a ed bc
       0.044942677 -0.019769209 -0.0059021483 -0.02893546
0000a0 6d 6d de 3c 36 00 94 3d 47 30 2e bd e1 71 4c 3d
       0.027151788 0.07226603 -0.04252651 0.04991329
0000b0 eb 65 6f bc 75 42 0f bd ca dc 6c bc 7f b6 30 bc
       -0.0146117015 -0.034975488 -0.014456937 -0.010785698
0000c0 42 1d 6a bc 35 83 e0 bc 2b 94 0c 3d 6e 57 77 bc
       -0.014289202 -0.027406314 0.03432099 -0.015096528
0000d0 97 ea 0c bd e2 a4 9c 3b 7c 4d 80 bc 44 77 5c 3c
       -0.03440341 0.0047803978 -0.015661947 0.0134561695
0000e0 02 75 bd bc cd 1d 84 bc e9 9c eb bc e6 41 e1 bc
       -0.023127083 -0.016127491 -0.028761344 -0.027497243
0000f0 f9 e0 c3 bc ec fb 99 bc 14 98 79 bc 17 d2 80 ba
       -0.023910986 -0.018796884 -0.015234012 -0.0009828237

bn2.running_mean f4 [64]
000000 42 63 ff 3d 44 31 10 3f 5e 98 e3 be 16 78 12 3e
       0.12470104 0.56325173 -0.44452184 0.14303622
000010 f7 ca d7 3c cf 1c 83 3d 3e b7 88 be f7 f3 bc be
       0.026341898 0.06401979 -0.26702303 -0.3690488
000020 54 62 9d be c5 a4 0f 3e 3b 0c 9e be 6c cc 6b 3e
       -0.3073908 0.14027698 -0.30868706 0.230272
000030 d0 66 b0 be b6 70 34 be b2 d9 1a be 27 9f 8e 3e
       -0.3445344 -0.17621121 -0.15122107 0.278558
000040 ec 9d 57 3e ae 29 1c be 4d 00 7c 3e c5 c3 bf bd
       0.21056336 -0.15250275 0.2460949 -0.09363512
000050 ea 37 e0 bb de 6f 5f 3d cb ed 96 be 46 4d a3 be
       -0.006842603 0.054550044 -0.29478297 -0.31894892
000060 a2 30 07 bf 4b c0 04 3f 20 1b 52 be 15 00 bb 3d
       -0.5280858 0.51855916 -0.2051816 0.09130875
000070 0b 00 66 bd 93 66 7a be 3f f1 c8 3e 99 dc 97 3d
       -0.056152385 -0.24453191 0.39246556 0.074151225
000080 19 70 e8 bd 91 de 01 3e 35 50 a0 bd 44 8e 0d bd
       -0.11349506 0.12682559 -0.07827798 -0.034559503
000090 e2 24 01 3d d4 72 62 be b7 58 45 3d 51 1d b6 bd
       0.031529315 -0.22114116 0.04818031 -0.088923104
0000a0 85 23 94 3e c2 81 4c bd e2 dc c9 bc 4c 9b bf bd
       0.2893335 -0.049928434 -0.024641458 -0.093557924
0000b0 dc 08 bd 3e a8 60 97 be 3b 5a 4e be b1 f1 a5 3e
       0.36920822 -0.2956593 -0.20151608 0.32410958
0000c0 64 3e 34 bd 02 1f 67 bd 35 bf 18 be 36 42 cb 3d
       -0.044004813 -0.056426056 -0.1491669 0.09924738
0000d0 8b 73 fe 3a 1c f6 d6 be 8f 70 1f 3e 52 e2 73 be
       0.0019413097 -0.41984642 0.15570281 -0.23816803
0000e0 d9 95 b5 3e b7 8a 2d bd af 76 42 be 79 6e b9 be
       0.35465887 -0.042368617 -0.18990587 -0.36217096
0000f0 9f f4 73 be 2d 91 21 bd 6d 72 85 3d c5 ba ee 3e
       -0.23823784 -0.03944509 0.065159656 0.4662687

bn2.running_var f4 [64]
000000 dd 0a 6c 3d af 4f 55 3d 90 8f 0a 3e 15 a8 f5 3d
       0.057627548 0.052077945 0.13531327 0.1199495
000010 b5 01 3a 3e a0 b5 81 3d f8 86 d4 3e 0b d7 12 3e
       0.18164714 0.0633347 0.41509223 0.14339845
000020 3a a1 03 3e b1 5a 1f 3d 37 41 ef 3c a5 a8 01 3d
       0.12854472 0.03890485 0.029205902 0.031654973
000030 e0 13 86 3d 61 5f 75 3d 8f d1 65 3e c8 7d d8 3d
       0.065467596 0.059905414 0.22443222 0.10570866
000040 40 07 8e 3b 2c 5b 00 3e e5 d5 66 3d 3a de 4d 3d
       0.0043343604 0.1253478 0.05635633 0.05026076
000050 30 17 3c 3e aa 9f 89 3d 69 14 b8 3d 51 4f 78 3d
       0.1836822 0.06719907 0.08988268 0.060622517
000060 af cb cd 3d 20 ff ec 3c f4 dc ef 3d 21 73 17 3e
       0.10048615 0.028930247 0.11712065 0.14790012
000070 88 8c 6b 3e 9f b7 be 3d 28 9f 93 3d 73 c2 70 3d
       0.23002827 0.09312367 0.07208091 0.05877919
000080 a7 47 43 3d 4b 3c 5c 3d 79 56 0f 3d 37 49 7d 3e
       0.047675755 0.053768437 0.034994576 0.2473496
000090 29 db c0 3c c2 83 f4 3d a2 7c ea 3c 11 d9 db 3c
       0.023542004 0.11939193 0.028623883 0.026836904
0000a0 4b c2 5e 3d d5 24 af 3d 43 06 8f 3c 0b 16 d0 3c
       0.05438451 0.08551947 0.01745904 0.025401136
0000b0 7f dd f1 3c 90 75 f1 3d ef d6 0b 3d 21 29 1d 3d
       0.029524563 0.117900014 0.034140524 0.0383693
0000c0 98 9b 59 3c a1 6d 8e 3e 7f 8c 80 3c 41 04 9c 3e
       0.013281725 0.27818015 0.015691994 0.30471995
0000d0 c3 7c c5 3b e7 d4 73 3d 05 ca 35 3d e3 65 ab 3d
       0.0060268356 0.05952921 0.044382114 0.08369043
0000e0 85 34 e5 3c 8a 34 50 3d a9 4f b1 3c e4 7e 18 3e
       0.027979145 0.050831355 0.02164443 0.14892155
0000f0 8b 22 4f 3d 58 ae 73 3e 36 e6 c5 3d f8 ab 93 3c
       0.050570052 0.23796976 0.0966305 0.018026337

conv3.weight f4 [64, 64, 1, 1]
000000 b5 cd 31 3d f6 a6 c9 bd 77 c5 8d 3c c3 b2 87 bd
       0.04340907 -0.098462984 0.017306073 -0.06625893
000010 47 8c 1f 3d e8 6a f0 ba 79 e7 22 3c c8 43 ae bd
       0.03895214 -0.0018342407 0.009942883 -0.08509022
000020 84 36 e6 bc 7c 95 91 3d 7c 46 e0 bd 54 1d 06 be
       -0.028102167 0.0710859 -0.10950944 -0.13097125
000030 82 d4 14 3c f3 e8 c0 bd 21 1b 77 bd 1e 99 0a bd
       0.009083869 -0.094194315 -0.060328607 -0.03383743
000040 3c f9 32 bd b9 c1 be 3d e2 c0 05 3e 5d fd a9 bd
       -0.04369472 0.093142934 0.1306186 -0.08300278
000050 1b 1b 31 bd eb 09 c6 3c 2e b3 1f 3d d1 24 a2 3d
       -0.04323874 0.024174651 0.03898924 0.079171784
000060 ed c0 38 bd aa af 86 3d ad dd b9 3d f3 f7 9f 3d
       -0.045105863 0.06576474 0.090754844 0.078109644
000070 ad bc 96 3d fc 78 ba 3d d4 2e 31 3d a7 8a e9 bd
       0.07360206 0.09105107 0.04325755 -0.11403399
000080 14 40 d9 3d e6 d8 4b 3d 08 51 7e 3d 25 78 c0 bb
       0.10607925 0.049767397 0.062088996 -0.0058736973
000090 a5 fe 99 3d 3a e8 ca 3d 0b fe cd 3d c0 3f 27 3d
       0.07519273 0.09907575 0.100582205 0.04083228
0000a0 0d 90 a4 3d 41 b9 34 bd bd 04 5e bd 33 f6 76 bd
       0.08035288 -0.044121984 -0.054203738 -0.060293388
0000b0 e7 ce 7e 3d 68 8e d4 3d fe a0 53 bd 26 9f 8a 3d
       0.062209036 0.10378724 -0.051667206 0.067686364
0000c0 41 f6 cb bd 89 d3 cf 3d 44 b6 3b 3d b2 4c 9c 3d
       -0.099590786 0.10147769 0.04582812 0.07631816
0000d0 a2 76 96 3c 70 62 a4 3d 5f 00 f4 3b 4f 57 5a bd
       0.018367115 0.08026588 0.0074463333 -0.05330592
0000e0 09 c6 3b 3c cd 9d 17 bd fd e1 62 3b 44 2a 3a 3d
       0.0114607895 -0.037015725 0.0034619563 0.045450464
0000f0 c2 36 12 bd 63 aa 31 bd 9a 1e c2 3d 6f 3f 0a 3d
       -0.035696752 -0.043375384 0.09478493 0.0337519
000100 a0 4f e8 3b c6 38 01 3d 72 3b fd 3d e1 c4 08 3c
       0.00708957 0.031548284 0.12364854 0.008347721
000110 5c 90 9a 3d 23 69 1f 3d 98 51 10 bd 3a cf 8f 3c
       0.075470656 0.038918626 -0.035234064 0.017554868
000120 af 9f 90 3c dd c5 d9 3d 76 57 ea 3d cb 3a 54 3d
       0.017654268 0.106334426 0.11442463 0.05181388
000130 f8 a6 c8 bc e3 ac dc 3d 06 bf c0 3d ab bf d4 bd
       -0.02449368 0.10775163 0.09411435 -0.1038812
000140 8e 9c 0b be a6 46 c7 bc 93 4f fa 3d 7d 88 62 bd
       -0.1363394 -0.02432568 0.12222209 -0.055305947
000150 0e 84 a7 bc 74 ac 9a 3d 70 6c e6 3d 42 5e 69 bd
       -0.02044871 0.07552424 0.112511516 -0.056974657
000160 6c 8e 0d 3c e1 66 e2 bd 9f 66 c5 3a 9b 5b 2d 3d
       0.008639913 -0.11054779 0.0015060491 0.04232369
000170 69 b9 98 3d ed 20 87 3d c7 4d 40 3d 69 b0 5b 3b
       0.07457239 0.06598077 0.046949174 0.0033521897
000180 e2 04 e3 bc 41 00 87 bd bb da 00 3d 9c 1a 6f bd
       -0.02771229 -0.06591845 0.031458598 -0.058374986
000190 cd 1a cd 3c 01 5d 3f 3d 15 b5 89 3c 4b 73 f4 3d
       0.025037194 0.046719555 0.01680998 0.11936053
0001a0 a5 54 02 3d e1 1d ba 3c bb de 82 bd 65 59 c4 3d
       0.031819005 0.022719325 -0.06390139 0.09587363
0001b0 1b 30 dc 3d 2d 72 74 3d 61 f4 09 3d 0e 71 87 bc
       0.10751363 0.0596792 0.033680324 -0.0165334
0001c0 0b 22 c7 bd d7 0c c5 ba 36 1f e4 bd 55 ea 00 3d
       -0.0972329 -0.0015033734 -0.111387655 0.031473476
0001d0 4e e0 b6 bd b2 be 8e 3c 3c 86 16 3d 2f 52 19 be
       -0.089295015 0.017424915 0.03674911 -0.14972757
0001e0 cc d4 6d bd 43 58 ed 3d c7 80 80 3c 2d 7a 5f 3d
       -0.058064267 0.115891 0.015686406 0.054559875
0001f0 88 be b5 3c f0 cd 93 bd 44 86 61 3a b7 5d bb 3d
       0.022185579 -0.07217014 0.0008603076 0.09148734
000200 66 de 61 3d fa e2 cd bd a5 2f b3 3c 31 a1 df bd
       0.055143736 -0.10053058 0.021873305 -0.10919417
000210 25 fe 55 bd 14 4c ce 3d 78 81 cb bd cd bb 24 3d
       -0.052244324 0.100731045 -0.099368036 0.040218163
000220 29 25 fc 3c af a2 0d bc 53 bf 9e bd a1 5f ae 3d
       0.030779438 -0.008644744 -0.07751336 0.085143335
000230 fe 0c 76 bc db 95 60 bc a1 d5 82 bc 63 2d 61 3c
       -0.015017746 -0.013707603 -0.015971007 0.013743731
000240 9b 2a 24 3d 0c ad 02 be 04 b9 bc 3d 16 3e c5 bb
       0.040079694 -0.12761325 0.092149764 -0.006019364
000250 16 20 49 bd 83 a2 2e bc d0 f4 ba bd 31 6a 0d be
       -0.049102865 -0.010658863 -0.091287255 -0.1381004
000260 25 2a ae 3d 0a ae 78 3c 78 33 c9 3d 8b 09 cd bd
       0.08504132 0.015178213 0.0982427 -0.10011586
000270 99 32 38 bd 50 e5 e2 3c e1 ac b2 3d d1 ac 8b bd
       -0.04497013 0.027697235 0.0872438 -0.068200715
000280 83 73 89 3d ff b0 09 3d e4 e1 09 be 51 3c 5e 3d
       0.06711485 0.033616062 -0.13465077 0.05425674
000290 06 ba 89 3d e6 c1 6b 3d 5f 4e 08 3e 9d b9 52 3d
       0.06724934 0.057557963 0.13311146 0.051446546
0002a0 13 20 fc 3d 85 f3 ff bc ef 03 81 bd a4 2c af bc
       0.12310805 -0.031244049 -0.062995784 -0.021383591
0002b0 e8 1a 1a 3e cf ee 75 bd 31 91 cf 3c 31 d8 52 bd
       0.15049326 -0.0600422 0.025337787 -0.051475707
0002c0 88 44 e5 bc c0 3a 2b bd 74 2a df bd 93 2a 2c bc
       -0.02798678 -0.041804075 -0.10896769 -0.010508197
0002d0 d7 99 4b 3d ac c9 53 3d a0 4d 2e 3d 43 96 01 3e
       0.04970726 0.051706 0.042554498 0.12654977
0002e0 0c 60 14 bd 58 66 46 3d 08 d1 9d 3d c8 d0 e1 bd
       -0.03622441 0.048437446 0.07705885 -0.1102615
0002f0 c7 32 d5 bc bd 70 a5 3d 63 ea bc 3d cd c4 92 bb
       -0.02602519 0.08078144 0.09224393 -0.004479027
000300 33 ee d6 3d 68 a6 ee bd 1f 25 38 3d b2 5c a8 3c
       0.10494652 -0.11652833 0.044957276 0.020552013
000310 bc 35 07 3e 79 55 04 3e 9c 4f e0 3d 2b 88 c9 3b
       0.13204092 0.1292323 0.10952684 0.0061502657
000320 1a b4 84 3d 57 37 b4 bd 5e ac be bd e3 6e e5 3b
       0.06479664 -0.08799618 -0.0931022 0.007001744
000330 fc e4 01 3e 94 ee fa 3d a0 90 5b bc c0 69 c2 3d
       0.12685007 0.122525364 -0.0134011805 0.094928265
000340 97 6b 86 3d ca 78 ca 3b 37 eb 8d 3d 05 ed e9 3d
       0.0656349 0.00617895 0.06929629 0.11422161
000350 de 32 6b 3d 6e bf ac 3d 10 90 9e bc 54 2b 8f 3d
       0.057421558 0.0843495 -0.019355804 0.06990686
000360 82 1b c5 3d b1 be 03 3c 5f 00 c6 3d b6 17 e6 bd
       0.09624387 0.00804107 0.096680395 -0.11234991
000370 29 b0 65 bd ac 0c ea bd 3b 17 bd 3d b0 78 ef 3d
       -0.056076203 -0.11428198 0.092329465 0.11692941
000380 85 f0 c5 bd 77 0c e6 3d 97 0a 06 be db 8a 01 3e
       -0.09665016 0.11232846 -0.13089977 0.12650625
000390 1a f5 99 bc e0 bc 49 bc 7d c2 a3 3d 4c 6b d3 bd
       -0.018793631 -0.012313098 0.0799608 -0.103232
0003a0 23 e1 75 3d d6 4f 67 3c 22 d5 8a bd 45 c4 bf bd
       0.06002916 0.014118155 -0.06778933 -0.09363607
0003b0 a8 74 90 bd 0e 65 93 3d 1b e2 d1 3b 5c 5d f6 bc
       -0.070535004 0.07197009 0.0064051277 -0.030073814
0003c0 9c 1a 28 bd e0 78 99 3d 86 39 54 3d 41 c5 a9 3d
       -0.041041 0.07493758 0.05181267 0.08289576
0003d0 ff 16 e9 bd 19 d2 5c 3d fa e4 ad 3d 03 01 65 bd
       -0.11381339 0.053911302 0.084909394 -0.055909168
0003e0 60 59 96 3d 58 84 48 bc a3 1f 9e 3b 32 7a 6e 3d
       0.07341266 -0.012238584 0.0048255487 0.058222003
0003f0 ee 4e e0 3d 96 16 e4 bc 0f 07 d3 3d 3a 59 4f bd
       0.10952555 -0.027842801 0.10304081 -0.050622202

conv3.bias f4 [64]
000000 c5 28 ce bd 49 44 84 3d ff ab ca 3c dd e0 ad bd
       -0.1006637 0.06458337 0.024740217 -0.08490155
000010 e1 e3 8b 3d 97 93 fe 3d 30 b9 51 3d f4 37 f7 3c
       0.06830574 0.12430494 0.051202 0.030178048
000020 3c 14 58 bd bc 7c ad 3c 8b f0 45 bd df 49 18 bd
       -0.052753672 0.021177642 -0.048325103 -0.037179824
000030 76 23 b6 bd 6f e5 1e 3d aa 02 e4 bc 7d 88 c3 39
       -0.088934824 0.038793024 -0.027833302 0.0003729499
000040 8f 60 97 bd a6 cb d9 3d d0 42 5d 3d 16 c3 2f bd
       -0.07391464 0.10634546 0.054018795 -0.042910658
000050 8f f8 d4 bc be 8e fc bc e8 32 96 bd b5 d9 bd bd
       -0.025997428 -0.030829784 -0.07333928 -0.0927004
000060 87 ad c8 bd 6a f3 ac 3c 62 8f e2 3d 24 ed 71 3d
       -0.09798723 0.021112163 0.11062504 0.059064046
000070 1c 2c 2e 3d 7f 0d 95 3b 82 3f 95 3d 40 97 c7 3b
       0.042522535 0.004548728 0.07287504 0.0060910285
000080 25 f1 e2 3d 87 a3 dd 3d 1f 4d f1 bd 7f e9 e0 3d
       0.11081151 0.10822206 -0.11782288 0.10982036
000090 db d6 44 3d cd 33 c4 bd 9b a5 de 3d 05 46 e0 3d
       0.048056465 -0.09580193 0.108714305 0.10950855
0000a0 08 ee 9c bd 14 40 ff 3d c6 b4 56 bd 64 31 89 bd
       -0.07662588 0.12463394 -0.052418493 -0.06698874
0000b0 91 9f e2 bc 5f d9 a3 38 2a 56 57 3d e5 f0 0a bd
       -0.027663978 7.812934e-05 0.052572407 -0.03392114
0000c0 75 b0 eb 3c a4 b7 9b 3c a6 ef 6e 3c 22 62 51 bb
       0.028770665 0.019008465 0.014583504 -0.003194936
0000d0 7d b3 bc 3d 88 bb 83 3c 39 74 4e 3c 22 2e cb 3d
       0.09213922 0.016080633 0.012600952 0.099209085
0000e0 c9 d6 90 3c 22 9c 5f 3d e4 05 77 3d 55 a7 ec bd
       0.017680543 0.05459226 0.060308352 -0.115553536
0000f0 fb 77 0f bc 7b 7e f0 bd 62 b2 fc 3d 5d 98 a1 bd
       -0.008756633 -0.11742874 0.12338711 -0.07890389

bn3.weight f4 [64]
000000 ef 46 75 3f 95 06 81 3f 89 93 86 3f 9c 83 81 3f
       0.9581136 1.0080134 1.0513774 1.0118289
000010 89 37 7f 3f e3 01 84 3f 4d d4 7b 3f 9a 17 72 3f
       0.99694115 1.0313076 0.9837082 0.94567263
000020 91 44 76 3f 20 f8 83 3f 8a d1 82 3f b7 c2 7d 3f
       0.96198374 1.0310097 1.0220196 0.99125236
000030 e8 c7 7e 3f fd 64 7c 3f 1e 07 84 3f 10 0d 83 3f
       0.9952378 0.98591596 1.0314672 1.0238361
000040 35 61 7b 3f ec 98 82 3f ca 55 80 3f 19 21 81 3f
       0.981952 1.0202918 1.0026181 1.0088226
000050 fb fc 81 3f 8c 01 75 3f 51 61 81 3f b0 51 79 3f
       1.0155329 0.95705485 1.0107824 0.9739027
000060 71 fe 7f 3f 8d e6 75 3f ed 40 84 3f 75 b1 7c 3f
       0.9999762 0.9605492 1.0332314 0.9870828
000070 13 67 7f 3f ab 36 73 3f ca df 7f 3f 7b 0a 81 3f
       0.99766654 0.9500529 0.9995085 1.0081323
000080 24 79 75 3f 6c 0f 81 3f 63 26 79 3f cf 62 82 3f
       0.9588797 1.0082831 0.973242 1.0186404
000090 18 f6 85 3f 81 9a 78 3f b9 f6 83 3f b5 0e 82 3f
       1.0465727 0.97110754 1.0309669 1.0160738
0000a0 9e 5a 81 3f 55 fa 83 3f fe 16 7d 3f 2a f3 80 3f
       1.0105779 1.031077 0.9886321 1.0074208
0000b0 80 2d 82 3f 40 46 83 3f c2 0a 86 3f 82 82 85 3f
       1.0170135 1.0255814 1.0472033 1.0430453
0000c0 35 7a 81 3f 56 aa 7f 3f 30 26 85 3f ab 66 84 3f
       1.011542 0.99869287 1.0402279 1.0343832
0000d0 a8 55 81 3f de 9c 81 3f 2c 41 82 3f 66 a5 85 3f
       1.0104265 1.0125997 1.0176139 1.0441101
0000e0 cc c0 77 3f 0e 9d 7e 3f eb bb 6f 3f 33 3c 89 3f
       0.9677856 0.99458396 0.93646115 1.0721496
0000f0 1a 38 81 3f 37 42 80 3f f6 37 85 3f 1f 6a 84 3f
       1.0095246 1.0020207 1.0407703 1.0344886

bn3.bias f4 [64]
000000 a8 e9 3f bd 7d 21 c9 bc 96 94 c1 3b af 6a 88 bc
       -0.04685369 -0.024552101 0.0059076054 -0.016652433
000010 de 9b 11 bd 29 c3 0a 3c 80 10 06 bd 14 4a 7b bd
       -0.035549037 0.008469381 -0.03273058 -0.061349943
000020 04 36 2f bd 12 b3 8c 3c 9b 3f 4e 3b 21 43 00 3d
       -0.042776123 0.017175231 0.0031471017 0.03131402
000030 8c d2 da 3c 63 83 d9 bc 14 10 29 bb ec 24 92 3c
       0.026711725 -0.026551908 -0.0025796937 0.017839871
000040 6b ad 04 3d ec c6 7b 39 eb 2a 70 3c a6 a5 12 bc
       0.032391947 0.0002401133 0.01465867 -0.0089506265
000050 23 a1 46 3c 45 93 4c 3d fd 9f a8 3b 17 ba f5 bc
       0.012123379 0.049945135 0.005146025 -0.029995961
000060 9d 94 ad 3c 7b 34 42 bd 54 dd a1 bc 14 20 b2 3c
       0.021189028 -0.04741333 -0.019758858 0.021743812
000070 9e fa f3 bc 03 be 86 bd 5a de 9d 3c f7 61 44 3c
       -0.02978259 -0.065792106 0.019271065 0.011986247
000080 c4 56 50 3d b8 1c 95 bc c9 bb 01 bd 19 ec 20 3a
       0.050863996 -0.01820217 -0.031673227 0.0006138697
000090 5a c2 22 3b eb 5d 2c bd 4d 9d 0b 37 86 42 01 3c
       0.002483508 -0.042081755 8.32167e-06 0.007889396
0000a0 4b af 67 bc 3a 55 75 ba 50 26 fc 3c 74 5b f7 3c
       -0.014140914 -0.0009358708 0.030779988 0.030194975
0000b0 3f 46 7b bc 78 0f 4f bc 17 8c d6 3a 5a ef 96 bb
       -0.015336572 -0.012637965 0.0016368654 -0.0046061696
0000c0 1c 86 1d bc ad 05 23 3c 0c 63 9a 3b 9c 07 f4 3a
       -0.009614494 0.009950084 0.0047115143 0.001861799
0000d0 b3 c2 70 bb 20 ca ca bc e6 50 48 3c 1c 5b 89 3c
       -0.0036737144 -0.024754584 0.012226319 0.016767077
0000e0 f6 3a fc bc 19 91 9d bc 5b 83 90 bd c4 54 14 3b
       -0.030789834 -0.019234227 -0.07056304 0.0022633532
0000f0 62 b0 a2 3c 9d 5d 55 bc 5d e4 89 bb 18 cd 81 3a
       0.019859497 -0.013022807 -0.004208131 0.0009903042

bn3.running_mean f4 [64]
000000 07 f5 6c 3e e2 04 c4 3e 85 02 0e 3e 34 f6 d7 3e
       0.23140346 0.38284975 0.13868149 0.42180026
000010 d1 66 03 bd 9c d4 37 3e 73 9c 86 3c 80 a8 62 3d
       -0.032080475 0.17952198 0.016432023 0.055336475
000020 c0 88 67 be 9a c1 ce be 8a ba 3a be 62 d4 f4 bd
       -0.2261076 -0.4038208 -0.18235222 -0.11954571
000030 a1 08 4f bd c0 1a 47 be a7 76 c6 3d b6 7f d4 bd
       -0.05054534 -0.19443798 0.096906 -0.103759214
000040 78 f9 13 bd 26 02 f7 3d 57 b7 09 bd 2b 23 92 be
       -0.036126584 0.12060957 -0.033622112 -0.28542456
000050 b6 02 dc be ee 6d 9e be d9 a9 8e be c8 e3 39 be
       -0.42970818 -0.30943245 -0.27863958 -0.18153298
000060 8b 80 80 be 0d e0 3d be 65 ca 7f be 6b 9d 95 bd
       -0.2509807 -0.185425 -0.24979551 -0.07305416
000070 36 d4 59 bc 2d 4a 8c 3d a2 04 24 3e e9 ab 3f be
       -0.013295224 0.068500854 0.16017392 -0.18717922
000080 10 a5 ed 3c bd f4 94 3e 7b b9 63 be 38 34 13 3f
       0.029009372 0.2909297 -0.22238724 0.57501554
000090 08 c6 8d 3b 15 89 18 be f7 b3 1e 3d 7e 91 15 3f
       0.0043265857 -0.14896043 0.038745847 0.5842513
0000a0 b8 b3 06 bf 46 54 05 be 58 bc 7e 3c 5d fc aa be
       -0.5261798 -0.13020429 0.015547834 -0.33395663
0000b0 8c be dd be 95 2f 57 bd 27 43 ee 3e 81 cd 47 3e
       -0.43309438 -0.052535612 0.46535608 0.19511987
0000c0 0d ad 88 bd a1 3b 13 3e b5 a9 cd be 5e a3 74 be
       -0.06673632 0.14378215 -0.4016854 -0.23890445
0000d0 89 16 6d 3e 74 ee 9d 3e 53 75 42 3d 63 e7 24 3e
       0.23153128 0.30845988 0.04747517 0.16103892
0000e0 4a 38 9a 3e 73 62 54 3e 9d 26 cf 3d f4 02 70 be
       0.3012107 0.2074068 0.10114787 -0.23438627
0000f0 bd 10 19 3e f2 28 c4 be 57 02 41 be 74 1f 0d bd
       0.14947791 -0.3831249 -0.18848549 -0.034453824

bn3.running_var f4 [64]
000000 fb f5 42 3d 7d d0 f0 3d 93 47 29 3e 99 89 43 3e
       0.047597867 0.11758516 0.1653121 0.19095458
000010 d8 d1 9a 3d ca e9 11 3e 4a 28 d3 3d db 30 9b 3d
       0.07559556 0.1424934 0.10310419 0.07577678
000020 00 f5 85 3d db 2f c1 3d 39 f8 8f 3d 8f 0e 07 3e
       0.06540871 0.09432956 0.070297666 0.13189147
000030 87 2f 59 3e a2 86 96 3d 68 db ee 3d 67 b0 22 3e
       0.21209536 0.07349898 0.11662942 0.15887605
000040 9c 5e c2 3d a5 42 41 3e 4b d3 3b 3e 92 31 ec 3d
       0.094907016 0.18873079 0.1834232 0.11532892
000050 fa 00 fc 3d d7 28 41 3e 9e 8e b1 3d 0f a8 a5 3e
       0.12304874 0.18863235 0.0866978 0.3235478
000060 ad 7e e9 3d 8e 39 85 3e 3d d8 e7 3d f0 7e 43 3e
       0.114011146 0.26020473 0.11320541 0.19091392
000070 44 81 f0 3d 47 2b fb 3d d5 a6 d0 3d ec bb da 3d
       0.117434055 0.12264114 0.10188071 0.106803745
000080 85 5c 18 3e 29 a9 db 3d 5b 06 89 3d f3 ce a2 3d
       0.14879043 0.10725624 0.06690665 0.07949629
000090 8e ce 0d 3e 1c a2 e6 3d a3 87 f5 3d bc ab 6c 3e
       0.13848326 0.11261389 0.11988761 0.23112386
0000a0 49 74 3c 3e 18 09 01 3e 27 0a 5f 3e 94 7c 71 3e
       0.18403734 0.12601125 0.21781217 0.23582679
0000b0 a8 9e bc 3d e2 64 df 3d 7b b0 3d 3e 5b ea 2e 3e
       0.09209949 0.10907914 0.18524353 0.17081587
0000c0 14 f4 10 3e 9a 18 2d 3e d8 3e 31 3e bc a7 e0 3d
       0.14155608 0.16903916 0.17309129 0.10969493
0000d0 65 e2 20 3e 3d 97 33 3e 3a c1 3c 3e d3 18 d2 3d
       0.15711363 0.17538162 0.18433085 0.10258641
0000e0 f9 ed 31 3e 70 b8 67 3d 44 17 8a 3d 0c 7d d5 3d
       0.17375936 0.056572378 0.06742719 0.104242414
0000f0 b2 7e ce 3d 33 f6 08 3e 3f c3 26 3e 27 2c 46 3e
       0.10082759 0.13375168 0.16285418 0.1935278
