models/trained_models/dscnn_mfcc/model_acc_68.75.pth (torch_old, 110035 bytes, 56 tensors)

conv1.weight f4 [64, 1, 10, 4]
00000000: aca1 353e a172 6dbd 14d4 d0bd 7b39 2dbd
00000010: 117a 0a3e 2cf7 74bd ce87 393d 68a5 c13d
00000020: 3858 3d3e e68b a63d 6555 37be 5c07 c3bc
00000030: ea71 423c af2d d4bd 175c fa3c 4053 7abd
00000040: 7ac0 a43d e435 68be 1e29 e4bd 860a 633d
00000050: 07da 813d 8c72 85bd 2e09 16be 1142 9f3c
00000060: fdfb f1bd 3919 d3bd 0b77 d3bd b2c3 ef3d
00000070: dd0a 0f3e d467 5dbd f78f f03d d9e9 253d
00000080: c623 363d 9a84 2ebe afa6 a6bd 8307 003e
00000090: 93d1 7bbd 449d 0ebd d725 353e 7122 e4bd
000000a0: adf6 ab3d 6437 663e 56de 373e 0a43 b83d
000000b0: 5d4a 5f3d a833 a8bd 7254 d2bb a628 5a3e
000000c0: 2fe4 0fbd 5a7c 11be 65e8 71ba 92ef 213c
000000d0: a1f0 dcbc 6032 c3bd e16a 57be b05f ad3d
000000e0: d098 00bd 61db 1a3d 735b 583c 4389 33be
000000f0: 73e3 753c 9c15 9a3d d0ce d83d 7d80 75bd
00000100: 35a7 97bd e44d 10bd ad45 573e 5825 4cbd
00000110: 88f0 d6bc a7ba 20bd dbc2 303e 3fa2 053e
00000120: f1e9 8e3d 79fe 4a3d 1d67 07bd 11b9 a63d
00000130: 8008 3b3c 0551 18be 6106 3b3d b0f4 d6bd
00000140: 3326 813c c892 f23d fff7 d5bd 96a3 04be
00000150: b548 0dbe 8dfb f33c 7b2d 40be ea2f f13d
00000160: 88fc ccbc 3f5c 3fbe 900b 583c a38d f83b
00000170: 6bb9 7e3d 32fc 6bbe 1ab9 40bd 5056 c6bc
00000180: c676 c9bc 78b7 95be 5750 50be 3e93 a43d
00000190: abbd 3ebd 7d55 41be 431e fd3b ef72 fcbd
000001a0: 1474 07be fe5d 843d 9b49 35be 8160 1f3e
000001b0: 634e cbbd d821 e8bd 2fd1 a0bd 79d7 4ebd
000001c0: 42da cabc d4bb 62bc eeb0 52be ff1f 42bd
000001d0: 0944 0a3e 659c 0dbd 80dd 03be 10a2 ecbd
000001e0: d52a 68bd 0e57 163d a27c cebd 411b 073d
000001f0: 6b6a b3bd cd0c eb3d 629e d9bd 7b47 cb3d
00000200: 7de9 283e 3c9b 093e d778 72bd aab5 ecbb
00000210: 8533 d23d cfe0 fd3d 1725 b9bd 5502 4fbe
00000220: d06d ac3d 768a dcbd cb73 49be e9bb 3fbe
00000230: c8b6 babd 33b6 aabc ac7a a7be 9698 413d
00000240: 35db 7ebd d7d2 ec3d f82a cd3d 50f0 1dbe
00000250: acb7 153e 3c4a 2ebd 56e8 12bd 2fb0 2abe
00000260: 8ab6 4ebc a304 bbbd 4c5c 263e c191 05be
00000270: 8019 f4bd cf56 69bd 39eb 113e 50ff 46bc
00000280: f15f 6d3b 6a59 e83d b623 5b3d 298c f7bd
00000290: 8d81 5d3c 50c7 023e 815f d7bc 1e4d 0abd
000002a0: 7a71 103e e765 033e e885 1cbc 10a2 d13d
000002b0: f637 58bc 15fd 0ebd e857 3a3d 0aee df3c
000002c0: 6507 22be 4ddc 853d d5dd 53be f88d 033e
000002d0: 5ef5 0abe e19a 40be 5ccc 15be 8e2f 59bd
000002e0: 1e3a 80bc 3516 9fbd 2aea 4b3b ba46 c0bd
000002f0: 2c50 c3bd 562d 25be 8c78 ce3d e25c 423d
00000300: 754b 4f3d 25e0 d53d b21d 0fbe 2f36 b5bd
00000310: ef93 eebd 3a33 ff3d bd3f 2e3d ed77 5a3a
00000320: 70f9 21be 1ed1 b4bc 3446 e03d 11e6 593d
00000330: 7d9a 70bd ac31 d6bd 198d 10be 5aa9 d83d
00000340: 95ad 0f3b 47a0 26be 5c7f 93bd e9b7 183e
00000350: d5e5 44bd fcbc e4bc 5615 56bd a1b8 d33d
00000360: bfe8 e73d 32ab 00be 141e 173e 495c d3bd
00000370: af6a 223e fc3d ac3c a77f d2bd ce07 dfbc
00000380: fae6 b03d fc16 fdbd dd81 7fbc 2ecc 273e
00000390: 089d f83d 32c2 c63d bac4 6dbd aeef 393e
000003a0: eed3 9d3d e63a 4b3d 04c7 78bc a221 2cbc
000003b0: fedd af3d dbd2 1abe 42a0 e5bd cf5c 803c
000003c0: 14a9 7c3d d4c0 b53c e813 403e 5f6c 1abe
000003d0: 0085 283d 382b 2c3d 5ecf 47bd f99d c73d
000003e0: bb0b 41bd dc21 2d3d 35f8 0dbe 91e2 38be
000003f0: 7cc1 0fbe cc0c efbd b577 b7ba ec7c 27ba
0.17737454 -0.057970647 -0.10196701 -0.042291146 0.13523127 -0.059806034 0.04529553 0.09455377
0.18490684 0.08132152 -0.17903669 -0.02380722 0.01186798 -0.10360276 0.03056149 -0.06111455
0.080445245 -0.22676808 -0.11140655 0.055429958 0.063404135 -0.06515989 -0.1465194 0.019440683
-0.11815641 -0.10307545 -0.1032544 0.11707248 0.13968988 -0.054054096 0.11746209 0.040506218
0.04446771 -0.17042771 -0.08137261 0.12502865 -0.061479162 -0.03481795 0.17690216 -0.11139382
0.08396659 0.22482067 0.17955908 0.08997162 0.054514278 -0.08212978 -0.006418758 0.21304569
-0.035129722 -0.14207593 -0.000922805 0.009883778 -0.02697021 -0.09531093 -0.21036865 0.084655166
-0.031395733 0.037806872 0.013205397 -0.1753283 0.015007841 0.07523653 0.10586321 -0.05993699
-0.07404939 -0.035230532 0.21022673 -0.0498403 -0.026237741 -0.039240506 0.17261831 0.13050173
0.069782145 0.04955909 -0.03305732 0.08140767 0.011415601 -0.14874656 0.04566038 -0.10495889
0.015765285 0.118444026 -0.10447692 -0.12953028 -0.13797267 0.029783035 -0.1876735 0.11776717
-0.02502276 -0.18687533 0.01318635 0.007585244 0.062188547 -0.23045424 -0.047051527 -0.024211079
-0.024592768 -0.29241538 -0.20343147 0.08035897 -0.0465676 -0.18880267 0.0077245547 -0.12326609
-0.13227874 0.0646324 -0.1770386 0.15564157 -0.099270605 -0.1133458 -0.078523986 -0.05049846
-0.024762277 -0.013838727 -0.20575306 -0.047393795 0.13502516 -0.034572978 -0.12877464 -0.115543485
-0.056681473 0.036704116 -0.100823656 0.032984976 -0.08760532 0.11477051 -0.10625912 0.09925743
0.16495319 0.13438123 -0.059197273 -0.0072238045 0.10263733 0.123963945 -0.090402775 -0.20215733
0.084193826 -0.10768597 -0.19673078 -0.18724026 -0.09116894 -0.020838832 -0.3271078 0.047264658
-0.06222077 0.11563652 0.10017961 -0.15423703 0.14620847 -0.042551264 -0.035866104 -0.16668771
-0.012616763 -0.09131744 0.16246146 -0.13043882 -0.11918926 -0.056967553 0.14249887 -0.012145832
0.0036220516 0.113451794 0.053500853 -0.1208728 0.013519657 0.12771344 -0.026290657 -0.03376495
0.14105788 0.12831841 -0.00955341 0.10235989 -0.013196936 -0.034909327 0.04549399 0.027335186
-0.15823133 0.0653616 -0.20690091 0.12847126 -0.13570163 -0.18809082 -0.14628738 -0.053023867
-0.015652712 -0.077679075 0.0031114914 -0.0938849 -0.09536776 -0.16130576 0.10081586 0.04745186
0.05060907 0.10443143 -0.13976172 -0.08848225 -0.1164931 0.124609426 0.042541254 0.00083339104
-0.15817809 -0.022072371 0.1095089 0.053197924 -0.05874108 -0.10458693 -0.14116324 0.10579176
0.0021923531 -0.16272078 -0.07202026 0.14913906 -0.048070747 -0.027922146 -0.05226644 0.103379495
0.1132369 -0.12565306 0.14757568 -0.10320336 0.15861009 0.02102565 -0.10278254 -0.027225401
0.08637805 -0.123578995 -0.015594927 0.16386482 0.12139326 0.097050086 -0.05804894 0.18157837
0.07706438 0.049616717 -0.015184168 -0.010506066 0.085872635 -0.15119497 -0.112122074 0.015669255
0.061684683 0.022186674 0.18757594 -0.15080403 0.041142464 0.042033404 -0.048781745 0.09746928
-0.047130328 0.04226862 -0.13864215 -0.18055178 -0.14038652 -0.11672363 -0.0013997467 -0.0006389159

conv1.bias f4 [64]
00000000: e2d8 463d 0b20 743a 0f4c 0cbd fc3b a4bd
00000010: c2fb 1c3d 898a ff3d 5a87 17be e354 63bd
00000020: b56e ff3d 5420 11bd 3c25 10be 05ad 513d
00000030: 081c 2bbd 6d9e 1f3e a058 4bbd cf07 2a3d
00000040: 7f3e 8fbd 4c7c 753d 2157 963d 38b7 143e
00000050: 718f dd3d 4779 19be 3cdc b63d 7756 febc
00000060: 9e03 5cbd 1433 2bbd a3e2 0f3e d740 5cbc
00000070: 2c1b 013e c60a 5fbd 54b2 0ebe 3f55 923d
00000080: b465 193e 2b07 7bbd 0f55 13be ee75 0e3c
00000090: ba8a 07be feb5 1ebd 22e7 62bd 6211 9d3d
000000a0: 0445 17be 7087 d43d 0ea6 43bd 5c8b c13d
000000b0: 4605 393d 1190 e8bd 027e 1c3e be0b 8dbc
000000c0: 2108 893d aef7 e93c 1a71 383c e009 8f3d
000000d0: 3b83 04bd 1b07 ba3d 064d 4cbd f9bf d23d
000000e0: 2f06 e93d 2b26 9b3d 1704 7f3d 4425 0e3e
000000f0: 4bf4 56bd 7973 523d c675 d53d 9c25 453d
0.04854668 0.0009312636 -0.034252223 -0.080192536 0.038326032 0.12477595 -0.14797726 -0.055500876
0.124722876 -0.03543122 -0.14076704 0.051190395 -0.04177478 0.15587778 -0.049645066 0.041511353
-0.06994342 0.05993299 0.07340837 0.14523017 0.10818375 -0.1498767 0.08928725 -0.031047089
-0.053714387 -0.04179676 0.14051299 -0.013443193 0.12608021 -0.054453634 -0.13935214 0.07145166
0.14980203 -0.061286133 -0.14387916 0.008695109 -0.13236514 -0.03874778 -0.055396207 0.07669331
-0.14772421 0.10377395 -0.047765784 0.09450409 0.045171045 -0.113556035 0.15282443 -0.017217513
0.066910036 0.028560486 0.011257434 0.069843054 -0.032351714 0.090833865 -0.049878143 0.10290522
0.113781326 0.07575639 0.06225976 0.13881403 -0.05247907 0.051379655 0.10422854 0.04813157

bn1.weight f4 [64]
00000000: b9a1 813f 2b38 813f a6cf 833f 8706 883f
00000010: cbc9 763f 2ff1 6c3f 3341 833f f13e 863f
00000020: 048a 863f af8c 763f 7d0c 723f e5ca 893f
00000030: 303c 783f 42bc 8c3f 6db3 713f eaa9 823f
00000040: 5be5 893f c802 823f 9b1a 873f 2679 803f
00000050: b634 893f 12c1 723f 3164 843f bc4d 8d3f
00000060: 4f87 653f 1b4b 723f 504c 5c3f 8a85 803f
00000070: f41c 7f3f 774f 993f b8f8 873f 26cc 913f
00000080: 52be 823f 2dd6 9c3f faa4 873f 187e 733f
00000090: 8e56 833f 19d3 643f fdab 753f 2922 843f
000000a0: 8a18 7e3f 86eb 7b3f 0d19 763f a69b 993f
000000b0: 108d 773f 8260 7d3f a4dd 873f 6cd1 7f3f
000000c0: ec8f 4a3f 15c8 863f 7136 5e3f 49a9 943f
000000d0: 6c2f 793f c431 8b3f 316d 743f 7af9 843f
000000e0: 27a3 673f 564f 873f 819b 783f 27a0 873f
000000f0: 8058 863f 490e 853f 24e6 6d3f ade6 863f
1.0127479 1.0095266 1.0297744 1.0626992 0.9640166 0.92555517 1.0254272 1.0487958
1.0510869 0.96308416 0.94550306 1.0765043 0.9696684 1.0994952 0.94414407 1.0208104
1.0773119 1.0157099 1.0554994 1.0036972 1.0719211 0.9482585 1.0343076 1.1039348
0.8965959 0.9464585 0.86053944 1.0040753 0.99653554 1.1977376 1.0622778 1.1390426
1.0214331 1.2252861 1.0597222 0.9511428 1.0260789 0.8938461 0.9596556 1.0322925
0.99256194 0.98406255 0.96131974 1.2000625 0.9669962 0.98975384 1.0614514 0.9992893
0.7912586 1.052981 0.8680182 1.1614162 0.97337985 1.0874562 0.9547911 1.0388634
0.90483326 1.0571086 0.9711228 1.059575 1.0495758 1.0394984 0.9292929 1.0539147

bn1.bias f4 [64]
00000000: 36fe 48bc 7e6f e43c 353a c8bc b1b3 9b3c
00000010: 82db 3abd 959b b1bd 3f81 bfb8 2b0d 8cbc
00000020: 5c18 eebc 4b00 76bd 0e99 9abd 0948 5dbc
00000030: ba5f 23bd 03e1 f2ba c7b2 9abd 4c25 9f3b
00000040: 081f 08bc 5b2b 53bc 7e2c 10bd d8d8 023d
00000050: 6caf ac3c 3640 86bd d18c b53c 5a9d 773c
00000060: 8f65 e6bd c3fc abbd d4d4 03be 8230 0cbd
00000070: b4e2 29bd 1dd5 06bb 467f abbc 8a00 863c
00000080: a4f3 03bd 370a 8abb e268 8bbc 49cb 89bd
00000090: 4f3b 49bd 6c25 e1bd a2de b0bd f2c1 0dbd
000000a0: 7faf 54bd b622 223d fb4b 84bd f711 61bb
000000b0: e223 6cbd 5919 40bd ed45 893b f5b9 113d
000000c0: b2d6 50be 9858 08bd 1a7c 0ebe 75a8 0c3b
000000d0: afdb 0cbd d451 c4bc d1b9 9cbd b291 17bd
000000e0: cd5c d9bd b9de 5fbc c0ab 99bd 6ce6 c2bc
000000f0: 30ec 48bc 5bf0 c73c 5473 bcbd eca6 a4bc
-0.01226764 0.027885195 -0.024441818 0.019006582 -0.045619495 -0.08672253 -9.131664e-05 -0.017096123
-0.02906435 -0.060058873 -0.07548724 -0.013505944 -0.039886214 -0.0018530193 -0.0755363 0.004856741
-0.00830818 -0.012888755 -0.03519868 0.03194508 0.021079741 -0.06555216 0.022161873 0.015113199
-0.112498395 -0.0839782 -0.12874156 -0.03422595 -0.041475967 -0.0020573803 -0.020934712 0.016357679
-0.032214776 -0.0042126435 -0.017017785 -0.06728227 -0.049128827 -0.10993466 -0.08636214 -0.03460879
-0.05192518 0.039583884 -0.064598046 -0.0034342983 -0.057651408 -0.046899173 0.004189244 0.035577733
-0.203944 -0.033287615 -0.13914528 0.0021462713 -0.034389194 -0.0239648 -0.07652629 -0.03700418
-0.106134035 -0.013663941 -0.07503462 -0.023791514 -0.012263343 0.024406603 -0.092016846 -0.020099126

bn1.running_mean f4 [64]
00000000: 20e3 4cc2 86e5 8142 4439 88c3 2807 c9c2
00000010: ed5d 5dc2 92e1 b640 5a37 2cc3 5279 7fc2
00000020: ba6a 6a41 99eb ef42 b8ad 71c2 edb1 12c2
00000030: 4be1 8f42 9394 82c3 e6d3 42c2 e58b a0c2
00000040: f619 6d43 0ddd fd42 5cd1 dd41 1536 b2c2
00000050: ab3b 1c42 c272 2c42 6bbb 5cc3 41b4 c341
00000060: 92f4 b442 ba73 6141 8013 9c42 1e4b 8541
00000070: b516 f2c2 c44a 25c2 8b0c 4042 fe24 6041
00000080: 742e f242 fed7 0c43 3b5a 8ec2 2b2e 2cc3
00000090: 2430 eec2 58aa 10c3 4a88 fe41 1a2a db41
000000a0: 979a bb3f c934 69c2 d42b 2042 8ad5 1642
000000b0: 445d a542 0983 f4c2 bbab 60c1 38c5 f2c2
000000c0: 95da 4a42 00bc 13c1 f116 723e a91a 7dc2
000000d0: 57c0 9d42 0935 7242 842e fec1 f41c 1f40
000000e0: 9c63 aa41 7ece bbc2 cf21 6342 ee0d 19c3
000000f0: 608c d5c2 c4d1 b1c2 237a d7c2 bd4e 8f42
-51.2218 64.94829 -272.4474 -100.51398 -55.341724 5.7150354 -172.21622 -63.868477
14.651056 119.96015 -60.419647 -36.673756 71.940025 -261.16074 -48.706932 -80.27323
237.10141 126.93174 27.727226 -89.10563 39.05827 43.11207 -220.7321 24.463015
90.47768 14.090754 78.038086 16.661678 -121.04435 -41.323013 48.01225 14.009031
121.09073 140.84372 -71.17623 -172.18034 -119.094025 -144.6654 31.816547 27.395557
1.4656552 -58.301548 40.0428 37.708534 82.68216 -122.25593 -14.041926 -121.38519
50.71346 -9.233398 0.23641564 -63.276035 78.87566 60.551792 -31.772713 2.4861422
21.298637 -93.903305 56.783016 -153.05441 -106.77417 -88.9097 -107.73855 71.653786

bn1.running_var f4 [64]
00000000: 5db7 3d44 3d35 f643 bffc f044 02d2 b144
00000010: 968b e343 b459 9944 6533 0d45 21d7 0045
00000020: 4cec b244 ac16 df44 4c78 0644 8d72 0044
00000030: bf3f 1544 74c0 b144 5bff 5c44 6195 3e44
00000040: 964f 1b45 5491 6b44 cbaa ae43 fb15 8f45
00000050: c7cf 5b44 9e66 8544 826e 8145 e42c e344
00000060: 3a1e b244 1ffc 3e43 670a 4c44 9f55 6045
00000070: 48ec e443 9884 2244 d127 c743 2f0d 6244
00000080: 235c 2345 447a 2c44 0b25 8644 29d4 8a44
00000090: 8821 2a44 8304 8b44 0eb0 6f44 20c5 a643
000000a0: d76e 5143 0c75 2f43 597a 3e44 5eb7 c644
000000b0: b33f 9f43 24bf 7244 8fd5 e144 89cd db44
000000c0: b835 1544 df3e c344 e21b cd43 832a 4c45
000000d0: d1f0 8243 d566 f644 0ee6 3c44 98eb c043
000000e0: 017d 4a44 ba10 2845 4e15 4544 805a f244
000000f0: 0193 f943 7713 4a45 3b8a 8944 d69e 2a44
758.86505 492.41592 1927.8983 1422.5627 455.0905 1226.8032 2259.2122 2061.4456
1431.3843 1784.7085 537.87964 513.78986 596.99603 1422.0142 883.9899 762.33405
2484.974 942.27075 349.33432 4578.7476 879.2465 1067.2068 4141.8135 1817.4028
1424.9446 190.98485 816.16254 3589.3513 457.84595 650.0718 398.31107 904.206
2613.7585 689.9104 1073.1576 1110.63 680.5239 1112.141 958.75085 333.54004
209.43297 175.45721 761.9117 1589.7302 318.49765 970.9866 1806.6737 1758.423
596.83936 1561.9647 410.21783 3266.657 261.88138 1971.2135 755.5946 385.84058
809.9532 2689.0454 788.3329 1938.8281 499.14847 3233.2166 1100.3197 682.4818

conv2.weight f4 [64, 1, 3, 3]
00000000: f35d bb3e eb53 b1bd 4bac fcbc da4f ae3c
00000010: af30 99be 2daf 82be 9166 833e 20eb 413d
00000020: 395f a23e e05a bebe 1296 b7bd 9270 253e
00000030: 939d 793e 5dfd 54bb 8f3b 653d ce24 953e
00000040: d530 883e f09b 9f3d 8fb3 64be 1499 aebe
00000050: f4ca 22be f267 603e 78b1 db3d 486b 9fbe
00000060: aa34 81be 8af4 a23d 747c 7bbe 175a 853d
00000070: dc9b a93e 653b 2abc ad79 b4be 0459 883d
00000080: 785e 703e 9b1f 6e3e 1787 3f3e 133a 4dbe
00000090: 8823 a5bd 2b55 8b3e 9ec3 613d aa1b ad3e
000000a0: a672 8e3e 7e1b 703c bfd0 3fbb 00d3 1d3e
000000b0: c341 8abe ea56 36bd 4d60 2e3e ef4e a13d
000000c0: ddc2 43bd 4bd1 603e e1a6 83bd b9f1 62be
000000d0: 6e2d 823e 44b9 853e e955 f7bc 212a 02be
000000e0: e05a 1ebe 0c46 1b3d 0025 8abe 0466 9d3e
000000f0: ad6d 9dbe 13d9 b2be 0b76 993e 3fe3 e4bd
00000100: c894 2bbe 85e2 b2bd df61 293e 05c2 cabd
00000110: c817 e7bc 95f2 98bd 08dd a3be ab8d 5c3e
00000120: 12bb 2c3d b4ce ca3c 59d1 96be 9dd1 823e
00000130: 9c0b 97be f54f edbe 7efc 6dbe 5a9e be3e
00000140: 93a8 9abe 19c7 f1bd 8956 e23c 2166 3bbe
00000150: 1cde cc3e 0016 e53d 3eb6 703e 75ff 7d3e
00000160: de55 debb 2f78 633d 3743 8e3e 8033 0f3e
00000170: 20d6 69be c770 3fbe 3cd6 7abe bff5 ca3c
00000180: d86a 0e3e 82fc 17be 5135 723e 6cf1 1b3e
00000190: ec69 c5bd 0650 56be 1b39 023e 6d03 de3d
000001a0: e7d1 88bd d624 543d 948b adbd ec71 493e
000001b0: 9d1e 22be 999c 24bd e770 9cbc deef 8fbe
000001c0: 0678 c63d 14e3 0e3e a160 5abe 7073 2d3d
000001d0: f6b8 e43c 4d02 283d f68a 7e3e e629 3f3d
000001e0: d032 a7be 7c7f 89be 9168 2d3e eb89 f63d
000001f0: 2976 563e 4eda 4abe 699e c43d 34fe 883d
00000200: b128 8abe eb25 50be 31fe 09be 46b9 a7be
00000210: be4d 6abc a752 19bd 4095 14be 04ce aebe
00000220: 91a9 ffbd 95dd 163e 757d 84bd 3f3e 44bd
00000230: 6775 883e d3b3 153e 40ac 7b3d 012b 9f3e
00000240: 52ae d6bd 026f 623e 6004 ffbd 9293 1bbe
00000250: ed97 c13d 4af3 653e 2850 6a3e 32dc 81be
00000260: 38bc 1bbd f83a 4d3e bea5 a3be 784b a0be
00000270: d9af 57be 9265 3cbe 1c10 8dbc 0f6f 47be
00000280: 2c58 37bd f930 29be ba6b 1dbe d7b9 ac3d
00000290: d46d dabd 4dc7 bcbe 235f 0f3e 08c0 c7bd
000002a0: 022a b83e 4a1f 4c3e 3f38 6f3e 89bd fabc
000002b0: e9ce 9f3e fcf2 7c3c 1fdf de3d f9af 87be
000002c0: 8142 f6bc 8c2b 6fbe e446 9b3e 1fce 36bd
000002d0: 069e bd3d 630b f23c 1c79 40be b223 48be
000002e0: 757b 9f3e 0e36 c93d 12e5 e13d 1053 e33c
000002f0: 9d5e 8cbe 8da3 7e3e c566 a4be 9d1e a0be
00000300: 49f1 1d3e a295 8abe d24c de3b f42d 043e
00000310: 187e 35be 8acd 183e 53af 4cbe 3d4d 54be
00000320: a7dd 94bd 2350 ab3e be6b 123e e220 38be
00000330: 472f 4c3e 2f39 04bd 08fc 01be 84ea 043d
00000340: 50eb 173d 7abe 72bc 8449 1e3d ba10 59be
00000350: 7adf ac3d 5786 3dbe d303 0bbe a053 a9bd
00000360: eef5 39be c190 733e d242 01be b0b8 1ebe
00000370: 5727 59be b597 abbe 5227 863d 849c 993e
00000380: fb62 e1be 6327 9a3e f298 773e 081d 6a3d
00000390: e2e7 adbd e04e c1bd 74c4 743e afd5 d53d
000003a0: 7961 27be 4b50 503e 563f 40be 61b0 183e
000003b0: 39db bd3e dee8 80be 9829 79bd f824 5f3e
000003c0: c569 22be 4b7f 2b3e 202d c5bd 4eb3 39bd
000003d0: ab01 9e3e 54e7 ed3d 66fd 5cbe 6e37 1f3d
000003e0: 6bfd 4a3d 5c76 64be 4670 263d 1418 9f3e
000003f0: 1b8d 72be 3474 6abd b0bb e53c b180 43be
0.36595115 -0.08658584 -0.030843874 0.02127831 -0.29919955 -0.25524274 0.2566419 0.047343373
0.31713274 -0.37178707 -0.089641705 0.16156223 0.24376516 -0.003249965 0.055965003 0.29129642
0.26599756 0.077934146 -0.22334121 -0.34101164 -0.15897733 0.21914652 0.10727209 -0.31136537
-0.25235492 0.079567984 -0.24559194 0.06511324 0.33126724 -0.010390137 -0.3524908 0.066576034
0.23473537 0.23254244 0.18703876 -0.20041685 -0.08063418 0.27213416 0.055118196 0.33810169
0.27821845 0.014654992 -0.002926871 0.15412521 -0.27003297 -0.04451648 0.17028923 0.078763835
-0.047793258 0.21954839 -0.06428314 -0.22162522 0.25425285 0.2611791 -0.030192332 -0.12711383
-0.15464354 0.0379086 -0.26981354 0.30741894 -0.30747738 -0.3493124 0.29972872 -0.11176156
-0.16755974 -0.087346114 0.16541241 -0.099002875 -0.028209582 -0.07468144 -0.3200457 0.21538417
0.04217059 0.024756767 -0.29456595 0.25550547 -0.29501045 -0.46350065 -0.2324085 0.37230188
-0.30206737 -0.11805553 0.027629154 -0.18300678 0.40013206 0.11185837 0.2350702 0.2480448
-0.0067851385 0.055534538 0.27785656 0.1398449 -0.22835588 -0.18695365 -0.24495786 0.024775384
0.13907945 -0.14842418 0.23653151 0.15228814 -0.096393436 -0.20928964 0.12717097 0.10840497
-0.06680661 0.051792942 -0.08473888 0.19672364 -0.1583199 -0.040188406 -0.019096805 -0.28112692
0.096908614 0.13953811 -0.21325924 0.042346418 0.027920227 0.04101782 0.24857697 0.046670817
-0.32655954 -0.26855075 0.1693442 0.120380245 0.20943512 -0.19809839 0.09600527 0.066891104
-0.2698417 -0.20326965 -0.13475873 -0.3275854 -0.014300762 -0.03743234 -0.1451006 -0.34141552
-0.12483514 0.14732964 -0.064692415 -0.047910925 0.2665207 0.14619379 0.061443567 0.31087497
-0.10482468 0.22112659 -0.12452006 -0.15193012 0.09452806 0.22456089 0.2288214 -0.25363308
-0.038021296 0.20042026 -0.3196239 -0.31307578 -0.21063174 -0.18398121 -0.017219596 -0.19475959
-0.04476182 -0.16522588 -0.15373126 0.08433884 -0.10665479 -0.36870804 0.14001136 -0.09753424
0.3596955 0.19933811 0.233613 -0.030607956 0.31212547 0.015438791 0.10882401 -0.26501444
-0.030061008 -0.23356456 0.30327523 -0.044630166 0.09258656 0.029546445 -0.187962 -0.19544867
0.31148878 0.09824763 0.1103002 0.027749568 -0.27415934 0.24867077 -0.32109657 -0.31273356
0.15424074 -0.27067286 0.00678406 0.12908155 -0.17723882 0.14922157 -0.19988756 -0.20732589
-0.07268839 0.33459577 0.14298913 -0.17981294 0.1993991 -0.032281097 -0.12693799 0.032450214
0.037089646 -0.014815921 0.03864433 -0.21197787 0.08441062 -0.18508278 -0.13575678 -0.08267903
-0.18160221 0.23785688 -0.12623146 -0.1550014 -0.21206413 -0.3351418 0.065504685 0.30002224
-0.4402083 0.30108175 0.24179438 0.057156593 -0.08491494 -0.09438872 0.23903066 0.104411475
-0.16345777 0.2034313 -0.1877416 0.14911033 0.37081316 -0.25177664 -0.060830683 0.21791446
-0.1586066 0.16747777 -0.096277475 -0.045337014 0.30860648 0.11616388 -0.21581039 0.03887122
0.049558084 -0.22310776 0.040634416 0.31073058 -0.2368664 -0.057239726 0.028043598 -0.1909206

conv2.bias f4 [64]
00000000: 31d8 803d 0ca5 573e 6fd8 70be 072e a7bd
00000010: 3da2 a1be 3a57 19be 9ab9 3bbe 09c2 63be
00000020: 8d6e 57bd fa57 8fbc a8d1 8bbe 3ef3 593e
00000030: ad70 2cbe a02f 4ebe 1ff5 0f3e 0571 0b3e
00000040: 0dc6 233e 145a a23d 1871 9c3d f56e 09be
00000050: 408f 7bbd 51aa 263e d9da 20be 6c1f 34be
00000060: 31a2 9dbe 3d3c 713e 1246 6cbe 633e 5fbe
00000070: 3194 253e 8354 a7bd c2dd b43d c23d 793e
00000080: 2b64 27be 9497 23bd 5e8c 11be ffd4 6abe
00000090: 0598 e3bd f7b9 87bd c6dd 2bbe 883a 92bd
000000a0: ba38 573e 316d 643e 08bd 263e 7ce2 1d3c
000000b0: 86d4 9e3e 3f4f 7abe 0985 f7bc 7967 343e
000000c0: 6367 e4bd 51b8 a53e bf90 1ebe dc17 08bb
000000d0: 727f b63d a93f abbe dcb0 033e 8e48 a8bd
000000e0: a394 043e 6da8 79be f480 9ebe de7c 34be
000000f0: 233a 58be c3f6 92be 0973 d6bc d234 a93e
0.06291235 0.21059054 -0.23520063 -0.08163076 -0.3156909 -0.1497468 -0.1833252 -0.22241987
-0.052595664 -0.017498005 -0.27308393 0.21284196 -0.16839857 -0.20135355 0.1405835 0.13617332
0.15993519 0.07927337 0.076387584 -0.13421233 -0.06141591 0.16275908 -0.15708484 -0.17590111
-0.30787805 0.23558135 -0.23073605 -0.21801142 0.16169812 -0.08170416 0.088313594 0.24339965
-0.16346805 -0.039939478 -0.14213702 -0.22932814 -0.1111298 -0.06627267 -0.16783819 -0.0714007
0.21017733 0.22307278 0.16283047 0.009636518 0.31021518 -0.24444292 -0.030214803 0.17617597
-0.11152532 0.32367185 -0.15484904 -0.0020766174 0.08911027 -0.33447006 0.12860435 -0.08216964
0.12947325 -0.24380656 -0.30957758 -0.17625758 -0.21115927 -0.2870389 -0.0261779 0.3304811

bn2.weight f4 [64]
00000000: 69d2 7c3f 0263 723f e366 7b3f b11e 723f
00000010: 9062 753f 0658 773f 45eb 783f af29 6c3f
00000020: a794 8f3f a812 6d3f 8d84 763f f501 763f
00000030: 080c 713f 63b9 663f 25a3 6d3f 74d2 743f
00000040: e752 913f 74f1 763f 2790 833f 42aa 773f
00000050: 6b39 753f 8f48 833f 9f1a 6b3f cf91 833f
00000060: 80bb 803f 472c 863f 1c24 773f 9dd3 703f
00000070: 282d 6c3f b58a 843f 2a81 783f a4d3 873f
00000080: 215e 823f 4848 763f 3684 7d3f 25b5 763f
00000090: ed5c 8b3f b52a 713f 1733 893f 345d 773f
000000a0: 776d 893f d263 833f 9d77 7e3f d644 8c3f
000000b0: ef00 8c3f d543 6b3f a79f 803f 37b0 703f
000000c0: f311 8c3f 2428 963f 8a22 8c3f 3d95 743f
000000d0: 82ba 7d3f 4488 763f 58a7 843f c212 833f
000000e0: f39d 813f e50b 793f c252 863f e218 693f
000000f0: 05fa 803f 8247 713f ec77 773f 6b64 683f
0.9875856 0.94682324 0.9820387 0.9457808 0.9585352 0.9661869 0.9723399 0.92251104
1.121724 0.9260659 0.96296006 0.96096736 0.94158983 0.9012663 0.92827064 0.95633626
1.1353425 0.9646218 1.0278367 0.9674417 0.9579074 1.0256518 0.91837496 1.0278872
1.005722 1.0482262 0.96539474 0.94072896 0.922564 1.035483 0.9707209 1.0611463
1.0184976 0.9620404 0.9902986 0.96370155 1.0887734 0.9420579 1.0718716 0.9662659
1.0736531 1.0264838 0.99401265 1.0958507 1.0937785 0.9190038 1.0048722 0.9401888
1.0942978 1.1731 1.094804 0.9554022 0.99112713 0.96301675 1.0363569 1.02401
1.0126327 0.97283775 1.0494006 0.91053593 1.00763 0.9424974 0.9666736 0.90778226

bn2.bias f4 [64]
00000000: 20ef b6bc 5a59 a1bd b685 a93c 2292 4cbd
00000010: 2e4c debc f524 05bd b630 063c 61cf f1bc
00000020: 7b09 803d 9661 9ebd 9b8b 82bd 98fb 44bd
00000030: dbaf 1cbd 17ba 85bd 0c7a 9bbd 4b09 a7bd
00000040: f355 4c3e 32e8 edbc eb0f 79bb d357 a5ba
00000050: 58e7 4cbd 1f99 40bd 6ce6 73bd 4fba a6bb
00000060: e15d b13c 0810 a83d 3908 fa3c 4b35 60bd
00000070: 560f 51bd d1ca dbbb c8d7 46bc 91f7 fd3c
00000080: 0694 cd3b 64ea 60bd 169b 443d c8b6 4fbd
00000090: e5b1 6f3d 633e 01bd 6553 163d 115c 6cbd
000000a0: d055 433d 3219 fc3d 65b8 5bbd f5e4 bd3d
000000b0: 4b0a 71bd 523b 24bd c1a3 84bc 5c58 39bd
000000c0: 7d38 a9bd 9b9c 893c ef1d 04bd e56f 33bd
000000d0: cbb0 42bd ed54 99bc 0508 42bd 9baf 573d
000000e0: 3a51 65bd d907 3ebd f5cb 11bd f061 9fbd
000000f0: 4215 e6bc 346f 30bd df71 9abd 2efe 8fbd
-0.02233082 -0.078783706 0.020693641 -0.04994405 -0.027135935 -0.032505948 0.0081903245 -0.029517831
0.06251808 -0.07733457 -0.06374284 -0.0480915 -0.038253646 -0.065296344 -0.07591638 -0.08156069
0.19954662 -0.029041383 -0.0038003873 -0.0012614675 -0.050025314 -0.047021028 -0.05954592 -0.0050881277
0.02165121 0.08206183 0.030521499 -0.054738324 -0.051040016 -0.006707527 -0.012136407 0.031001838
0.0062737493 -0.054911032 0.047999464 -0.050711423 0.058519263 -0.031553637 0.036700625 -0.05770499
0.04768926 0.12309493 -0.05364265 0.09272186 -0.058847707 -0.040095635 -0.016191365 -0.04525028
-0.082627274 0.016798308 -0.03225511 -0.043807883 -0.047531884 -0.018717254 -0.04737093 0.052657705
-0.055985667 -0.046394203 -0.0355949 -0.07782352 -0.028086308 -0.0430748 -0.075412504 -0.07030903

bn2.running_mean f4 [64]
00000000: 4a1f 323e e6a9 e53e d32f dbbe 6da7 293e
00000010: f0fa 54bd 2fbe 4e3d 347f a2be b31f d6be
00000020: baba c4be 4c23 fb3d 0dc7 a4be 3880 7e3e
00000030: d024 acbe 69be 62be ee7d 48bd cbaf 933e
00000040: 758d 413e b892 70be 3c43 3a3e cefe 81bd
00000050: 3dc0 4dbd 03d5 dd3c 8546 99be dc9f 9bbe
00000060: e470 efbe c877 d23e faa7 56be 1d92 903d
00000070: ca01 a3bd 34ef 60be 0179 c13e 68cb 383d
00000080: f2f5 3fbe 4e42 543e 9393 c5bd 8e7f ae3c
00000090: ef71 4abc f80b 51be 7480 97bc 0fbf 1fbd
000000a0: 8dc4 803e 32f2 87bd d8a8 3c3d a7eb 63bd
000000b0: ad00 c03e 40a1 a3be 190a e4bd f7d4 8a3e
000000c0: d5da bdbd 0c39 1c3e 6b99 36be 653f 323d
000000d0: 5d4c 9d3d ee09 fabe 2ab6 f03d 6651 5dbe
000000e0: 2f15 663e d629 5abd 662b 78be 1492 cfbe
000000f0: dff7 87be c2ae 36bd 3909 213d 9607 053f
0.17394748 0.44856185 -0.42809924 0.16567774 -0.051997125 0.050474342 -0.31737673 -0.4182106
-0.3842371 0.12262592 -0.32183114 0.24853599 -0.33621836 -0.22142948 -0.04894822 0.28845057
0.18901618 -0.23493469 0.1818971 -0.06347428 -0.05023216 0.027079111 -0.29936615 -0.303954
-0.46765816 0.4110701 -0.20962515 0.07059119 -0.079593256 -0.21966249 0.3778763 0.04511586
-0.18746164 0.20728418 -0.09647288 0.021301057 -0.012356265 -0.20414722 -0.018493868 -0.039000567
0.25149956 -0.06637992 0.04605946 -0.055644657 0.37500516 -0.3195896 -0.111347385 0.27115604
-0.092702545 0.15256137 -0.17831962 0.04351749 0.07680581 -0.488357 0.11753495 -0.21613082
0.22469018 -0.053262554 -0.24235305 -0.40541136 -0.26556298 -0.044600256 0.039315436 0.519647

bn2.running_var f4 [64]
00000000: 6829 983d 00e4 0f3d cfef 373e ce70 523e
00000010: 0d3f 023e 702a 623d 7ed0 f43e 4c6d 523e
00000020: e295 f03d 0acf f93c 7a62 5c3d 8ff9 4f3d
00000030: f191 973d 5ec4 bb3d 70d9 203e 88b3 2e3e
00000040: 674b 8a3b f49d d63d 1019 f13c 971f 913d
00000050: 95d0 523e 34a3 963d d870 cd3d a3d2 463d
00000060: 614a b33d bd22 a43c 66fa 203d 6234 073e
00000070: 7d27 ad3e b55c dd3d 7f69 b63d 309d a73d
00000080: dfcb 363d bf84 7f3d 67f4 133d f38a 3d3e
00000090: 2140 813c edd8 153e ab80 9d3c 830c e03c
000000a0: fd2b 003d a399 fc3d 451a 453c 12ee 9d3c
000000b0: 93ae 863c 840d 0b3e 2504 6f3c a838 183d
000000c0: 7b5c 913b e1e6 b03d 2681 6c3c b968 c13e
000000d0: de37 ed3b 454f aa3d 9aa4 ac3c 7eeb b43d
000000e0: 0348 193c 0956 023e 1224 7e3c b6e4 223e
000000f0: 5c7b 713d 5bd0 983e 43f8 ea3d 613c a53c
0.074297726 0.035129547 0.17962573 0.20550844 0.12719364 0.055216253 0.47815317 0.20549506
0.11747338 0.030494232 0.053804852 0.050775107 0.07400883 0.091683134 0.15707946 0.17060673
0.0042204144 0.10479346 0.029430896 0.070861034 0.2058738 0.07355347 0.10031289 0.048540723
0.08754421 0.020036096 0.0393013 0.13203576 0.3381919 0.10808698 0.089068405 0.08184278
0.04462802 0.062382456 0.036121752 0.18510036 0.01577765 0.14633532 0.019226393 0.027349716
0.03129195 0.123339914 0.012030189 0.01927856 0.016440665 0.13579375 0.0145883905 0.037163407
0.0044360734 0.08637787 0.014435088 0.3777521 0.007239326 0.08315901 0.021074582 0.08833979
0.009355548 0.12728132 0.0155115295 0.15907559 0.058955535 0.29846463 0.114731334 0.020170392

conv3.weight f4 [64, 64, 1, 1]
00000000: 72f0 aa3d fdee eebd d876 a43c ca78 b0bd
00000010: 559b 3f3d 5af0 39bc 6a0b d1bb ac7a 90bd
00000020: 59ac 62bd 6ff1 8c3d 2aa8 e6bd 702e eabd
00000030: c71f 433c 29a0 9ebd b500 c1bd e861 1fbd
00000040: e4ad d2bd c3aa 9c3d 066c 283e b2b2 b6bd
00000050: 5cbd 2ebd 17de 37bd 261e 9b3d 2152 c43d
00000060: 3231 83bd 5a25 bf3d dc85 a03d 0853 763d
00000070: 875a 753d 7f28 f03d 6f16 303d 461b e0bd
00000080: 740b 9f3d 05fe 4b3d 4483 eb3d 7b5b 193c
00000090: 06c4 7e3c c45e 123e 0d0b 093d 70aa 383d
000000a0: 1d2e 973d b51a 29bd 9148 cbbd 88dd 5e3c
000000b0: 7e99 593b c8e1 613d 4427 96bc 6f1b 563d
000000c0: c693 4fbe 4167 b83d 0a56 f83d 74fb 8e3d
000000d0: 8489 c1bc 862f b63d f209 883d fe0e 55bd
000000e0: 778b 15bd e6e7 dbbc 1317 20bd e166 663d
000000f0: 1e8d 46bd 8c28 58bd c63f b23d 45fb 8d3d
00000100: fe4b cabb 3ae9 8f3d 085f 243e d38a fd3c
00000110: fd16 663d 5244 7abc 95e8 c3bc 9316 02bc
00000120: 688c bb3d 2f00 c63d 269a f43d bff3 c73d
00000130: b91c f5bc 58db 313d cf34 083e 7155 d9bd
00000140: 1a43 bebd 8f12 cebd 959d 0a3e 3265 69bd
00000150: 5f71 d1bc 4bfb 9bbc 4e86 033e 92f3 11bc
00000160: ce32 95bb f038 98bd 182b e1bc 085d 583d
00000170: c933 073e efe3 4a3d 49c6 f73b f392 82bc
00000180: 5739 f63c 5556 a9bd 1759 1e3d 25e2 9fbd
00000190: 853e 9b3c 16ed cc3d c231 01bd c364 233e
000001a0: 3798 683a 51cd 813d 6ddd adbd 755a 413e
000001b0: 6c9a 803e d869 56bc 4350 b63c 1eb8 00bd
000001c0: e45d f2bd 4a33 32be 7882 cdbd 9691 8e3c
000001d0: f3fd ffbc 417f c53b c896 fb3b f9cc 60be
000001e0: c67c 60bd 8c02 eb3d c0e5 303c b20d 2c3d
000001f0: fe64 c83c 3d25 3dbd f439 3a3d ee78 ab3d
00000200: 7c30 e13c 37a7 cebd 61b8 953d b2ac 31be
00000210: ab7a 19bd 5e5d 903d 78f0 febd 1f04 7d3d
00000220: 9002 a43d 52aa 423d a322 82bd eeae 023e
00000230: e3ed 9bb5 0b9a c6bc d55c 7c3c 7133 91b9
00000240: 0000 083d 3a71 22be 84fd 883d 7100 6e3c
00000250: 80d9 abbd 5364 99bd 63f9 57bd b50f 47be
00000260: aad5 5e3d e969 a6bc e57b b63d 8307 17be
00000270: 1cd3 343c 0b12 ca3d 7482 0e3e d12f d7bd
00000280: 2c7b 07bd e01c 2b3d 2a55 acbd 0156 a83d
00000290: 47f8 513d 7ac5 f03d 4592 353e 68ed a03c
000002a0: 7886 133e 33fb 5fbd b134 9cbd 19f3 3c3c
000002b0: 7c93 333e 309b 2a3b ded9 3c3d fcab 1fbd
000002c0: b7bc 1abe bf80 5abb 2fe3 cebd e412 c43b
000002d0: 20cd 2c3d ae40 833d efc9 673d 3329 0f3e
000002e0: 7f3c 6dbd 2369 403d 4200 cc3d 8d69 efbd
000002f0: 75ee d0bd e27b 1f3d b314 cb3d 5114 293d
00000300: 5cae f23d e810 08be 072e 8f3d 6de0 b73d
00000310: eb02 183e 55d9 cc3d fb88 d23d f319 23bd
00000320: 39ab 363d 7d99 ecbd 0657 d8bd 4e5c 3a3d
00000330: bb5e c53d e7f4 833d 9e57 c8bc 230c e43d
00000340: 64c0 023d 918f d33d 33c6 a93d eada f63d
00000350: 32c4 073e 9dd4 cc3d 07df f2bc c6f2 6d3d
00000360: 9e00 273e 0b7f 14bd b570 293d b920 acbd
00000370: d1c6 c2bd 9bbd febd 433d 443e 536f 0e3e
00000380: 8bf7 16bd f094 133e 20c6 ddbd 5515 df3d
00000390: 352d a8bd be48 27bd e0e3 083e 1cca e6bd
000003a0: 70e6 2f3d 8b3c fdbc c4a8 fc3c 0645 cfbd
000003b0: 164a c1bd 2248 e93d d55e 833d a2e3 0d3d
000003c0: d4f5 bebd 18c6 b93d 45f8 963d a3f6 b53d
000003d0: ad87 d8bd aeb9 d53c 5f05 c23d be78 93bc
000003e0: 8c11 893c 396d 6dbd 2fc7 7cbd ed89 443d
000003f0: ac3c e43d 9aa2 e5bc 50fb 163e b7c9 9ebc
0.083466426 -0.11666677 0.0200762 -0.08616789 0.046778996 -0.011348808 -0.0063795345 -0.07054648
-0.055340145 0.06881987 -0.112625435 -0.114346385 0.011909432 -0.07745392 -0.09423963 -0.03891173
-0.10287073 0.07649758 0.16447458 -0.08920802 -0.042661056 -0.044889536 0.0757411 0.09585977
-0.06405868 0.09333296 0.07838032 0.06013778 0.059900787 0.11726474 0.042990144 -0.10942702
0.077658564 0.0498028 0.11499646 0.00936019 0.015549665 0.14293963 0.033457804 0.045084417
0.07381842 -0.041285235 -0.0992595 0.013602622 0.003320306 0.055146962 -0.01832927 0.052272256
-0.20271215 0.09004069 0.12125786 0.069815546 -0.023625143 0.08895783 0.06642522 -0.05201625
-0.036509957 -0.026843976 -0.039084505 0.056250457 -0.048474424 -0.052773044 0.0870357 0.069326915
-0.0061736098 0.07026906 0.16051877 0.030949986 0.056174267 -0.015275078 -0.023914615 -0.007939952
0.0915764 0.09668004 0.11943464 0.09763288 -0.029920923 0.043422073 0.13301395 -0.10612
-0.09290142 -0.100621335 0.13536675 -0.056981273 -0.025566755 -0.019040724 0.12844202 -0.008908169
-0.0045531755 -0.07432735 -0.027486369 0.052823097 0.13203348 0.04953378 0.007561479 -0.015939211
0.030056639 -0.0826842 0.03865918 -0.078068055 0.01895071 0.10006158 -0.031541593 0.15956406
0.00088727794 0.06337989 -0.08489499 0.18882163 0.25117815 -0.013086759 0.022255069 -0.031425588
-0.118343145 -0.17402378 -0.100346506 0.017403405 -0.031249022 0.0060271327 0.0076778866 -0.21953191
-0.054806493 0.11475095 0.010796964 0.04200525 0.02446222 -0.04617809 0.045465425 0.08372675
0.02748894 -0.100904875 0.07310558 -0.17351034 -0.0374705 0.070490584 -0.124482095 0.06177151
0.08008301 0.04752571 -0.06354263 0.12762043 -1.1617634e-06 -0.024243375 0.015402992 -0.00027694882
0.033203125 -0.15863505 0.06688979 0.014526472 -0.08391094 -0.074898385 -0.052728068 -0.19439586
0.054402985 -0.020314174 0.0891035 -0.14748959 0.0110366605 0.09866723 0.13916951 -0.10507167
-0.03307645 0.041775584 -0.08414681 0.08219529 0.051262166 0.11756416 0.17731579 0.019644454
0.14406765 -0.05468292 -0.076272376 0.011532568 0.1753673 0.002603244 0.04610621 -0.038982376
-0.15111051 -0.0033340899 -0.101019256 0.0059836973 0.04218781 0.06408821 0.056589063 0.1398056
-0.05791902 0.046975266 0.09960987 -0.11690054 -0.10201732 0.038936503 0.099160574 0.04127914
0.11849663 -0.13287699 0.06991201 0.08978353 0.14844863 0.1000239 0.10280033 -0.03981967
0.044596884 -0.11552713 -0.105634734 0.045498185 0.09637209 0.06443196 -0.024455842 0.111351274
0.03192176 0.103301175 0.082897566 0.12053473 0.13258436 0.1000149 -0.029647363 0.058092855
0.16308829 -0.03625397 0.04136725 -0.08404679 -0.095105775 -0.12438508 0.19163994 0.13909654
-0.03685717 0.14412284 -0.10828805 0.10892741 -0.082117476 -0.040840857 0.13368177 -0.11269018
0.04294437 -0.030912658 0.030842192 -0.10120587 -0.09437959 0.11390711 0.06414572 0.034640916
-0.09324232 0.090709865 0.073715724 0.08884933 -0.10572753 0.026089516 0.09473681 -0.01800191
0.016732 -0.05796549 -0.061713394 0.0479831 0.11144385 -0.028031636 0.14744306 -0.019383295

conv3.bias f4 [64]
00000000: a145 c9bd 76d6 7c3d 1063 fa3c d612 a7bd
00000010: 63f3 943d acbf 153e e05f 843d e35b 063d
00000020: 3f3f 6abd dc36 933c 2a80 1abd f204 04bd
00000030: f6de bbbd 7d60 683d 77ea 9d3b aba8 19ba
00000040: b81b a4bd f15a e83d 4982 633d 21ec 25bd
00000050: 292c a9bc 384e debc b072 a8bd d8e9 c5bd
00000060: 4bf6 afbd aa00 843c 8d35 ed3d 43e3 763d
00000070: b710 1a3d bcd7 b23c a18e 823d f2e1 7c3c
00000080: ca1f cd3d f9b0 ca3d 4ae2 03be f283 be3d
00000090: c19f 303d 180d 94bd b5d2 013e ac0e df3d
000000a0: 6b2c 9bbd 81a6 fc3d 9a76 3fbd 4e47 a5bd
000000b0: 0b0b 89bc 857a 8fbc b9e0 4d3d 3cef 24bd
000000c0: 1210 913c 8692 c83c b51a 923c 617f 613c
000000d0: a828 ba3d 5214 433c f186 593c 5ed0 b63d
000000e0: cf21 ae3c ae9f 773d b54b 8a3d 4b47 edbd
000000f0: bb03 1bbc 0c68 f3bd 14e2 f43d 80ee a1bd
-0.09827734 0.061727963 0.030564815 -0.081578895 0.07272985 0.14623898 0.06463599 0.032802474
-0.057189222 0.017970495 -0.037719883 -0.03223128 -0.09173386 0.056732643 0.00481921 -0.00058616203
-0.080130994 0.11345471 0.05554417 -0.040508393 -0.02065094 -0.027136907 -0.08225 -0.09663743
-0.085918985 0.016113598 0.115824796 0.060275327 0.037613597 0.021831386 0.063748606 0.015434729
0.10015829 0.09897036 -0.12879291 0.0930251 0.043121103 -0.0722906 0.12678035 0.1089147
-0.075768314 0.123364456 -0.046743967 -0.08070241 -0.016728899 -0.017514477 0.05026314 -0.040267214
0.017707858 0.02448393 0.017835 0.01376328 0.09089786 0.0119067 0.013276801 0.08926462
0.021256356 0.060455017 0.06752721 -0.11585864 -0.009461339 -0.1188508 0.119571835 -0.079068184

bn3.weight f4 [64]
00000000: b945 6c3f 5a43 703f 2d03 803f 8ea8 7f3f
00000010: a51c 863f bc0f 743f e9e5 733f 02b9 683f
00000020: 7512 6f3f 84fa 853f df98 833f bbad 803f
00000030: 91b6 843f 5cd1 863f 4abf 923f 9bae 833f
00000040: 0a30 803f 078e 8a3f 65a1 823f 2a5c 7c3f
00000050: 62dd 7d3f 0aeb 733f 078d 8d3f 4b5c 803f
00000060: 32ec 883f 3c86 783f b791 873f 77f5 7c3f
00000070: 79c7 6d3f bb1e 6e3f a53b 883f 1c90 813f
00000080: 2b88 7d3f 6c3c 843f 530c 7e3f a95a 8f3f
00000090: bf97 8c3f 4f8b 663f af78 883f 7d2e 873f
000000a0: 51c9 7b3f cfe9 8f3f e0a3 843f 945d 863f
000000b0: d4a7 7d3f b1e6 803f 66f2 8a3f e9e4 803f
000000c0: 1ca6 893f f2d6 8f3f 09d4 8d3f 215b 6b3f
000000d0: 03a4 813f 2d6a 893f 126d 843f 3816 8b3f
000000e0: 39de 5f3f 7635 753f d59f 663f 1030 903f
000000f0: aac5 833f 121b 813f 602d 903f 1423 893f
0.9229389 0.9385277 1.0000969 0.9986657 1.0477492 0.9533651 0.9527269 0.909073
0.9338754 1.0467076 1.0281028 1.0053018 1.0368215 1.0532641 1.1464627 1.028766
1.001466 1.0824593 1.0205504 0.9857813 0.9916593 0.95280516 1.1058663 1.0028166
1.0697081 0.97079825 1.0591344 0.9881205 0.92882496 0.9301564 1.0643202 1.0122104
0.990359 1.0330939 0.99237555 1.1199542 1.0983809 0.9005632 1.066183 1.0561062
0.9835406 1.1243228 1.0362511 1.0497308 0.9908421 1.0070401 1.0855224 1.0069858
1.0753818 1.1237471 1.1080333 0.91935927 1.0128177 1.0735527 1.0345786 1.0866156
0.8744846 0.957847 0.90087634 1.1264668 1.0294697 1.0086386 1.1263847 1.071383

bn3.bias f4 [64]
00000000: 875e b2bd 17f1 b4bd a560 853d 3014 29bd
00000010: 1d29 c83c 1d99 cabd f53f 9abd 8796 ccbd
00000020: 5a56 9fbd 3d98 e4bc 980a 52bd a84a 253d
00000030: 432e 703c ea7e 703c d63d 99bc 6682 47bd
00000040: 1839 cd3c 141d 93bc f915 0b3d b833 7cbd
00000050: dd74 3e3d db84 853d 1f3b d0bc fb2c 17bd
00000060: 0c0a 8e3b 0649 58bd 0cc5 c6bc 9a8d 4a3d
00000070: 84c1 bcbd a23b bfbd 6d47 41bc 26d1 303d
00000080: 62d1 0c3d 1c6f cabc ed43 5a3d 79ff 1cbc
00000090: 5bb7 51bd cfb0 e2bd 23fe 123d e5a6 91bb
000000a0: a44f 8e3d c6ce 70bc e8c7 6c3c c7a0 d53c
000000b0: 9c79 63bd 3382 4ebd 7c53 c4bc de58 81bd
000000c0: a65e b6bc d2f5 c638 a798 a7bc 31f5 f1bd
000000d0: 2496 20bd 5560 ce3b 5c1b 1fbd cb63 cf3c
000000e0: 2b8c e7bd 2537 7bbd b110 d3bd 6873 853c
000000f0: 240c 073d 2a57 cabc abb9 8d3c 6591 20bd
-0.08709436 -0.08835047 0.06512574 -0.041279018 0.024433667 -0.09892485 -0.0753173 -0.09989648
-0.07780142 -0.027904624 -0.051279634 0.0403544 0.014659467 0.014678696 -0.018706243 -0.048708342
0.025051638 -0.017958201 0.0339565 -0.06157276 0.04649817 0.06519481 -0.025418816 -0.03690813
0.004334694 -0.052804016 -0.024263881 0.049451448 -0.09216598 -0.09337546 -0.011796814 0.04316821
0.03437937 -0.024711184 0.053287435 -0.009582394 -0.051200252 -0.1106888 0.035886895 -0.004444944
0.06948784 -0.014697736 0.014451958 0.026077641 -0.055535898 -0.050417136 -0.02396559 -0.06315778
-0.022261929 9.487163e-05 -0.020458532 -0.11814345 -0.039205685 0.0062981048 -0.03884445 0.02531614
-0.11306032 -0.061331887 -0.10305918 0.016290382 0.032970563 -0.024699766 0.017300447 -0.03920116

bn3.running_mean f4 [64]
00000000: f186 a03d ed85 a03e 4162 433e 05bb 053f
00000010: 9d8f 1fbe 4653 8a3e 5a08 fa3b c928 f2bd
00000020: 80c4 28be 7033 d3be c2f1 ad3c 28f0 87bd
00000030: 99de 38bc f410 2fbe 696b 21bb 481c 80be
00000040: 4fed a3ba 6e42 623e 56ef d7bd 6d50 78bd
00000050: beb2 18bf 1b00 bbbe 19ad 77be a5f9 03be
00000060: 21c4 87be 3269 9dbe 8071 b2be bb8c 833d
00000070: 2e9c 7a3d ae6a e8bd 0253 783e edc5 47be
00000080: d63a e23b 9027 923e 5471 b7be e14a f03e
00000090: 0bb5 1f3e 0ac3 babd f176 853c 265a 243f
000000a0: a4bf e8be 0e89 11be 52dc 363c e391 a9be
000000b0: ad50 ddbe 7f1e 1a3e f10a d23e e953 913e
000000c0: 128c 18be b853 2e3d f91d 84be caaf 66bd
000000d0: f603 623e 4eeb 133e 434b 343d 9702 463e
000000e0: 4562 be3e a42b 263d f8ab 5dbb ce46 c7bd
000000f0: 4e7a ba3d bb6e a4be 2ec4 5dbe b2dd d53d
0.07838238 0.31352177 0.1908045 0.52238494 -0.15582128 0.27016658 0.00763039 -0.118241854
-0.16481209 -0.4125018 0.021233443 -0.06637603 -0.01128354 -0.17096311 -0.0024630672 -0.25021577
-0.0012506637 0.22095653 -0.105436966 -0.060623575 -0.5964774 -0.36523518 -0.24187125 -0.128882
-0.26516822 -0.3074432 -0.3485222 0.064233266 0.0611841 -0.113484725 0.24250415 -0.19509096
0.0069039864 0.2854581 -0.3582865 0.46932128 0.15596406 -0.09119232 0.016292067 0.64200056
-0.4545871 -0.14212438 0.011160927 -0.33119115 -0.43225613 0.15050696 0.41023973 0.2838433
-0.14897183 0.04256031 -0.25804117 -0.05631999 0.22071823 0.1444523 0.044017088 0.19336925
0.3718435 0.040568963 -0.0033824425 -0.09730302 0.09105359 -0.3211573 -0.21656868 0.10442676

bn3.running_var f4 [64]
00000000: 31de 9b3d ec5c 173e cc12 063f 52d7 553e
00000010: 76e8 413e 2d1c 1d3e 4704 1c3e 120a 153e
00000020: a52a df3d e8d9 fb3d 22d0 af3d b380 233e
00000030: 3d28 793e 5fdd 4d3e 41f7 003e 7b07 743e
00000040: 5d65 083e 2cc5 2c3e 36a1 1b3e 5a07 623e
00000050: 60f5 443e 37d2 5e3e 7d3f 2d3e fe03 b33e
00000060: 4a00 473e cdb0 d03e a72a 4d3e 829e 983e
00000070: efe3 2a3e e1e0 163e f69e da3d 90ed 733e
00000080: 7645 d23d e338 433e f006 663e f927 b63d
00000090: da70 0b3e 3e39 183e 1998 6a3e f46f 803e
000000a0: 97a8 ac3e d738 1e3e 47fd 7c3e bb72 583e
000000b0: ac45 103e affc d23d 594a 343e 9231 833e
000000c0: 82b7 5a3e a16e 453e 493c 6d3e 7f2b 2c3e
000000d0: 9440 553e 34c8 9d3e 49d2 913e 8ad3 223e
000000e0: 3491 3f3e a670 f93d fa03 d63d 5317 253e
000000f0: d14d fb3d 70ed eb3d 8542 ad3e a6b8 243e
0.07610739 0.1478154 0.5237243 0.2088292 0.18936333 0.1534278 0.15236007 0.14554623
0.10896806 0.12297422 0.0858462 0.15967064 0.24331756 0.20103978 0.1259432 0.23830979
0.13319917 0.1687209 0.15198216 0.22073117 0.19234228 0.21759878 0.1691875 0.34963983
0.19433704 0.40759888 0.20035802 0.29808432 0.16688512 0.14734222 0.10674851 0.23821092
0.10267155 0.1906467 0.22463584 0.08894343 0.13617268 0.14865586 0.22909583 0.25085413
0.33722374 0.1545137 0.24705993 0.21137516 0.14089078 0.10302102 0.17606486 0.25623757
0.21359065 0.19280483 0.23167528 0.16813467 0.20825416 0.30816805 0.28480747 0.15901008
0.18707734 0.12179689 0.10449977 0.16122179 0.12270702 0.11519897 0.33839813 0.16086063

conv4.weight f4 [64, 1, 3, 3]
00000000: 94d7 efbd b7a7 e7bd 6f94 3ebe 1890 33be
00000010: a4cf 6fbd fe08 b1bd 5b1b 0abe 96db e13d
00000020: 54b4 48be bd6d 7cbe c4b8 83be 1e11 a2be
00000030: db0c 14be 59fa 683e 92e1 adbd 72fc d5bd
00000040: b81b 483e 1677 66be eff7 82be 7fe9 993d
00000050: 122b b93c 2326 b3be 41ff f53d 7e5b 63be
00000060: 5a3c 8c3e a63b 963e 79cb 6cbe bafa 9dbe
00000070: 0941 b5be 8402 83be 6200 923e c3fd 6cbc
00000080: 2f59 f93d a549 a2ba af70 d1be f728 f13d
00000090: 51f1 92be 01e7 40be 7146 6b3e 9170 7bbe
000000a0: 24a2 7a3d 7ddc 963e 0ba9 863e c92e 263d
000000b0: a635 d8bd e308 22be 0176 80be a22f 4e3e
000000c0: 547f a33d c643 47be 8cc1 333e c0a9 33be
000000d0: f4cb ae3e a3e8 1abd 953c 393b 1d4a df3d
000000e0: bbd9 82bd a18e ad3e 14bf 73be 11ea 5a3e
000000f0: 80be c23d f200 193e 70e2 113d e3ea 85be
00000100: ba33 223d 5f21 243e 3d46 233e 17c5 22be
00000110: db70 da3d 74df a33e 877d ee3c 5d2b 0ebe
00000120: f9e5 973d 7cdd a73e 18ae 5f3e 0278 203c
00000130: 859f 6e3e 0e29 3b3e 44ee 783e f5b9 f7bd
00000140: ebe7 f7bd 0abc 123d 4d40 413d a41e f7bd
00000150: 775d 033e 2a2a 67be 6b7c 7a3d 79da 35bd
00000160: 919e a7bd dbb8 d13d 4350 81be 1c8c 6cbe
00000170: b8b6 b13e b63f 133e 599d 5bbe 6f1c b93e
00000180: 97d2 20be abbe 983e 7cf3 a1bd d363 2b3e
00000190: 0a64 7f3e 98d7 a43e 0d4c 6c3e fc3d 25be
000001a0: 4827 9d3e 5686 8e3e d500 413e 9b36 1e3d
000001b0: 7f97 d0be 72d0 6ebe f5f8 2dbe fec6 523e
000001c0: f977 24bd f7e6 5d3e 149b 003e 7c3a 523d
000001d0: f85d 89be 514b ac3e 1590 d43d 8036 5bbe
000001e0: cb8a 783e 94db 6f3e ce27 88be 8b78 373e
000001f0: bbe9 0abe 2643 cabd 8970 83bc f16d 8a3d
00000200: f54c 2abe 3b3d 8a3d 5650 5c3e 0643 693e
00000210: 9c57 883e b681 b73c 03b5 a83e 5831 7ebe
00000220: ce85 ca3c 2626 763e e2a7 d1bd 5687 e4ba
00000230: 545c f0bd 9283 a33e 32e0 8e3d 846e 81bd
00000240: cecc 09be dfd5 0cbf a50e dabd 3f94 873e
00000250: 0f15 58be 832d 283d bd3a a3bd c7e3 36be
00000260: 8328 023e 43d0 90be fe10 0bbe 694e b6bd
00000270: 3d1c b1bd 803f 2dbe d6af 2cbd d831 903e
00000280: 3a9e 1fbe 9627 b6be 9ae1 623b 6e5e 483e
00000290: 802d a0be 3348 70be e554 43be 954c ee3d
000002a0: 5b3d 11be 6efa 403e 8f72 873d 7f72 05bd
000002b0: 3c4d 163e f6ec 333e d501 54be d274 723d
000002c0: f81b 14be 1166 70be c847 d83a e67d f5bd
000002d0: b20a 8c3d 7090 b43e bc38 28bd 2c9a 9dbe
000002e0: db5f 893e abf7 debd 597c 8dbe 27b8 1b3e
000002f0: 3fcd 7d3c bdc1 0b3b 6804 933e 4d2e 1b3e
00000300: 3cb5 633e 62b0 ec3a 6cea 2a3e a3c0 17bd
00000310: b228 bebe 2ed9 06be 6336 f93c 3a91 63be
00000320: da65 f0bc 0d25 81be aa7d ad3d a1f8 0a3e
00000330: c43c 90be bfc2 2d3e 1c18 2f3e d319 5dbe
00000340: 7903 bebd bd65 313e 07e4 e13d e0e0 adbe
00000350: 8419 dd3d ef8b 183e a53a c0bd e4d0 56be
00000360: 6dae 8dbe 9658 313e 03d0 4b3e 4af8 d5bd
00000370: c997 aa3d 04ea 0e3d 73ff 5e3e 4789 2cbd
00000380: 59f2 a3bd 5f84 4e3c 468c 84be 2640 9abd
00000390: 414d ae3b 80c9 863e d1df 563e c6fd b2be
000003a0: 4eaa 353e 371f acbe eab6 773e 674b 58be
000003b0: 5b12 323e d7dd ca3d 4851 4ebe c830 073e
000003c0: fb84 733e 2e60 41bd 9624 403e e97f 7ebe
000003d0: 6de8 183e 718c 6a3e 0d41 33be 1322 653d
000003e0: 103e 43be c24e 943e b5e9 a93d 07e4 cf3d
000003f0: 0750 84bd d901 9ebe 5401 803e 953b fbbd
-0.1171104 -0.11311286 -0.1861131 -0.17535436 -0.05854763 -0.08644293 -0.13486998 0.11028211
-0.1960004 -0.24651237 -0.25726902 -0.31653684 -0.14458029 0.2275175 -0.0849029 -0.10448541
0.19541824 -0.22506365 -0.25579783 0.07515239 0.022603545 -0.34990034 0.120115764 -0.2220287
0.27389795 0.29342383 -0.23124494 -0.30855352 -0.3540118 -0.25587857 0.28515917 -0.014464798
0.121752135 -0.0012381567 -0.40906283 0.117753915 -0.28699735 -0.18838121 0.2297609 -0.2455466
0.061189786 0.29465094 0.26300845 0.04057196 -0.105571076 -0.15823703 -0.2509003 0.20135358
0.0798327 -0.19459447 0.17554301 -0.17545223 0.3413998 -0.037819516 0.002826487 0.10902808
-0.06389185 0.3389788 -0.2380336 0.21378352 0.09508991 0.14941767 0.03561634 -0.26155767
0.03960011 0.16028355 0.15944763 -0.15895496 0.10666057 0.3200642 0.02911259 -0.1388373
0.07416911 0.32786167 0.21843755 0.009794237 0.2330304 0.1827738 0.24309641 -0.12096015
-0.12104782 0.03582386 0.047180463 -0.12066391 0.12828623 -0.22574678 0.06115381 -0.044397805
-0.08184541 0.102403365 -0.25256547 -0.23100322 0.34709716 0.14379773 -0.21446742 0.36154506
-0.15705334 0.29832968 -0.07907769 0.16737299 0.24940506 0.32195735 0.23075886 -0.16136926
0.30694032 0.27836865 0.18847974 0.038626295 -0.40740582 -0.23321703 -0.16989501 0.20583722
-0.040153477 0.21670137 0.12559158 0.051325306 -0.26829505 0.33651212 0.10379044 -0.21407509
0.24271695 0.23423606 -0.2659287 0.17917077 -0.13565724 -0.09876089 -0.016044872 0.06759251
-0.1663092 0.0674996 0.2151502 0.22779474 0.2662934 0.022400718 0.329506 -0.2482351
0.024722006 0.2403799 -0.10237099 -0.0017435353 -0.1173636 0.31936318 0.069763556 -0.06319907
-0.13457033 -0.5501384 -0.106473245 0.2648029 -0.21101783 0.04105903 -0.07970188 -0.17860328
0.12710766 -0.2828389 -0.13580701 -0.08901674 -0.08647964 -0.16918755 -0.042159878 0.28163028
-0.15587702 -0.35577077 0.0034619332 0.19567272 -0.31284714 -0.23465042 -0.19075353 0.116357006
-0.14183562 0.18845531 0.06613647 -0.032579895 0.146779 0.17570862 -0.20703824 0.05919344
-0.14463794 -0.23476435 0.0016500885 -0.11986904 0.068379775 0.35266447 -0.04106973 -0.30781686
0.26830944 -0.10887083 -0.27633932 0.15206967 0.015490829 0.0021325194 0.287143 0.15154381
0.22237104 0.0018057937 0.16690987 -0.037048947 -0.37140423 -0.13168785 0.030421441 -0.22223368
-0.029345442 -0.2522358 0.08471234 0.13571407 -0.2817136 0.16968821 0.17099041 -0.21591882
-0.09278006 0.17323966 0.11029821 -0.33960629 0.10795882 0.1489713 -0.093861856 -0.20978123
-0.2767214 0.17318949 0.19903569 -0.10447748 0.08329732 0.034891143 0.21777134 -0.042123105
-0.080052085 0.012604802 -0.2588827 -0.075317666 0.005319268 0.26325607 0.20983817 -0.3495924
0.17740747 -0.33617565 0.2419087 -0.21122514 0.17389815 0.09905594 -0.20148194 0.13202202
0.23781197 -0.047210865 0.18763956 -0.24853481 0.14932413 0.22905137 -0.17505284 0.0559407
-0.19066644 0.28966337 0.08296529 0.10150915 -0.064605765 -0.30860785 0.25001013 -0.12267224

conv4.bias f4 [64]
00000000: e296 89bd acf5 02be 0f93 b8bd c363 64be
00000010: e26e 9fbe ed9d 26bc 59a1 83be 20c2 7c3e
00000020: 2769 263b 00c7 8d3e 8875 473e c5f0 7e3c
00000030: 55ac 80be b8f6 473b ea28 eabd 6049 0fbe
00000040: 0c6f 17be 1e8e a6be 13fb bc3d fe10 8bbe
00000050: a2fd 123e 9172 a0bd 68c3 e9bd cc32 ac3e
00000060: 185e 4b3e bf61 5b3a 3908 483e 95b4 8d3e
00000070: 3ae6 a1be cc37 963e 7645 903d 8c96 453d
00000080: 46dd d53d 7898 933d 0d30 92be 4a38 773c
00000090: a9e8 3a3e b3fe e2bd b9f5 a53e b49e 91be
000000a0: 409f 673e 291f d2bc c023 17be 611e 09be
000000b0: 29bd 8a3e ecd6 633d 2cca d63d f148 b63d
000000c0: c33b 113e 9e88 263e 531b 92bd 4a75 81be
000000d0: 197e d03d d8a0 393e 1d46 883e 91bb 16bd
000000e0: 6333 033e ce5c 553d 5561 7dbe 82c2 a1be
000000f0: 8d75 573c 05d3 893e 05f4 393e 2f13 a4be
-0.06718232 -0.12789029 -0.09012424 -0.22303681 -0.31139284 -0.010169488 -0.25709036 0.24683428
0.0025392266 0.27690887 0.19478428 0.015560334 -0.2513148 0.0030512046 -0.11433585 -0.13992834
-0.14788455 -0.32530302 0.09227576 -0.27161402 0.14354566 -0.07834352 -0.11414224 0.33632505
0.19860113 0.00083687523 0.19534387 0.27676836 -0.3162096 0.29339445 0.070444986 0.048239276
0.10442595 0.072068155 -0.28552285 0.015089104 0.18252815 -0.11083736 0.32414034 -0.28441393
0.22619343 -0.025649624 -0.14759731 -0.13390495 0.27097443 0.055624887 0.1048778 0.08900631
0.14182954 0.16263053 -0.07134118 -0.25284797 0.10180301 0.18127763 0.26615992 -0.03679997
0.12812571 0.05209046 -0.2474416 -0.3159371 0.013150585 0.26918808 0.18159492 -0.32045886
