models/trained_models/dscnn_mfcc/model.pth (torch_old, 110035 bytes, 56 tensors)

conv1.weight f4 [64, 1, 10, 4]
00000000: a775 303e 6443 bdbd ee76 0dbe e955 18bc
00000010: b9e2 4a3e fe8e 80bd ee0b 42bc b57e 363e
00000020: 2153 833e 49b0 8f3d aeb4 70be 42f2 473d
00000030: b780 c83d f3f8 53bd 2d5b 9dbd 3829 68bd
00000040: f352 1b3e 524d 6bbe 9e89 63be 2d16 093d
00000050: aff6 053e 529f 983c f9b2 a6be 604d 2bbd
00000060: 1f3b 12be 122b 07be 2297 20be b8c6 933d
00000070: 8f6d f33d a6d7 9cbd 0aa8 2b3e cac8 623c
00000080: cbbc 5abc 20d9 44be 5b64 023d 4210 953d
00000090: 0f40 09be 2243 cdbb e007 a93e bfa2 12be
000000a0: 977a a53d 857b b23e 03d2 593e 04ce d63d
000000b0: d466 ee3c 6227 a3bd ff41 283d dd1d 873e
000000c0: a042 a2bd 25d6 35be 0715 0f3d 23d8 5a3d
000000d0: 2c45 2ebd f183 48be f052 87be 988c 803d
000000e0: 2e6b a6bd e6d7 e9bb be52 edbd 7131 46be
000000f0: 3c9e a23c ccfe 4e3e 43a6 7b3d 0d67 d0bd
00000100: ad5a 5cbd f581 ec3d 72f4 673e 1d1f 0cbd
00000110: e752 113c 8b3f 20be 01eb d13e e287 083e
00000120: 5caf ff3d 7189 11bc c3db 613d 8345 d83d
00000130: 334f 383d 1fd7 04be 9487 003e 67e8 b5bd
00000140: a79d 143c 41fb 643e 335f 583b 256d 4bbd
00000150: f133 11be 51bb 29bd 3c9b 13be 17c1 e93d
00000160: bb8b edbc eb15 85be ea9a aa3d 759c 60bc
00000170: 5739 513d a24f afbe f227 23bd 1f21 ebbc
00000180: 5bcc 1cbd ceb4 02bf e754 4fbe cf7f ca3d
00000190: 4e3f 6fbd 0e64 80be ae83 33bd decf d7bd
000001a0: 2b3b 3cbe ad51 273e 2768 a3be 54f2 0d3e
000001b0: 1d2f 19be 57c4 b6bd 79ab 2abe c97a 5abd
000001c0: 90eb 87bd 7b58 f1bd 29c9 3cbe ccd0 46bd
000001d0: d390 be3d 114c 5dbe 7415 29be c9fa ffbd
000001e0: 170e aabd 34ae 993c 0a00 0ebe e599 2dbd
000001f0: cf57 d8bd bf12 113e 0622 03be 8298 593d
00000200: 5bdd 0b3e 22bb 1f3e 6f11 adbd 12e9 51bd
00000210: 0fb3 b03d 81d5 e63d 66f3 2abe 98a1 a1be
00000220: fa6e 803d 4bd5 16be 4c72 8cbe 803b 97be
00000230: 91b2 10be 4c3c 22be 3ad2 1ebf e91d e73c
00000240: cc2e c1bd a6be 973d db26 853c 2a61 37be
00000250: 0485 033e 8a27 c4bd 1f14 eebd 4ee3 48be
00000260: d4c7 b0bd 3568 61be 4c01 00bd b362 32be
00000270: 3d64 34be b60d 41be b82f 3dbd 9371 62bd
00000280: 7d28 e2bc 76d2 0f3e ccd8 6ebb 362f 4fbe
00000290: 8bcd b5bc 7e70 4d3e ab4c 3b3d 13f9 6cbc
000002a0: 68fc dd3d 7f94 5c3e 3e01 3b3d 761c ca3d
000002b0: 8998 24bd adb1 f1bc 44e7 9d3d 51a7 d43d
000002c0: 499d 3bbe ff39 733d ebe4 62be 0bc8 3d3e
000002d0: 8194 20be 5cfd 7dbe 4aee 88be 92dd 13bc
000002e0: 9725 febc 4f3c 01be 19a8 11bd 49b3 b2bd
000002f0: 7654 e6bd fc5b 76be 98fb bd3d b161 703d
00000300: 5794 193d 7f0a f23d fd3d 2cbe 47a3 c6bd
00000310: f8ab 06be 6d3e 373e 1213 533c dbe8 9f3b
00000320: 30c8 6abe 72ed 96bd ced5 993d 8dfc 093d
00000330: 723e a9bd 1d5e e1bd f4c4 fbbd e4b9 203e
00000340: faee bfbc 6ed6 20be 8aac 06bd a85f 423e
00000350: 093f 91bd 0f24 eebc c1ad e6bc 2924 4b3e
00000360: 77f6 b93d bb4b 09be 7091 343e 631d a6bc
00000370: 5442 403e 678c ddbb d65d bbbd 97b7 0a3e
00000380: cfdc 113e 3db6 0bbe ea4e 3e3d 07ed 883e
00000390: ad67 6e3e 6f80 db3d f63c e8bc b223 863e
000003a0: d3f3 043e 17b0 603c c106 a5bc a484 d2bc
000003b0: 3ef7 2c3e 47b8 36be fe81 f3bd a466 5cbc
000003c0: 9aab 813d 5939 923d a050 313e 7789 3ebe
000003d0: 0593 c33c 93d0 2e3e e944 9bbd 212b 583d
000003e0: 9618 65bd a625 243e 00f7 33be 5fc7 6dbe
000003f0: f67b 1fbe 79cc 313b 2132 0dbe 2de4 cbbd
0.17232381 -0.09241369 -0.138149 -0.009297826 0.1981305 -0.062772736 -0.011843665 0.17821772
0.2564936 0.070160456 -0.23506424 0.04881502 0.097901754 -0.05175109 -0.07683406 -0.056679934
0.15168361 -0.22978714 -0.22220466 0.033468414 0.13082384 0.018630657 -0.3255842 -0.041821837
-0.14280365 -0.13200024 -0.15682653 0.07215637 0.11886131 -0.07658319 0.1676332 0.013841817
-0.013350676 -0.19223452 0.031833988 0.072784916 -0.13403343 -0.0062641064 0.3301382 -0.14319895
0.08080023 0.34859863 0.2127152 0.10488513 0.029101767 -0.07966496 0.041078564 0.2638997
-0.07922864 -0.17757471 0.034932163 0.05342878 -0.042546436 -0.19581582 -0.26430464 0.06276816
-0.08125912 -0.007136333 -0.115880474 -0.19354798 0.019850843 0.20214385 0.061437856 -0.101759054
-0.053797413 0.11548225 0.22651842 -0.03420936 0.008869863 -0.1564924 0.40999606 0.13333085
0.12484619 -0.008882866 0.05514122 0.10560133 0.044997405 -0.12972687 0.12551719 -0.08882218
0.00907079 0.22361471 0.0033015728 -0.049664635 -0.1417997 -0.041438404 -0.14414686 0.11413782
-0.028997293 -0.25993285 0.08330329 -0.013709177 0.051080074 -0.34240443 -0.039833017 -0.028702317
-0.038280826 -0.51057136 -0.20247231 0.09887659 -0.05840998 -0.25076336 -0.04382675 -0.105376944
-0.18381946 0.1633975 -0.319154 0.13861972 -0.14959379 -0.089241676 -0.16666974 -0.053339753
-0.06636727 -0.117844544 -0.18436112 -0.048538968 0.09304967 -0.21611048 -0.1651209 -0.12499005
-0.08303469 0.018759824 -0.13867202 -0.042383093 -0.10563623 0.14167307 -0.12805948 0.05312396
0.13658659 0.15598729 -0.08450591 -0.051247664 0.08627903 0.112711914 -0.16694412 -0.315686
0.06271167 -0.14729802 -0.27430952 -0.29537582 -0.14130618 -0.15843314 -0.6203953 0.028212504
-0.09432754 0.0740941 0.01625388 -0.17908159 0.1284371 -0.09577854 -0.116249315 -0.1961796
-0.08631864 -0.22012408 -0.031251237 -0.17420463 -0.17616363 -0.18852887 -0.046188086 -0.055284094
-0.027607197 0.14045128 -0.003644514 -0.20232853 -0.022192737 0.20062444 0.045727413 -0.014463681
0.10839158 0.21541022 0.04565548 0.0986871 -0.04018453 -0.029503668 0.07710126 0.103834756
-0.18321718 0.05938148 -0.22157638 0.18533342 -0.1568165 -0.2480368 -0.267443 -0.009024994
-0.031023784 -0.12620662 -0.0355607 -0.08725602 -0.112465784 -0.24058527 0.09276503 0.058686916
0.037494984 0.11818408 -0.16820522 -0.096991114 -0.13151538 0.17894907 0.012882965 0.0048800535
-0.22927928 -0.07369508 0.07511483 0.033688117 -0.082638636 -0.11004279 -0.12293425 0.15695912
-0.023429383 -0.15706798 -0.03287939 0.18981802 -0.07092101 -0.029069928 -0.028159024 0.19838013
0.090802126 -0.13407795 0.17633605 -0.020277685 0.18775302 -0.006761122 -0.09148757 0.13546596
0.14244388 -0.13643737 0.046461977 0.26743338 0.23281737 0.10717856 -0.028349381 0.26199108
0.12983637 0.013713858 -0.020144822 -0.025698014 0.1689119 -0.17843734 -0.118900284 -0.013452206
0.063315585 0.071398444 0.17315912 -0.18607126 0.023873815 0.17071752 -0.07581503 0.052775506
-0.05593165 0.16029987 -0.17574692 -0.23220585 -0.15574631 0.0027129932 -0.13788654 -0.099556305

conv1.bias f4 [64]
00000000: 49f5 443d 9bf1 823b cc3e 0ebd 7010 a4bd
00000010: 550d 1e3d d602 fd3d fd7d 17be 786d 63bd
00000020: 4e16 003e 1832 11bd 4f13 0ebe fe9a 523d
00000030: 8f81 2cbd 5b62 1f3e cd5e 4cbd 8500 2c3d
00000040: 67ea 89bd 8d37 753d 95c0 9a3d 9390 143e
00000050: 75af dd3d 4dd6 18be 36eb b63d faaf 03bd
00000060: 7b85 5cbd cee0 27bd 5092 0d3e ad84 5ebc
00000070: 000b 013e b217 62bd a306 0abe b6fb 903d
00000080: 18e6 1a3e 57f7 7ebd d7cd 12be 8821 0f3c
00000090: 97f8 0cbe 38da 1ebd 89e9 81bd c1ee 9b3d
000000a0: 747c 18be 9d31 d43d 2d21 41bd 6a7e cc3d
000000b0: b0f7 333d 4c1c e8bd 81df 1d3e 6eac 8fbc
000000c0: 2c66 8b3d 32c5 de3c f77f 203c 3cfd 8e3d
000000d0: 95c9 21bd d29b ba3d 50a4 4fbd eabf d63d
000000e0: dad6 ed3d 0581 9a3d 391d 7f3d 161c 0e3e
000000f0: 2001 5cbd 3150 523d 9a84 d53d 0f0d 3b3d
0.048085485 0.003996087 -0.034727857 -0.08010948 0.038586933 0.123540565 -0.14794154 -0.05552432
0.12508509 -0.035448164 -0.13874553 0.051417343 -0.042115744 0.15564863 -0.049895097 0.041992683
-0.06734162 0.05986743 0.07556263 0.14508276 0.108244814 -0.149255 0.08931582 -0.032150246
-0.053838234 -0.040985875 0.13825345 -0.013581437 0.12601852 -0.05519838 -0.13479094 0.0707926
0.15126836 -0.0622476 -0.14336334 0.008736022 -0.13766704 -0.03878233 -0.063433714 0.07613898
-0.14891225 0.103610255 -0.04715078 0.09985049 0.043937385 -0.11333522 0.15417291 -0.017538276
0.06806597 0.02719364 0.009796134 0.069818944 -0.039498884 0.091117516 -0.05069381 0.104858235
0.11613245 0.0754414 0.06228373 0.13877901 -0.05371201 0.051346008 0.10425682 0.04566675

bn1.weight f4 [64]
00000000: 2473 853f 07b0 843f ac3b 913f abdb 883f
00000010: 4c8b 4e3f 7dfd 673f 4f9c 9c3f fd88 7d3f
00000020: 504a 863f c240 873f 6cba 593f 375e cb3f
00000030: 3872 5a3f 78fc 923f b9f7 613f aab6 5f3f
00000040: 5693 9b3f 76f8 933f f036 9f3f 67e3 9b3f
00000050: 27cc 843f a44e 793f 61a3 923f f3df a93f
00000060: c566 763f e9d8 663f aa96 483f 0b30 953f
00000070: 57e6 7f3f 519f bb3f 2c11 803f 86ff a23f
00000080: e595 6b3f 46c9 c53f 8988 803f b900 813f
00000090: ac6a 733f c7dd 483f 2901 5b3f 5f0b 8a3f
000000a0: 9eba 4c3f b2bc 653f 697f 603f 0fb0 c83f
000000b0: e168 593f ffee 6c3f 0d9c b53f 4849 893f
000000c0: ecbb 353f 7627 823f 579d 4f3f 4790 9b3f
000000d0: 12f3 783f 01b6 5c3f 94cf 773f 876e 893f
000000e0: 300b 453f bd94 7d3f 8719 5d3f 7b15 893f
000000f0: bf2e b23f caae 893f 7a27 713f 2884 6e3f
1.0425763 1.0366219 1.1346335 1.0692037 0.806813 0.9062117 1.2235202 0.9903715
1.0491428 1.0566638 0.8505008 1.5888127 0.85330534 1.1483297 0.8826862 0.873881
1.2154338 1.1560199 1.243864 1.2178773 1.0374802 0.9738562 1.1456109 1.3271469
0.96250564 0.9017473 0.78354895 1.1655287 0.99960846 1.4657995 1.000524 1.273423
0.92025596 1.5452049 1.0041667 1.0078346 0.95084643 0.78463405 0.85548645 1.078472
0.79972255 0.8974105 0.8769441 1.5678729 0.8492566 0.9255218 1.4188248 1.0725489
0.7098987 1.0168293 0.81099457 1.2153405 0.97245896 0.86215216 0.96801114 1.0736855
0.76970196 0.9905508 0.86367077 1.070968 1.3920516 1.0756466 0.9420086 0.93170404

bn1.bias f4 [64]
00000000: 0ed3 bdbd 3be7 9f3d 13bf d3bc 3e73 313d
00000010: 292b 50be e21d 0dbe 62e1 9bbc c065 cebd
00000020: 7efc a2bd 32b2 c4bc 6f2f 42be 44f8 17bb
00000030: e22f 3cbe b627 aabd 8965 1bbe c746 39be
00000040: 4c69 6abd 78fe 23bd 0632 373c 92a2 cc3c
00000050: a5da 0b3e 6dbd 93bd fd96 763c 1d94 a23c
00000060: 1374 93bd 1eb3 22be 1cda 67be 7150 c53c
00000070: 817d d1bd a0dc c03c aa36 11be 21b5 303d
00000080: df47 27be e0d4 8dbc c8e3 05be 4bcd 44bd
00000090: c651 1cbe a324 59be 8a89 5fbe 15f3 79bd
000000a0: 0e4b 76be 6d00 253e a631 2cbe 7411 2cbd
000000b0: c76b 46be 1763 01be 2934 d6bc 574d 513d
000000c0: 3868 9bbe addd 02be e8a4 60be 1f0c a0bd
000000d0: 160b edbd 570c 78be 37de dcbd c178 aebd
000000e0: 5025 84be d8f5 00be 71d7 49be 8b4a 57bd
000000f0: 5737 2cbd 68e7 3f3d a00a d4bd a850 33be
-0.09268771 0.078077756 -0.025847947 0.043322794 -0.20328964 -0.1378093 -0.01902837 -0.10078001
-0.07958315 -0.024010751 -0.18963407 -0.002318875 -0.18377641 -0.083083555 -0.15175451 -0.18093406
-0.057229325 -0.040037602 0.01118136 0.024979863 0.13657625 -0.072138645 0.015050647 0.019846017
-0.07199874 -0.1588864 -0.22641796 0.024086209 -0.10229016 0.023542702 -0.14181009 0.043141488
-0.1633601 -0.01731342 -0.13075173 -0.048047345 -0.15265569 -0.21205382 -0.2182981 -0.061022837
-0.24052069 0.16113444 -0.16815814 -0.042008832 -0.19377051 -0.12635456 -0.026147919 0.051099148
-0.3035295 -0.12779875 -0.21937907 -0.07814812 -0.1157438 -0.24223457 -0.107845716 -0.08519126
-0.25809717 -0.12593782 -0.1971109 -0.052561324 -0.042044964 0.046851546 -0.10353589 -0.17511237

bn1.running_mean f4 [64]
00000000: 6871 82c2 4b21 e442 394d bac3 05f7 bbc3
00000010: 68c2 9ec2 34f2 9142 5c52 bac3 572c b8c2
00000020: 71f5 8742 b009 8443 a58d a0c2 c321 87c2
00000030: be73 a042 2202 b8c3 cf46 ccc2 ea17 5dc3
00000040: f7f2 b443 e947 7543 a477 a241 bf34 dfc2
00000050: 54d0 7a43 a692 12c2 a2b7 cfc3 3919 0642
00000060: d889 9443 5407 bd41 fe60 1143 32de 0a43
00000070: 0df0 b3c3 1bc0 ffc2 9004 4f42 7a36 1442
00000080: 6225 7b43 fa38 9f43 3d4d fcc2 f3ff 84c3
00000090: 1443 13c3 f798 97c3 edd9 b042 c486 7242
000000a0: 18f3 a641 174b d1c2 f70d 8f42 9e21 a242
000000b0: 14f7 fd42 de59 85c3 02f5 43bf 9bd4 2b41
000000c0: f6db bb42 93de d141 d287 0142 5851 9442
000000d0: efac 1543 4d65 8742 d888 85c2 c4e7 2642
000000e0: c201 a842 8c63 21c3 3892 bc42 ef97 84c3
000000f0: 06e5 51c3 e123 80c3 6370 83c3 05cc 0b43
-65.2215 114.065025 -372.6033 -375.92984 -79.3797 72.97305 -372.64343 -92.0866
67.97938 264.07568 -80.27665 -67.56594 80.22606 -368.01666 -102.1383 -221.09341
361.89816 245.2809 20.308418 -111.60302 250.81378 -36.64321 -415.43463 33.52463
297.0769 23.628578 145.37888 138.86795 -359.8754 -127.875206 51.754456 37.0532
251.14603 318.44513 -126.150856 -265.9996 -147.26202 -303.19504 88.42564 60.631607
20.868698 -104.64666 71.527275 81.06566 126.982574 -266.7021 -0.7654573 10.739406
93.92961 26.233679 32.382637 74.158875 149.67552 67.69785 -66.76727 41.726334
84.00343 -161.38885 94.28558 -265.18698 -209.89462 -256.2803 -262.87802 139.79695

bn1.running_var f4 [64]
00000000: d071 b244 ceca 9a44 0622 8645 777b aa45
00000010: e19e 9a44 85e5 6e45 1e39 f145 82ee 8f45
00000020: 0e8a 4445 de36 bb45 1788 da43 f476 e644
00000030: d722 f144 7e60 0145 cbc0 1245 f68a 4445
00000040: a6e7 c245 8d0e 7145 3411 3d44 1c40 0746
00000050: 1068 8445 381a 1b45 e12c 3746 a61f ce45
00000060: f921 e345 72a7 0044 353c 0d45 b0ac b145
00000070: 66c8 4b45 238c fd44 670e f343 1dd4 d244
00000080: 5ed8 8745 17b6 0345 c6ec 7245 0323 8645
00000090: d7e1 7244 d62d 5045 07c8 0145 a849 4444
000000a0: 8ec8 e043 b617 1244 abfa b644 410e 9345
000000b0: 606f 6a44 0dea 2645 6ebe 9545 ed78 0b45
000000c0: faf9 a344 f950 9c45 2993 1d44 87a2 c345
000000d0: 4d1e 2e44 b4ac e744 cca8 0f45 5017 bf44
000000e0: dc89 6645 ba92 a945 e518 b344 a0e4 9445
000000f0: facb 8d44 3664 c745 84a7 8845 75a4 8b44
1427.5566 1238.3376 4292.253 5455.433 1236.965 3822.345 7719.1396 4605.8135
3144.6284 5990.8584 437.0632 1843.7173 1929.0887 2070.0308 2348.0496 3144.685
6236.956 3856.9094 756.2688 8656.027 4237.008 2481.6387 11723.22 6595.956
7268.2466 514.61633 2259.763 5685.586 3260.525 2028.3793 486.11252 1686.6285
4347.046 2107.3806 3886.7983 4292.3765 971.52875 3330.8647 2076.5017 785.1509
449.56683 584.3705 1463.8334 4705.7817 937.74023 2670.6282 4791.8037 2231.5579
1311.8118 5002.1216 630.2994 6260.316 696.47345 1853.397 2298.5498 1528.7285
3688.6162 5426.341 1432.778 4764.578 1134.3743 6380.5264 4372.9395 1117.1393

conv2.weight f4 [64, 1, 3, 3]
00000000: b0ac ea3e 7863 21be de6a 4fbd 2f6c 203e
00000010: 92ed acbe ce82 85be 90f0 383e a802 dbbc
00000020: 3391 973e 24fb d7be 7399 cebd a017 483e
00000030: 0716 693e 89d1 f6bd 0b69 2fbd ff01 883e
00000040: 9954 a63e d4ba 293d 9934 38be cdf6 a7be
00000050: 575a 8cbd 1dfc 8f3e 8028 0a3e 7005 dabe
00000060: 225a 41be c485 473e bf7a 7abe 9054 b33d
00000070: 74a0 f33e f958 1b3c 481e b7be ff91 693c
00000080: 0e20 323e 1776 8e3e debe 213e d9b7 83be
00000090: 6ef6 17be 9d52 b53e daa5 edbd 1bb4 b13e
000000a0: a12e 963e 2557 f5bd 8fbe a1bc 02f8 613c
000000b0: ee2b 85be 803a 183c c007 853e 4ee2 a03d
000000c0: cf2c 003c 1a5a be3e b59d 8ebd a2ae 66be
000000d0: 543d a13e 95bd 453e 12fa 6c3b 3da5 2ebe
000000e0: 9423 16be 0074 fe3d 741a a2be 60b5 983e
000000f0: 74b7 9dbe 0fe2 dcbe 5f34 8b3e 4772 54be
00000100: d1d1 95be 6aae 87bd df6d 853d d2a5 70be
00000110: e34c f3bc d1fd 04be 3e6a efbe c0cd 4e3e
00000120: 924c 163c 076a 7bbd c8f1 21be a6d3 8d3e
00000130: baf2 abbe 189c f4be 610a 70be 7a06 d73e
00000140: 3593 96be 8f3c 33be b90e ff3a d87b 51be
00000150: a84c 0b3f 8cc3 803d 25d0 4c3e f278 8b3e
00000160: 9651 ccbd 1e30 a2bc 2f9b ac3e febd 8e3d
00000170: 3fdf 9bbe b1e2 4bbe e4a6 65be 4970 9d3d
00000180: 399f a43d eef4 47be ac85 723e 550b 7a3e
00000190: 6f73 c8bc 13ae 7dbe 541f 283e 7dcc 063e
000001a0: b555 b7bd e8e8 833d 536a ddbd bf6a 3b3e
000001b0: dac3 5dbe 8ff5 a7bd 224b f1bc 09d4 b6be
000001c0: 2cb1 803d 4385 113e d8fa 6abe 8957 8b3d
000001d0: c6e4 413e 5ca4 143e 91e0 a33e 86fc 71bd
000001e0: fb4e 6abe 6422 8abe ccb1 ae3d 3551 0c3e
000001f0: cb55 473e bae7 b8be 86c8 213e 88d0 bc3d
00000200: eda0 58be a100 46be 877e 12be 02ee aebe
00000210: 12e6 4ebc 2f35 d4bd bae4 88be 98aa 97be
00000220: 9038 73bd 358e 623e 5762 22be 87aa 84bd
00000230: 6388 a23e 918e 083e 20f5 6f3d e8aa b13e
00000240: 0562 09be 2eb4 7c3e 4a58 98bd 906f 25be
00000250: d75f a73d 2d64 4c3e ddda 8d3e 1eba 95be
00000260: dc33 93bd a75a 803e 3a9a 81be 814f acbe
00000270: ebeb 58be 0c0e 7dbe 9c96 993d 0c54 76be
00000280: a9d0 293d 4548 313c 65d5 75bd 0025 123d
00000290: 05a8 8ebd 021f d6be 9677 ed3d ef80 2bbe
000002a0: 431b df3e f886 963d 1518 853e 6699 593c
000002b0: a1fd e33e ced5 8e3c d4ca df3d 8792 8bbe
000002c0: 24f4 913c 65e0 4bbe 0610 9d3e c3d5 01be
000002d0: 675f 30bc 8934 973c b49c 9dbe 03a2 35be
000002e0: 8184 aa3e e60b 163d 87c4 833c c341 40bd
000002f0: de7e 9abe 7760 483e 66df a4be 601c afbe
00000300: 8ed5 5c3e a9cc 9fbe f676 6c3d fa85 143e
00000310: 531e 18be c27e 713e 3590 b2be 1c1f 7ebe
00000320: 8bd9 0bbe 73fc a83e 40fa 063e 77d4 4fbe
00000330: 0b8f 603e 91c1 3e3b 9d03 04be 627b 723d
00000340: 3dad 423d 026c c0bd c9b6 29bd 78bd 94be
00000350: 72cc 573e 41b7 54be 2690 22be 6ed2 1b3e
00000360: 5f12 a0be 780a 2c3e 3992 64bd 5966 0ebe
00000370: e219 56be 20d6 a8be 8566 643d 81f1 a33e
00000380: 08ad fdbe 459d 943e 0f1e 903e 1091 02bd
00000390: 6182 f9bd 54a2 3cbe ed18 b93e cd8b ca3d
000003a0: c2ba 1abe e2d7 003e 1a11 08bd 51b2 bc3d
000003b0: 148d 193f 37d5 8bbe 42d8 fabd 36e9 523e
000003c0: 4254 b8bd 7f28 eb3d 0e36 f7bd 9725 01be
000003d0: 9b3b bb3e c559 e53d 6b05 debd a477 bf3d
000003e0: b051 4b3d 01ea 8fbe 06a2 9c3d 1894 993e
000003f0: c59d 77be 2b76 cbbd 6953 0d3d b388 5cbe
0.45834875 -0.157606 -0.050639026 0.15666269 -0.33775002 -0.2607636 0.18060517 -0.026734665
0.29602966 -0.42183793 -0.10087862 0.19540262 0.22762309 -0.120516844 -0.042824786 0.26564023
0.32486418 0.04143794 -0.17988814 -0.32805482 -0.068531685 0.28122035 0.13492012 -0.42582273
-0.18882039 0.19484621 -0.24460886 0.087563634 0.47583354 0.009481662 -0.3576529 0.014256
0.1739504 0.2782447 0.15795466 -0.25726202 -0.14840099 0.3541459 -0.11603899 0.34707722
0.2933245 -0.11979512 -0.019744186 0.01379204 -0.26010078 0.009291291 0.25982475 0.07855664
0.007823183 0.37178117 -0.06963674 -0.22527555 0.31492102 0.19310601 0.0036159796 -0.17055221
-0.1466201 0.12424469 -0.31660807 0.29825878 -0.30804026 -0.4314122 0.27188393 -0.20746718
-0.2926164 -0.06625064 0.06515097 -0.23500755 -0.029699748 -0.12987448 -0.46760744 0.20195675
0.009173529 -0.061380412 -0.15814888 0.27700537 -0.33583623 -0.4777534 -0.23441459 0.4199713
-0.29409185 -0.1750357 0.0019459344 -0.20457399 0.54413843 0.062872976 0.20001276 0.2724071
-0.09976499 -0.019798335 0.33712146 0.06969832 -0.3044376 -0.19910695 -0.22426945 0.07687432
0.08038182 -0.19527027 0.23683804 0.24418385 -0.024469106 -0.24773435 0.164182 0.13163944
-0.08951894 0.06440908 -0.10811295 0.18302439 -0.21656743 -0.082011335 -0.029454771 -0.35708645
0.06283793 0.14210992 -0.22947252 0.068038054 0.18934926 0.14515823 0.32007268 -0.059078716
-0.22881691 -0.26979363 0.08530006 0.13702853 0.19466321 -0.36114293 0.1579915 0.09219462
-0.21155138 -0.19336177 -0.14306079 -0.3416596 -0.012628095 -0.103617065 -0.26737005 -0.2962234
-0.059380114 0.2212456 -0.15857826 -0.06477838 0.3174468 0.13335635 0.05858338 0.34700704
-0.13416298 0.24678108 -0.07438715 -0.16155839 0.08172577 0.19960089 0.27706042 -0.2924356
-0.07187626 0.25069162 -0.25312978 -0.33654407 -0.21183746 -0.2471239 0.074994296 -0.24055499
0.04145876 0.010820453 -0.060017962 0.035679817 -0.06965641 -0.41820532 0.11595075 -0.16748403
0.43575487 0.07349962 0.25994936 0.013281202 0.4452944 0.017435934 0.10927358 -0.2726023
0.01781661 -0.19909818 0.30676287 -0.126792 -0.010764933 0.018457668 -0.30783617 -0.17737584
0.33304217 0.03663244 0.016084922 -0.046937715 -0.30174917 0.19568048 -0.3220169 -0.34201336
0.2156584 -0.3121083 0.057730637 0.14504233 -0.14855318 0.2358351 -0.34875646 -0.24816555
-0.13657205 0.33005103 0.131814 -0.20295893 0.21929567 0.0029107074 -0.12892003 0.0591997
0.047528494 -0.09395601 -0.041434083 -0.29050803 0.21074083 -0.20773031 -0.15875301 0.15216991
-0.31264016 0.16800869 -0.05580351 -0.1390623 -0.20908311 -0.32975864 0.055761833 0.3202019
-0.49546075 0.29026237 0.28147933 -0.031876624 -0.12183071 -0.18421298 0.3615183 0.09889946
-0.15110305 0.12582353 -0.033219434 0.09213699 0.59980893 -0.27311108 -0.12248279 0.20596775
-0.09000446 0.114823334 -0.12070857 -0.12611996 0.36568913 0.11198763 -0.10840877 0.093489915
0.04963845 -0.28108218 0.07648091 0.299958 -0.24181278 -0.09934648 0.034503374 -0.21536522

conv2.bias f4 [64]
00000000: 02b5 4e3d 189b 813e 3c60 84be d9cc abbd
00000010: a0d2 90be 503e 03be b993 29be 7045 70be
00000020: 0765 12bd d380 063b 52f3 8ebe 94f2 623e
00000030: e7c0 fcbd ffb5 6bbe ade2 173e 42f4 033e
00000040: 41c5 153e 7e66 5d3d c0e2 363d 74f7 dfbd
00000050: 9a85 93bd f8ec 613e 71a4 03be 35bb 20be
00000060: 199e 89be 64fc 963e c616 6dbe 937e 55be
00000070: 0a23 1e3e dba0 c3bd 7278 f23d 2792 883e
00000080: fe02 26be e236 ebbc 2c43 d4bd d38a 71be
00000090: d74b 2fbe 0017 92bd a202 4bbe 135f 77bd
000000a0: 89de 333e 6dd0 163e cfe9 263e 7074 32bd
000000b0: 9599 9f3e 15c9 81be 301f 74bd f31d 173e
000000c0: ec25 34be 8d92 ad3e 1375 71be da63 4c3c
000000d0: 5e37 e93d 8c05 a6be dac0 733e 223c 8bbd
000000e0: 1fc0 663e 8e6c 3fbe 7146 90be b3b1 00be
000000f0: 0bf5 27be b7da 91be 6740 b4bc 5068 913e
0.05046559 0.2531364 -0.2585467 -0.08388681 -0.28285694 -0.12816739 -0.16560258 -0.23463988
-0.03574088 0.0020523563 -0.27920014 0.22162849 -0.12341481 -0.23018645 0.14832564 0.12886146
0.14626028 0.054052822 0.04464984 -0.1093587 -0.07203217 0.22063053 -0.12855698 -0.15696414
-0.2687843 0.29489434 -0.23153219 -0.20849065 0.15443054 -0.09552165 0.11839379 0.26674005
-0.16212079 -0.028712694 -0.103643745 -0.23588113 -0.17118774 -0.07133293 -0.19825223 -0.060393404
0.17565359 0.14727946 0.16300128 -0.043568075 0.3117186 -0.25348726 -0.059600055 0.14757518
-0.17592591 0.33900872 -0.23579817 0.012474978 0.113875136 -0.32426107 0.23804036 -0.06798579
0.22534226 -0.18693754 -0.28178743 -0.12567787 -0.1640207 -0.2848718 -0.022003366 0.28399897

bn2.weight f4 [64]
00000000: c155 803f 7a1d 723f 85a5 813f f862 693f
00000010: b3e5 623f 650a 623f 2221 5c3f e848 3e3f
00000020: 8b49 a23f 5756 3e3f e138 743f 97cb 6c3f
00000030: 8a0a 573f 8c95 5c3f 60b4 483f eadb 613f
00000040: a964 a13f 9312 763f 9bb7 853f 0444 643f
00000050: 4343 603f da42 833f c3eb 413f 5e82 9b3f
00000060: d02a 673f 7507 8a3f 7359 723f 5517 433f
00000070: adb3 5c3f ea6d 713f 3a9c 6e3f c958 8d3f
00000080: bcaa 723f ef18 733f 58c5 703f cd55 503f
00000090: 74bf 8e3f 17b8 663f 4d36 a23f 8abe 5c3f
000000a0: bf82 8d3f 54ef 7f3f 194d 8f3f f949 883f
000000b0: 2c09 8e3f e2b7 553f 75a2 8f3f d674 593f
000000c0: 3df4 993f 12e2 a93f 0e1f 993f 40ec 563f
000000d0: e812 853f f231 563f ddb3 8c3f a323 893f
000000e0: 7724 873f 2b43 733f 36ec 7a3f 87f6 3a3f
000000f0: f420 8a3f af76 523f 7f64 623f 4c51 5c3f
1.002617 0.9457623 1.0128638 0.9116664 0.88631743 0.8829711 0.85988057 0.74329996
1.2678694 0.74350494 0.9539929 0.92498153 0.84000456 0.8616569 0.7840023 0.8822619
1.2608844 0.9612209 1.0446657 0.89166284 0.87602633 1.0254776 0.7575037 1.214916
0.902997 1.0783526 0.9466774 0.76207477 0.86211663 0.9430834 0.9320713 1.104272
0.9479177 0.9495992 0.9405112 0.8138092 1.1152177 0.9012465 1.2672821 0.8622824
1.1055526 0.9997456 1.1195403 1.0647575 1.1096549 0.8348371 1.1221453 0.849439
1.2027661 1.3272116 1.1962602 0.8395424 1.0396395 0.8366996 1.099239 1.0714
1.0558003 0.95024365 0.9801668 0.7303242 1.0791306 0.82212347 0.88434595 0.8606155

bn2.bias f4 [64]
00000000: 4421 43bd a70a c1bd 2141 03bc 2b0a c3bd
00000010: f3f7 d8bd 231d 66bd 0913 7abd b2cf 10be
00000020: 75db fa3d 2b3d 16be 66b0 6cbd d5ca 9dbb
00000030: b97f 1abe bb19 07be 736f 41be 1e47 5dbe
00000040: 9af8 d13e c2e2 e7bd c545 083e 9056 08bd
00000050: 2c11 b7bd 4335 c0bd 6475 f8bd b5e0 ad3d
00000060: 1265 19be 683a af3d c04c 7bbd 5038 49be
00000070: 5a14 c3bd 1a8b 62bd cf75 e6bd f16d 2d3d
00000080: cdc9 5cbd 7047 48be a2fb 023e 6717 16be
00000090: fd64 d53d 25eb 8abd 01cf a83d 40a6 e2bc
000000a0: 90de 33bd 92df 6d3e 5c5f 15be 6ca3 423e
000000b0: c39a b9bc 14ff f6bd dddc 0b3d 4157 b2bd
000000c0: 2c2e bbbd 6ea1 0d3e 697a 48bd 2e8c 23be
000000d0: 50a7 5f3d 117c 5fbe 7756 24bd f7d8 b73d
000000e0: 23b9 d1bd 8c20 f7bd 17bb 41be 8be9 65be
000000f0: 3028 16bc cade 0dbe 1e62 f2bd 25c5 80be
-0.047639146 -0.0942586 -0.008011133 -0.09523424 -0.105941676 -0.05618013 -0.06105331 -0.1414173
0.12248889 -0.14671771 -0.057785414 -0.004815439 -0.15087785 -0.13193409 -0.18890171 -0.2160916
0.4100998 -0.113225475 0.13307865 -0.033285677 -0.08938822 -0.09385159 -0.121317655 0.08490125
-0.14979962 0.08556062 -0.06135249 -0.19650388 -0.09525366 -0.05530844 -0.11252939 0.042341176
-0.05390339 -0.19558501 0.12791303 -0.14657365 0.104196526 -0.067831315 0.08242608 -0.027667165
-0.043913424 0.23229817 -0.14587158 0.19007653 -0.022656804 -0.12060371 0.03414618 -0.087080486
-0.09139666 0.13831112 -0.048944864 -0.15971443 0.05460292 -0.21824671 -0.04012152 0.0897693
-0.1024039 -0.12066755 -0.18919025 -0.22452371 -0.009164855 -0.13854519 -0.118351206 -0.2515041

bn2.running_mean f4 [64]
00000000: fadf f33d 7d0f c63e 94eb b5be f306 0e3e
00000010: 834a ddbd 191a 143e 1377 d2be c0fc 0ebf
00000020: 49b2 aebe 17a2 1f3e 3f42 abbe 2d90 ba3e
00000030: d935 7abe 7fa9 86be 8f8d c5bc 049b 7e3e
00000040: 6046 2a3e 02b1 84be 06ab 0b3e 3a96 633d
00000050: 36f0 5cbe 5750 de3d 49ca b0be c327 a0be
00000060: 0a06 00bf 875f e23e ba55 4dbe 75cd 443e
00000070: f314 8ebd 2579 93be 8035 ac3e e86e ab3d
00000080: 3848 38be adec 883e 0436 cabd 55b8 b23d
00000090: 70e5 9ebd 16c0 45be e8ea d9bd f750 04bc
000000a0: f960 493e aff7 1cbe 81e6 983d 087c ecbd
000000b0: 5299 c43e d08d cdbe b952 39be 2c3b 1d3e
000000c0: 7402 33be e825 503e f1f3 8bbe 310a c4bc
000000d0: 4741 053e d55e dcbe 5ccf 823e dd1d 7ebe
000000e0: 1c5b 8c3e fef5 6d3c b163 5cbe 91a1 c3be
000000f0: 615b a1be c076 30be 9ec4 3d3d 1f88 c43e
0.119079545 0.38683692 -0.35531294 0.13869838 -0.108052276 0.1446308 -0.4110647 -0.55854416
-0.34120396 0.15589176 -0.3344898 0.36438122 -0.24434604 -0.2630119 -0.024115352 0.24863821
0.16628408 -0.25916296 0.13639459 0.05556319 -0.21576008 0.10855167 -0.3452933 -0.31280336
-0.50009215 0.44213507 -0.20052233 0.19219 -0.069375895 -0.28803363 0.33634567 0.08370763
-0.179963 0.2674307 -0.09873584 0.08726565 -0.077586055 -0.19311556 -0.10640508 -0.008075944
0.19665898 -0.15328859 0.0746584 -0.115470946 0.38398224 -0.40147257 -0.18097962 0.15354604
-0.17481405 0.2032696 -0.2733455 -0.02393064 0.13013183 -0.430411 0.25548828 -0.2481608
0.2741326 0.014523981 -0.21522404 -0.38209203 -0.3151503 -0.172328 0.046330087 0.38385102

bn2.running_var f4 [64]
00000000: dc4a ae3d 7e88 eb3c 2884 cd3d 3639 513e
00000010: f8e1 a93d 6f52 893d 1c97 4c3f e874 b43e
00000020: ede4 e53d 3b0e 0e3d 95aa 783d 2619 223e
00000030: 234d 413d e639 ed3d 1b96 8e3e adf7 a83d
00000040: 7083 a53b cb29 ba3d 8ab0 f03c cc6d 143e
00000050: fda9 163e 40e0 3f3d e152 823e d12f 483d
00000060: 86ff 4b3d 2fe9 8c3c 8662 923c 7e2a 843e
00000070: 446a b23e 0f42 5f3e 2cb8 6f3d 0b5f 523d
00000080: c2a0 bc3c 0ec9 d93d 3024 0d3d c44a ac3e
00000090: 4d4b 603c 0d87 c43d 90d9 1a3c 5bea 163d
000000a0: 5d4d dd3b aef4 d33d 2c4e e83b 3348 b23c
000000b0: 9fa4 fa3b 9448 913e 07d9 0b3d d634 053d
000000c0: 59d7 2f3b 7e61 213d 8107 853c fb35 933e
000000d0: 5ae2 c43b bb35 4a3c 5390 8a3c 4718 8a3d
000000e0: 25b7 3c3b 3c26 be3d cd69 503c 52a4 8c3e
000000f0: 0cf1 1f3e 20be ae3e 5839 2f3e 04ef f53b
0.08510372 0.028751608 0.100349724 0.2043198 0.08295053 0.06705176 0.79918075 0.35245442
0.11225305 0.03468154 0.060709555 0.15829906 0.047192704 0.11583309 0.27848896 0.082503654
0.005051069 0.090900026 0.029381055 0.14495009 0.14713283 0.04684472 0.25453857 0.048873726
0.049804233 0.017201034 0.017869245 0.2581367 0.348467 0.21802543 0.05852525 0.05136017
0.023025874 0.10634051 0.03445834 0.33650792 0.013689828 0.095960714 0.009451285 0.036844593
0.006753607 0.10349403 0.007089397 0.021762943 0.007649019 0.28375685 0.03414252 0.03252109
0.0026831238 0.039399616 0.01623893 0.2875212 0.0060084285 0.012341912 0.016914522 0.06742912
0.0028795686 0.092846364 0.012720537 0.27469116 0.15619296 0.3412943 0.17111719 0.0075052995

conv3.weight f4 [64, 64, 1, 1]
00000000: c15c 9d3d 36ce 56bd d8b9 733c 458d 0dbe
00000010: c60d d93d 5acb 50bd 5a31 91bd d90d 07bd
00000020: aedd dbbd 5a45 b63d a1c6 3dbe 114d 5dbe
00000030: 7be5 1a3d b7b9 aebd 2f35 e1bd 8a34 48bd
00000040: c1d7 35be 6cbd 4b3c d09c 9c3e af16 bebd
00000050: 9091 63bd b360 97bd 3eef e73d c832 e23d
00000060: a865 83bd 7ca9 ef3d 1003 73bc 0c01 133c
00000070: 14fc 473d ace6 c23d bd38 133e 13c7 efbd
00000080: 7812 273d 1d88 963d 830d 353e bdef 873c
00000090: 05d5 533b 2843 033e f1c5 883c e7b1 7bbd
000000a0: d153 b93d 4542 e6bd 93d2 cdbd f2dc 3b3e
000000b0: 31d5 a0bc 57a6 aa3d 47e3 4dbd 35ae a63c
000000c0: 2ca5 b8be f375 993d e735 f33d 9ceb d63d
000000d0: 9a72 b4bd 3972 1e3e c84f e53d 6d7c 04be
000000e0: d403 61bd 4fb0 68bd a080 a5bd 5376 fc3c
000000f0: a57c f23b ee88 e6bd a4b8 a83d 798c 433e
00000100: deb5 96bd 4194 e83b 9b45 f73d b153 cdbb
00000110: aedb 173e 8b59 cdbd f54c 183c b023 313d
00000120: 3a21 583e 31bf 88bd 66ea 1f3e 0d84 233e
00000130: b6b7 bdbb 9278 ffbb 177b 143d 770e 7dbd
00000140: 04d4 ddbd a83c 0abe 5d9a d93d cf50 07bc
00000150: 9b7b 36be d40b 80be 11e5 e53d 8b8f 083e
00000160: c71b 44bc 9a4e e4bd 12f0 9f3d 6068 2b3d
00000170: 1914 dc3d 7f2f 9fbd f368 403d 27d8 d5bd
00000180: 7837 f5bc 7365 1cbe f8c4 fa3d 126e c2bd
00000190: cdaf 623b 63c4 ed3d 7b00 603d 1b39 8b3d
000001a0: 7062 9b3c 1de1 af3d 3a06 213c a76b 793e
000001b0: 4807 9b3e 3f6b ecbb 66d7 f83d 3f8d fbbd
000001c0: 1c44 81bd 83e7 9cbe 4392 09be d6a5 2c3d
000001d0: 7f58 b73d 70a5 21bc e3e5 22be e8da e7be
000001e0: 566f ffbd 2801 433e f8cb c1bd c042 1bbc
000001f0: b1cf 043e 8d34 51bc e60b ad3d 852b d23c
00000200: c5a6 943c 5159 1bbe e098 1e3b 874e 3abe
00000210: 25b2 9cbc 1772 ee3d 3e90 58be eb3a e23c
00000220: 3543 ca3d 2f7b a23d ce96 46bd 6c55 213e
00000230: f61d 993d c1bc 9dbc 3d3b 55bc c712 87bd
00000240: 8c5c ac3d 0202 babc 001d d93d 278e 16bd
00000250: 5c30 07be c1d6 09be c89b 943d ebe1 5cbe
00000260: f122 b33c 3c23 f0bb 31dc 293e 663a 59be
00000270: fed4 9e3d 7c50 ae3d 6c0b 373e 004f 88bd
00000280: 43ad 0fbe 0b8e 7a3d a8f4 97bc 815f 0d3e
00000290: cbf7 6f3d 8ef5 293e 24ff 7c3e 1b50 6a3d
000002a0: 8d2a e83d 075f 58be d83a 12be 1b98 02be
000002b0: 26b8 7d3e c31a 8cbc f0ee 283d dc67 17be
000002c0: c87b 95be 092b c5bc c0f4 2abe d228 5d3b
000002d0: 8c9e 653d 01ad 3f3e bd69 2c3e c0b6 813d
000002e0: 696b 1abe d1c0 0b3e d4e9 da3d 2aeb c0bd
000002f0: 252f 06be 5bea 82bd 1b24 9b3d ca8c 21bd
00000300: 3e7f 2d3e bcb8 96bd a485 943e 2f90 023e
00000310: 197a 973e cfb7 d23d e6e3 da3d b683 cebd
00000320: 7f8a 0c3d f4ad 043d 6108 3cbc 812e 2c3c
00000330: 35b5 283d 7b02 693e b5ed 88bd 0678 133e
00000340: cba7 a43d b5bf 183e 5438 343e 068b 113e
00000350: 1372 083e b075 00bd a953 13bd 15e0 61be
00000360: 161f 223e 2c47 063d ffef 01bc 3d76 92bd
00000370: dabf efbd bf55 76bd 200b f43d 2cf6 893e
00000380: f255 dabc 71e7 a53d 5155 62be 8f17 223e
00000390: 7ea9 7dbd 1b81 0fbe a255 393e a639 cebd
000003a0: b2b5 1b3e abff d23a 3141 563e c846 1ebe
000003b0: 2437 e0bd da0c 473e 40d0 dd3d 62c4 e03d
000003c0: d7b9 9ebe 6eae c03d de20 7f3e 0c9e f63d
000003d0: 3c9e e7bd 7153 903d 8f3e 35bd 5343 8cbd
000003e0: 8ea7 b53d aa6f c3bd 0041 8a3c 6e4d c4bd
000003f0: 8dce f33c b457 093d 741f 013e f5ce 523d
0.07683707 -0.05244275 0.014875852 -0.13823421 0.1059833 -0.05097518 -0.07089491 -0.03297219
-0.107356414 0.088999465 -0.18532802 -0.2161143 0.037816506 -0.08531516 -0.10996472 -0.04887823
-0.17758085 0.012435298 0.30588388 -0.0928167 -0.05555874 -0.07391491 0.11324929 0.11044842
-0.06415874 0.117022485 -0.014832273 0.008972418 0.048824385 0.095166534 0.14377113 -0.11707892
0.040789098 0.0735018 0.17680936 0.016593808 0.0032323014 0.12818587 0.016695948 -0.061448958
0.0904919 -0.11243109 -0.100499295 0.18346003 -0.019632908 0.08332508 -0.050265577 0.02034674
-0.36063516 0.074932 0.118755154 0.10494158 -0.08810921 0.1547326 0.11196858 -0.1293809
-0.05493529 -0.056808766 -0.08081174 0.03081814 0.0074001127 -0.11256586 0.082383424 0.19096555
-0.07358907 0.0070977514 0.12073823 -0.0062660803 0.14829895 -0.100268446 0.009295692 0.043246925
0.21106425 -0.06677092 0.1561676 0.15968342 -0.0057897223 -0.0077963555 0.0362502 -0.061781373
-0.108314544 -0.13499701 0.106251456 -0.008259012 -0.17820589 -0.25009024 0.112253316 0.13336007
-0.011969513 -0.111478046 0.07809462 0.041847587 0.10746021 -0.07772731 0.046975087 -0.104416184
-0.029933676 -0.15273075 0.122446 -0.094936505 0.0034589649 0.116097234 0.05468796 0.067980014
0.018967837 0.08587859 0.009828145 0.24357472 0.30278993 -0.007214933 0.12150459 -0.122828
-0.06311819 -0.3064538 -0.134347 0.04215034 0.08952426 -0.0098661035 -0.15908007 -0.452842
-0.124724075 0.1904341 -0.09462732 -0.009476364 0.12969853 -0.012768877 0.08449535 0.025655517
0.018145928 -0.1517079 0.0024200007 -0.18194018 -0.019127915 0.11642855 -0.21148774 0.027615985
0.098761 0.07933652 -0.048483662 0.15755242 0.07476418 -0.019255044 -0.013014612 -0.06595378
0.084160894 -0.022706036 0.106012344 -0.03675666 -0.13202041 -0.13460828 0.072562754 -0.21570556
0.021867247 -0.007328419 0.16587903 -0.21213683 0.07755469 0.08511445 0.17875451 -0.06655693
-0.14030938 0.06117062 -0.018549278 0.13805963 0.058585923 0.16597578 0.24706703 0.0572053
0.11336241 -0.2113 -0.1428026 -0.12753336 0.24777278 -0.017102605 0.041243494 -0.14785713
-0.29196 -0.024068372 -0.16694927 0.0033746255 0.056059405 0.1871834 0.16837211 0.06333685
-0.15080036 0.13647772 0.106891304 -0.09419854 -0.13103922 -0.06392356 0.07575246 -0.039440908
0.1694307 -0.07359454 0.2900821 0.12750314 0.2958534 0.10288965 0.106879994 -0.100837156
0.034311768 0.032392457 -0.011476607 0.010509134 0.041188437 0.22754852 -0.06685964 0.14401254
0.080398165 0.1491688 0.17599612 0.1421319 0.13324766 -0.031362236 -0.035968456 -0.22058137
0.15832171 0.03278272 -0.007930755 -0.071514584 -0.11706515 -0.060140368 0.119161844 0.26945627
-0.02665231 0.081007846 -0.22102858 0.158293 -0.06192922 -0.14014094 0.18099073 -0.10069589
0.1520603 0.0016097924 0.20923306 -0.15456688 -0.10948017 0.19438496 0.10830736 0.10974957
-0.3100116 0.0940827 0.24914882 0.12041864 -0.11309478 0.07047165 -0.044249114 -0.068487786
0.08869849 -0.095427826 0.016876698 -0.09585081 0.029761577 0.033530906 0.12609655 0.0514669

conv3.bias f4 [64]
00000000: 2546 bdbd a8ff 713d 269c 803d bec1 b3bd
00000010: b0ee a43d 911b 463e 51cc 883d 32fb 483d
00000020: 8593 abbd 4447 603c 9f53 82bb ebff 4fbc
00000030: 4f27 d5bd 292f 653d f220 15bc e3e8 9fbc
00000040: 5029 a4bd 501c fa3d 2a62 063d 75aa 3bbd
00000050: 6067 2abd 55be 65bd 75af a7bd 53a9 f3bd
00000060: dfb2 56bd 00fe 773c 09f1 ad3d 54b3 6d3d
00000070: 502c 023d 7858 073c 53e5 d23d 5576 5a3c
00000080: f2cc aa3d 76ec 8f3d ba9b c2bd bacb a93d
00000090: 3228 443d 5da5 8ebd fa10 103e 85bd df3d
000000a0: 0398 92bd 7ba1 f93d d131 33bd ec7f b3bd
000000b0: 346c 42bc c820 e3bc 0fc9 a43d db44 69bd
000000c0: 3409 b43c 9a4c 61bc b00b bf3c 46e3 b13c
000000d0: 3ee6 4c3d 6346 873c 0d1e a53c 7580 943d
000000e0: da88 8c3c 0d54 4c3d 7fc8 ad3d a79d efbd
000000f0: 126b 6e3c 238b a1bd bd7b 083e bc9f 2ebd
-0.09241895 0.059081703 0.06279783 -0.08777188 0.080533385 0.19346453 0.06679595 0.049067684
-0.083777465 0.013688866 -0.0039772536 -0.012695293 -0.10407888 0.05595318 -0.009102093 -0.019520229
-0.08015692 0.122124314 0.03280846 -0.045816857 -0.041602492 -0.056089718 -0.08187763 -0.118975304
-0.05241668 0.015136242 0.084932394 0.05803235 0.03178054 0.008260839 0.102976464 0.013333877
0.083398715 0.07027523 -0.09502359 0.08290811 0.047889896 -0.06965134 0.14068976 0.1092482
-0.071579 0.12189003 -0.04374868 -0.087646335 -0.011866618 -0.027725592 0.080461614 -0.05695043
0.021977045 -0.013751173 0.023321003 0.021714818 0.050024264 0.016513055 0.02015593 0.07251064
0.0171551 0.049884845 0.08485507 -0.11699992 0.014551895 -0.07887866 0.13328452 -0.042632803

bn3.weight f4 [64]
00000000: cf88 783f e5b1 5c3f c6d5 7d3f 001e 5d3f
00000010: d9e9 863f 55ba 8d3f e206 673f 45b6 833f
00000020: 369c 453f ec05 933f fea9 7a3f e53d 7b3f
00000030: d5bb a03f 57dd 713f 1c33 933f 165a a13f
00000040: 0bca 9a3f 8461 913f 047c 883f d60e 7d3f
00000050: 46b8 733f 83f8 613f 91b0 963f b743 963f
00000060: f4a3 993f faf9 6d3f 305f a83f d04f 893f
00000070: eaf7 473f dd3b 713f acef ae3f 1038 6f3f
00000080: bc65 9c3f 660b 7b3f 3f42 7a3f a5bc 873f
00000090: 7d62 833f ddab 623f e7d7 993f fac0 a53f
000000a0: 4915 883f f29a 8f3f 7701 963f df2e 973f
000000b0: 3795 6b3f 53ad 963f 8f7d 923f 7aac 5b3f
000000c0: dab5 943f 967d 8d3f 325d 863f c949 5d3f
000000d0: 6d6a 773f 22a7 a33f a2f2 653f 936b 9c3f
000000e0: 0968 3b3f 39ec 7e3f 54e1 6e3f 345f 923f
000000f0: ca6b 943f 24e9 953f b8ca 893f 38fa 8b3f
0.97083753 0.86208946 0.9915432 0.863739 1.0540115 1.1072489 0.9024488 1.0289999
0.77191484 1.1486182 0.9791564 0.9814132 1.2557322 0.9447836 1.1499972 1.2605617
1.2092909 1.1357884 1.0662847 0.9885076 0.95203054 0.88269824 1.1772634 1.1739415
1.200316 0.9295956 1.3154049 1.0727482 0.7811266 0.9423197 1.3666892 0.9344492
1.2218547 0.9806427 0.97757334 1.0604445 1.0264431 0.8854349 1.2019013 1.2949517
1.0631496 1.121916 1.1719197 1.1811179 0.9202456 1.1771644 1.1444567 0.85810053
1.1617997 1.1053951 1.0497191 0.8644071 0.9664677 1.278538 0.89823353 1.2220329
0.7320562 0.995792 0.93312573 1.1435304 1.1595395 1.1711774 1.076499 1.0935736

bn3.bias f4 [64]
00000000: 4ee4 98bd 4cd5 40be 2153 f53d dac3 45be
00000010: 8ad9 c6bd 02e8 f63a 0f81 20be 37fc 0f3c
00000020: f216 7fbe 95c6 66bc 0362 07be 863b e33d
00000030: d43a a63b 26e7 0f3e 94ae 9bbd cbd3 81bb
00000040: f639 8bbc f0bf a4bd 0ba7 603d a2b2 afbd
00000050: 4f24 093e 74a2 1d3e e242 c5bc 0e66 6abd
00000060: 854b 05bd 7775 0dbe fb3c ce3c 163e 8cbd
00000070: 7c34 7cbe cb2c f5bd 7943 7dbb 87ea 103e
00000080: 7a9c f1bb 8c14 0ebe f84b df3d d780 103e
00000090: 322f 0bbe 7b44 1cbe 9c2e 733d d528 2cbd
000000a0: 84aa 673d 2463 b6bd 7815 87bd baf8 d73c
000000b0: d6d8 24be a0e1 03bd 5311 a7bd 97a7 5abe
000000c0: 698c 26bd 0d3a 973d 2a84 04be 71c0 40be
000000d0: 467b 05be 1c30 c3bc 7a4d 39be ab46 68bd
000000e0: 1258 87be 65c7 a0bd 3231 e1bd 7650 9c3d
000000f0: 910c 4e3c dd8e 8abc eab2 fc3d e5d7 bcbd
-0.07465421 -0.18831366 0.11978746 -0.19312993 -0.09709461 0.0018837454 -0.15674232 0.00878816
-0.24911097 -0.014085432 -0.13220982 0.110953376 0.005072931 0.1405302 -0.076016575 -0.0039620153
-0.016995411 -0.08044422 0.054846805 -0.085789934 0.13392757 0.15394002 -0.024079744 -0.057226233
-0.032542724 -0.1381434 0.025175562 -0.068477795 -0.24629396 -0.11971434 -0.0038644953 0.14151965
-0.00737339 -0.13875026 0.10903162 0.14111648 -0.13592222 -0.15260498 0.059370622 -0.042031128
0.0565591 -0.08905628 -0.06595892 0.02636372 -0.16098341 -0.032197595 -0.08157601 -0.21352993
-0.04066125 0.07384119 -0.12941042 -0.1882341 -0.13035306 -0.023826651 -0.18095961 -0.05670802
-0.2643438 -0.078505315 -0.109957114 0.07632534 0.012576238 -0.016913826 0.12338813 -0.09220866

bn3.running_mean f4 [64]
00000000: 42d6 33be 6eb4 893d 0aa0 8c3d 28d2 3f3f
00000010: 4d14 89be 7978 283c ff85 913c ca79 05bf
00000020: b1bf 1bbf b0d0 14bf 5652 243e 54f3 bebd
00000030: 6b22 11bf c2a8 40be eadb b8bd dd56 d9be
00000040: a9f1 02be 70a1 ae3e fada 99be 3ee4 1c3e
00000050: 7739 2cbf fb66 e5be 4037 18be 0579 64be
00000060: 6b60 bbbe f3ed 15bf 4f3d 35bf 54e0 b23e
00000070: 9a87 153d 19c7 0d3e f779 873e dd39 e8be
00000080: a310 dabc 95b2 933e 27d6 20bf 7164 e33e
00000090: a664 d93c 032c 8b3c 844d 5dbc 5171 243f
000000a0: 3693 eebe da9f b2bd 5f1c 27be b296 e8be
000000b0: 7ea5 1fbf 9c80 c2bd c56a 0c3f 3b74 17bd
000000c0: f358 09bd 2275 06be df31 a6be 3428 e1bd
000000d0: a17e 093e 743d 863d e660 ad3b 00fa 033f
000000e0: d6c6 c33e 3c9d d0be 7ecf 1fbd 962e fabc
000000f0: a323 29bd 615e 89be 789a 51bf cee3 4a3f
-0.17562202 0.06723867 0.068664625 0.7493005 -0.267733 0.010282629 0.01776409 -0.5213896
-0.6083937 -0.5813093 0.16047034 -0.09323755 -0.5669314 -0.18814376 -0.0902632 -0.42449084
-0.12787499 0.34107542 -0.30049878 0.15321442 -0.67275184 -0.4480513 -0.14864826 -0.2231179
-0.36597 -0.58566207 -0.70796674 0.34936774 0.036506273 0.13845481 0.2646024 -0.45356646
-0.026619261 0.28847185 -0.6282677 0.44412568 0.02653725 0.01698876 -0.013507251 0.6423541
-0.46596688 -0.087218955 -0.16319416 -0.4542747 -0.62361896 -0.094971865 0.5485042 -0.03697608
-0.033532094 -0.1313062 -0.32459924 -0.10993996 0.13427211 0.0655469 0.005291092 0.51553345
0.38237637 -0.4074496 -0.03901624 -0.030539792 -0.04129375 -0.26829818 -0.81876326 0.7925385

bn3.running_var f4 [64]
00000000: 3077 d13e 2fa7 d83e af43 953f 6333 e43e
00000010: 3cfd e53e f98f eb3e 407a a13e 884d 063f
00000020: 84af ac3e b133 a93e 8a2e b93e d782 d13e
00000030: 8a4c 293f ad3a d93e 2c84 a03e 09a6 333f
00000040: ae41 b43e 91f1 c73e 7c78 cd3e d57f 143f
00000050: 03f9 0f3f 1d18 b73e 6abd cd3e 94b7 093f
00000060: 0517 a53e b85a e73e 2053 a03e 25c0 fa3e
00000070: 290a 5d3e 1b88 fc3e 9858 953e eeb8 1b3f
00000080: f8c3 4f3e 55ca 0e3f 2552 0b3f 5a6d 8f3e
00000090: efaf df3e 5e7f a43e 85e1 183f ecb8 e03e
000000a0: 556f 4d3f 3650 e43e 2320 103f b463 ce3e
000000b0: 4c08 aa3e 07fa 9e3e e3e1 a43e 90e6 303f
000000c0: d7ef c83e 63b1 013f a723 b23e ad1a a63e
000000d0: 8767 d43e 99d5 db3e a347 cb3e 768a 923e
000000e0: 4d18 c03e 347a a43e bc40 e63e 2831 cf3e
000000f0: 9933 ce3e e75f 893e 4901 3d3f cc3f e83e
0.40911245 0.4231505 1.166128 0.44570455 0.44919765 0.4600828 0.31538582 0.52462053
0.33727658 0.3304725 0.3616832 0.40920135 0.66132414 0.4242758 0.3135084 0.70175225
0.3520636 0.39051488 0.40130985 0.58007556 0.56239337 0.35760584 0.40183574 0.53795743
0.32244125 0.451864 0.3131342 0.4897472 0.21585907 0.4932259 0.29169154 0.60829055
0.202896 0.55777484 0.5442222 0.28013116 0.43688914 0.32128423 0.59719115 0.43891084
0.80248004 0.44592446 0.56299037 0.40310442 0.33209455 0.3105013 0.32203588 0.6910181
0.39245483 0.50661296 0.34792826 0.32442227 0.41485235 0.429364 0.39703092 0.28621262
0.3751854 0.32124484 0.44971263 0.4046719 0.4027374 0.2683098 0.73830086 0.45361173

conv4.weight f4 [64, 1, 3, 3]
00000000: 9556 10be 8bda 2bbe 5db2 55be 54fc 85bd
00000010: 8331 bbbd 96b3 45be c2a2 32be 941d 3c3e
00000020: fc98 18bd 24cd 49be c2cd adbe f992 80be
00000030: 924e 5cbe e579 5d3e 1221 33be ca6b 4abc
00000040: fd7d 303e e953 98be 7a71 71be 66d3 603c
00000050: 9d61 113d 9a1f bcbe a97b a53d 57d6 5cbe
00000060: 0702 c63e 4bab 983e fbac 78be a95d 9fbe
00000070: 80cf d7be 0526 2abe 8be9 a93e c890 08be
00000080: 9e03 0cbd 41eb 563d a393 c6be 4a41 e53d
00000090: 10ab 7abe e81e 26be af61 663e 6538 91be
000000a0: 0c6e 9a3c a0c2 973e 59d0 9c3e 77eb f83d
000000b0: c21d 63be 4c53 0fbd a95f bebe 14e1 4b3e
000000c0: 4352 eebb 2386 39be 26c4 5e3e d27d 19be
000000d0: e40a c33e e02b 7abd 7356 e63d 724e e63d
000000e0: a4a3 8b3c 931e ad3e a324 98be befd 903e
000000f0: 96c4 e43c 01fa 673e 6a64 95bd 5f98 85be
00000100: e6c2 043d 9875 2c3e 5b1c 273e 4ffa 59be
00000110: afe4 e53d af9b bf3e 14c5 8d3d 3079 47be
00000120: decf 7e3d c355 d53e 2c76 233e 9ec3 963d
00000130: 5444 583e c05a 123e 97f9 803e 3396 2fbe
00000140: 4b95 3fbe 210d 083d 21fc bc3d 5bb6 39be
00000150: 3679 233e 2691 75be 6cad ba3d 0419 b7bd
00000160: fded dabd b042 373e c418 45be 039b ebbd
00000170: 05c9 fa3e a79c 1a3d 4df5 37be 53bd aa3e
00000180: eb67 4ebe 591d 9d3e 89b3 5dbe c00b 2c3e
00000190: 0fef b23e 9ca4 bc3e e594 523e f6e5 bcbd
000001a0: bf4e a83e 3397 673e b240 6e3e fc2d 92bd
000001b0: aa41 01bf 5ea0 3bbe 8d3e a7bd 5143 153e
000001c0: c0a7 53bd 6b6f 143e b684 263e 5f87 fabc
000001d0: de4d c0be 7e7d 913e 8e37 113e 418d 84be
000001e0: 5d12 953e e616 8f3e 80c7 acbe aab4 c9bb
000001f0: 8a97 64be 1cba 13bd 516f 06bd 9b6e 103d
00000200: 5aad 89be 1e5d e03d 7e56 5c3e 8864 883e
00000210: 9e53 3d3e 06c7 943c 2235 c63e 836d 84be
00000220: a903 143d 987f 963e 6c44 8fbd a2d8 e5bc
00000230: 3ec7 cdbd 11dd bc3e e005 b73d 8383 c3bd
00000240: da0a 50be f9f3 43bf 507a c4bd 38d1 663e
00000250: be11 05be 1f56 ef3d 9649 f1bc 973b 80be
00000260: 4dac 103e 748e b1be 6e83 85be 9fc6 e5bd
00000270: acbc 23bb d355 a5bd 9510 193c 6b66 9f3e
00000280: 0485 36be e2c4 8abe bf6d eabc a91b 7d3e
00000290: 857a cebe 2dd4 ddbd 2124 3cbe 68cf fa3d
000002a0: fa48 15be c228 323e 754a 1f3e da5e 42bd
000002b0: abe7 113e 543b 2d3e bf69 87be 8b21 763d
000002c0: db16 04be 9c84 c3be 94b8 06bc a003 52be
000002d0: 6d7c 693d 6e17 bd3e 5b74 d9bd eb28 aebe
000002e0: 8b04 a03e 7c02 7abd 5d42 aebe 7607 2f3a
000002f0: 09c4 083e ac81 d9bc 8e78 cd3e e901 183e
00000300: 9b48 6e3e 3bef a23c 109d 533e e259 8fbd
00000310: b28d b0be 9138 d5bd f4b1 893c 371e 8abe
00000320: 9452 7dbd 0cc8 8abe bc0d f33d ee81 8a3d
00000330: 2c81 a0be e457 1a3e 2deb 893e 3584 84be
00000340: b0ad a0bd 4cfc 7b3e 405e 113e acd1 9cbe
00000350: 2ec7 ad3d 3602 743d c112 48bd 3e5f 8ebe
00000360: a115 bbbe 5f51 4b3e f1ac 873e 12d4 abbd
00000370: 3e4d d93d 1329 1f3d 61e5 1c3e c652 c5bd
00000380: f728 09be a4d6 0d3e b2c3 a6be 3fc3 d63b
00000390: 065e 26bd c21b 863e 848e 3b3e abd3 acbe
000003a0: 4ccd 393e 8c17 c2be af07 5a3e 4b0f c8be
000003b0: 5132 1f3e f948 143e 5324 62be 25e6 0c3e
000003c0: a4be 4d3e 915e 6dbd 9bd1 543e e176 6cbe
000003d0: ba43 5d3e 1ac5 9b3e 0490 67be a783 123e
000003e0: 851c 14be 7861 9b3e 6bae 033d 7b35 d93d
000003f0: 433d 26be e5fd 53be f943 893e 0f51 14be
-0.14095528 -0.16782586 -0.20868821 -0.065422684 -0.09140303 -0.19306788 -0.174449 0.18370658
-0.037255272 -0.19707161 -0.33946043 -0.2511213 -0.21514347 0.2162853 -0.17493084 -0.0123548005
0.1723556 -0.29751518 -0.23578444 0.013722276 0.035493482 -0.3674286 0.08080227 -0.21566139
0.38673422 0.29818186 -0.24284737 -0.31126145 -0.42150497 -0.16616066 0.33185992 -0.1333648
-0.034183137 0.05247045 -0.38784513 0.111940935 -0.24479318 -0.16222727 0.22498201 -0.28363338
0.018851303 0.29640675 0.30627707 0.12154286 -0.2217932 -0.034991547 -0.37182358 0.19910079
-0.00727299 -0.18117575 0.21754512 -0.14989403 0.38094246 -0.061077 0.11246958 0.11245431
0.017045803 0.3381239 -0.29715452 0.2831859 0.02792577 0.22653963 -0.07294543 -0.26092812
0.032412432 0.16841733 0.1631941 -0.21286891 0.112252586 0.37423465 0.06922355 -0.19479823
0.062209956 0.41666993 0.15963048 0.0736153 0.21119815 0.14292431 0.25190422 -0.1714714
-0.18709294 0.033215646 0.09227777 -0.1813597 0.15964207 -0.23981151 0.09115109 -0.08940318
-0.10689924 0.17896533 -0.19247729 -0.115041755 0.4898149 0.03774705 -0.17964669 0.33347568
-0.20156829 0.30686453 -0.21650518 0.16801357 0.34948012 0.36844337 0.20564611 -0.09223549
0.32872579 0.22616272 0.23266867 -0.07137677 -0.5049082 -0.18322894 -0.081662275 0.1457646
-0.05167365 0.14495628 0.16261563 -0.030582128 -0.37559408 0.28416055 0.14181349 -0.25889018
0.29115573 0.27947158 -0.33745956 -0.00615557 -0.22323433 -0.03606616 -0.032821003 0.03526173
-0.2689007 0.10955261 0.21517369 0.266392 0.18488929 0.018161308 0.38712412 -0.258648
0.036136303 0.2939422 -0.06995472 -0.0280574 -0.10047768 0.3688741 0.089366674 -0.09546568
-0.2031664 -0.7654415 -0.09593642 0.22540748 -0.1299505 0.11686348 -0.029454034 -0.25045463
0.14128228 -0.34678996 -0.26076835 -0.112195246 -0.0024984283 -0.0807301 0.009342332 0.31132826
-0.17824179 -0.27103335 -0.028616784 0.24717583 -0.4032785 -0.10831485 -0.18373157 0.12246591
-0.1457862 0.1739836 0.15555747 -0.04745374 0.1424853 0.16917163 -0.26447865 0.060090583
-0.12899344 -0.3818711 -0.008222718 -0.20509195 0.057003427 0.36931938 -0.10617896 -0.34015593
0.31253466 -0.061037526 -0.34035006 0.0006676832 0.13356031 -0.02655109 0.40131038 0.14844479
0.23269884 0.019889465 0.20665383 -0.06999566 -0.34483105 -0.1041118 0.016808487 -0.26976177
-0.06184633 -0.2710575 0.11867854 0.06763063 -0.3134855 0.1507259 0.26937237 -0.25882116
-0.07845628 0.24607962 0.1419611 -0.30628717 0.08485256 0.05957242 -0.04884601 -0.2780704
-0.3653994 0.1985526 0.2649913 -0.083900586 0.10610436 0.03885753 0.15321876 -0.096349284
-0.13394533 0.1385141 -0.3257118 0.006554037 -0.04061701 0.26193053 0.18316084 -0.3375524
0.18144721 -0.3790859 0.21291994 -0.39074168 0.15546538 0.14480962 -0.22084169 0.13759668
0.20092255 -0.057951514 0.20783083 -0.23092224 0.21607867 0.30423814 -0.22613531 0.14308034
-0.14464004 0.303478 0.03214876 0.10605904 -0.16234307 -0.20702322 0.26809672 -0.14484046

conv4.bias f4 [64]
00000000: 80f0 aebd 7c41 dabd 1065 bfbd 2e49 81be
00000010: 075d acbe a7c8 e4bb f1aa 7fbe 7f08 423e
00000020: 1088 113d 0dd1 9b3e 75ba 463e ebb2 103d
00000030: 558a 51be c9fb 853c 31bf 98bd 30ce dabd
00000040: 9711 16be 4eaf a1be a51b 933d f25b 98be
00000050: 4d07 093e 8406 abbd f0c5 e9bd df8e ae3e
00000060: c62d 373e ad64 d2bb 9fa7 593e 822b 9d3e
00000070: e3d8 84be 416f 903e 694e 953d a7bd 8f3d
00000080: 359d f13d f0aa 893d d0a3 75be 703f 093d
00000090: f5dc 4c3e 3f8e 07be d2d1 a53e 3fc6 91be
000000a0: cfd8 673e bce9 a4bc 25bb dfbd 4b91 17be
000000b0: 7f90 963e 537d 3d3d f10c d33d d381 fb3d
000000c0: e0ae f43d 242f e93d f985 95bd 3b3e 77be
000000d0: cdbe f03d 7a8e 5d3e 14ac a43e 4d35 75bd
000000e0: c8c3 e53d 5156 363c b30b 6bbe e9fd 9cbe
000000f0: af7a 853c 245a 883e ac48 4a3e 2454 b5be
-0.085419655 -0.106570214 -0.09345448 -0.25251144 -0.33664724 -0.0069819274 -0.24967553 0.18948554
0.03553015 0.3043293 0.19407065 0.03532688 -0.20462926 0.016355412 -0.07458342 -0.106838584
-0.14655147 -0.3157906 0.07183007 -0.2975765 0.13381691 -0.08350852 -0.11414707 0.34093377
0.17888555 -0.006420693 0.21255349 0.30697256 -0.2594672 0.2820988 0.07290346 0.07018595
0.11797563 0.06722057 -0.23988271 0.033507764 0.20006163 -0.13237856 0.32386643 -0.28471562
0.226413 -0.020130984 -0.10924367 -0.14801519 0.29407117 0.046262097 0.10305203 0.122806214
0.11947417 0.113859445 -0.07300944 -0.24144833 0.11755142 0.21636382 0.32162535 -0.059865285
0.11218983 0.011128978 -0.22953682 -0.30662468 0.016293852 0.26631272 0.19754285 -0.35415757
