models/trained_models/dscnn_mfcc/model_acc_81.25.pth (torch_old, 110035 bytes, 56 tensors)

conv1.weight f4 [64, 1, 10, 4]
000000 13 36 2e 3e 22 a0 90 bd 68 92 03 be dc 44 1e bd
       0.17012815 -0.07061793 -0.12848818 -0.03863989
000010 fc 2c 18 3e 4c 2b 83 bd 5e d5 23 3c ce 9e f7 3d
       0.1486091 -0.064047426 0.009999601 0.120908365
000020 67 95 57 3e 24 0a 84 3d dd 95 64 be 9e bc 53 ba
       0.21053086 0.06447247 -0.22322793 -0.00080771174
000030 22 2a 21 3d 78 fe cc bd 45 8f 79 bc 9e b6 08 bd
       0.03934682 -0.100094736 -0.015231912 -0.033377282
000040 f3 21 c6 3d 49 47 7d be 27 aa 29 be 85 f2 61 3d
       0.09674444 -0.24734224 -0.16568814 0.055162925
000050 c1 82 b7 3d 46 0c 20 bd 2b e8 5b be 68 ba 37 3c
       0.08960486 -0.039074205 -0.21475284 0.011213876
000060 71 92 fe bd aa 46 e9 bd b8 ae f3 bd 53 9d d8 3d
       -0.12430275 -0.11390431 -0.11898559 0.10576882
000070 79 6e 09 3e 20 ca 61 bd 8f 78 18 3e a7 f7 24 3d
       0.13421048 -0.055124402 0.1488974 0.040275242
000080 b0 52 08 3d 68 79 28 be 1d d4 ab bc 84 7f ef 3d
       0.033281982 -0.16452563 -0.020975167 0.116942436
000090 fd c3 9b bd d4 9b 8e bc 72 b8 81 3e b5 fb e8 bd
       -0.07605741 -0.017408289 0.25336033 -0.11376134
0000a0 93 55 a1 3d 85 6e 76 3e e1 b0 5b 3e 64 a1 d4 3d
       0.0787765 0.24065597 0.21454193 0.10382345
0000b0 91 c3 25 3d 0c e2 c8 bd d6 df 27 3d 40 f4 7f 3e
       0.04046971 -0.0980874 0.04098495 0.24995518
0000c0 ff 8d 6a bd da 62 25 be 1b 23 42 3c 39 8b fa bb
       -0.057264324 -0.1615099 0.01184919 -0.007645991
0000d0 b9 50 49 bd eb e0 01 be 7f 88 81 be 8e 10 45 3d
       -0.04914925 -0.12683456 -0.2529945 0.04811149
0000e0 73 ed 74 bd 58 c4 12 3d 39 40 8a bd 39 43 51 be
       -0.05979676 0.03583178 -0.06750531 -0.204358
0000f0 ab eb 5b 3c c3 b7 05 3e 7f d7 a9 3d 23 24 a4 bd
       0.013422887 0.13058381 0.08293056 -0.08014705
000100 98 67 88 bd a5 f1 2e 3d a9 f5 88 3e 42 95 ed bc
       -0.06660384 0.04271092 0.26749924 -0.029001836
000110 83 40 f8 bb 2d 9d 83 bd 33 21 9b 3e 8c 09 1e 3e
       -0.00757605 -0.06426463 0.30298766 0.1543333
000120 78 bf b2 3d 35 7a f5 3c 9e b7 b3 3b cc ce b5 3d
       0.08727926 0.0299655 0.0054845354 0.08877334
000130 31 68 cf 3c 0f 21 1f be 6d d7 93 3d f3 a3 d1 bd
       0.025318237 -0.15539955 0.072188236 -0.10236349
000140 1f 36 be 3c 2e 9a 2e 3e 5f 3c 22 bd bb ae d6 bd
       0.023219166 0.17051002 -0.039608356 -0.10482546
000150 36 a2 05 be c8 50 99 3a 50 9d 1c be f3 6e f1 3d
       -0.1305016 0.0011697048 -0.15294385 0.1178874
000160 24 45 8c bc 2b ab 6c be 82 e3 34 3d f9 05 1d 3c
       -0.017122813 -0.2311217 0.04416228 0.0095839435
000170 34 26 9b 3d ad 18 94 be bd c6 fc bc 6a 8d 3a bc
       0.07575646 -0.28925076 -0.030856485 -0.011386255
000180 ee 2e 4d bc fb 46 c5 be ef e6 39 be 17 6e bf 3d
       -0.012523396 -0.38530716 -0.181545 0.0934717
000190 3e f3 14 bd 93 23 8a be 9b ab b0 ba 3a 75 ef bd
       -0.036364786 -0.26980266 -0.0013478877 -0.11692281
0001a0 2a 57 04 be 78 fa a6 3d ef c7 54 be 69 1e 25 3e
       -0.12923875 0.08153242 -0.20779394 0.16124882
0001b0 6a 55 c3 bd 6d f0 e7 bd 3c e1 83 bd 6c ea 2d bd
       -0.09537776 -0.113251545 -0.064394444 -0.04245989
0001c0 4c 8e 1d bd b8 4b bf bd 0c 94 57 be 69 d2 4a bd
       -0.038465783 -0.09340614 -0.21052569 -0.04951707
0001d0 e3 fd f8 3d 80 2a e9 bd f8 98 29 be 74 fa f4 bd
       0.121578 -0.11385059 -0.16562259 -0.11961833
0001e0 5b 71 77 bd 37 df 1b 3d 1f d3 d5 bd bb 39 79 bc
       -0.06041084 0.03805467 -0.10440659 -0.015211518
0001f0 39 b0 bb bd 9d ba f1 3d cb ed e4 bd 19 96 30 3d
       -0.09164471 0.11803172 -0.11178168 0.043111894
000200 10 6e 1f 3e f1 81 0a 3e 91 3d 82 bd 71 ce 7a bd
       0.1556933 0.13526131 -0.06359399 -0.061232034
000210 9b cd aa 3d 2e 04 f2 3d 8c da e1 bd 85 eb 86 be
       0.083399974 0.118172035 -0.11028013 -0.26351562
000220 bf 75 84 3d 52 8e e9 bd e6 99 58 be 3e f2 7c be
       0.06467771 -0.114040986 -0.21152458 -0.24701783
000230 6b fd 0e be 04 08 cc bd 8d bc f1 be eb 42 61 3c
       -0.13963859 -0.09962466 -0.47214165 0.013748865
000240 e7 31 a9 bd 22 a4 ab 3d 2e 54 8f 3d b2 c1 2e be
       -0.08261471 0.08380915 0.06998478 -0.17066076
000250 3f 32 03 3e 6c 0e 97 bd 60 98 83 bd f6 c4 3d be
       0.12812136 -0.07375798 -0.064255476 -0.18532166
000260 fd 0d 5b bd eb 6a 0a be 15 5c e9 3d 6e 72 08 be
       -0.053480137 -0.13517348 0.113945164 -0.13324901
000270 7e 7d 1c be 1e f1 d6 bd bf 2d c4 3d ed 81 5a bc
       -0.15282246 -0.10495208 0.09579038 -0.013336641
000280 bf 8d 64 bc 40 8c 09 3e 56 c6 3c 3d 5f e5 01 be
       -0.0139498105 0.13432407 0.046087585 -0.12685154
000290 3d ee 82 39 0e 2c 26 3e c3 30 e8 3b 8d 97 33 bc
       0.00024973034 0.16227743 0.007085891 -0.0109614255
0002a0 44 63 03 3e 3d e0 2a 3e f9 ce 35 3c d1 f2 f5 3d
       0.12830836 0.16687103 0.011096709 0.12009204
0002b0 72 87 ba bc bb d8 9b bc 5b dc a8 3d 32 3a 84 3d
       -0.022769663 -0.019024244 0.082451545 0.064564124
0002c0 68 50 2a be 02 ba 92 3d fc 79 40 be 97 b6 21 3e
       -0.16632235 0.071643844 -0.18796533 0.15792309
0002d0 2a fd 10 be 99 9a 4f be 38 03 3d be 04 4c 04 bd
       -0.14159074 -0.20273818 -0.18458259 -0.032299057
0002e0 be 8b f2 bc 8e fe b6 bd da bc 0e bb dc e3 c4 bd
       -0.02960765 -0.08935271 -0.0021780045 -0.09613773
0002f0 31 f9 e1 bd 53 36 3a be 6b 01 de 3d e4 32 23 3d
       -0.110338576 -0.18184786 0.10840114 0.039843455
000300 e1 0a 11 3d 2c b3 de 3d ec 65 05 be 2f b0 be bd
       0.035410766 0.10874018 -0.13027161 -0.09310948
000310 02 0a 08 be bb 70 19 3e 93 41 45 3d 42 f8 8b bb
       -0.13285068 0.1498441 0.04815824 -0.004271538
000320 2b b0 48 be 43 1e 3d bd 9a 34 bb 3d 97 52 fa 3c
       -0.19598453 -0.046171438 0.09140892 0.03055696
000330 b0 68 95 bd 49 6a da bd 86 7a 0d be 55 44 e2 3d
       -0.07295358 -0.106648035 -0.1381627 0.110481896
000340 39 f9 a4 bc 7e ae 27 be b8 9a 87 bd 09 ee 21 3e
       -0.02013837 -0.16375157 -0.06621307 0.1581346
000350 3a 4a 65 bd f6 e3 83 bc 8b 3d 18 bd 39 ee 14 3e
       -0.05597899 -0.016099911 -0.037168067 0.14544
000360 6b 5f d3 3d a5 51 f8 bd 1f 11 27 3e 02 f7 80 bd
       0.10320934 -0.121249475 0.16315125 -0.06297113
000370 f2 72 2d 3e ba 70 98 3c 17 08 c0 bd c3 25 25 3d
       0.1693838 0.01860844 -0.09376543 0.040319216
000380 11 e6 d9 3d e5 57 01 be 2b 6c 29 3c 69 a7 5a 3e
       0.10639585 -0.12631185 0.010340731 0.21352924
000390 73 1e 28 3e 0d 3b c4 3d 3a b9 30 bd df 55 60 3e
       0.16417865 0.095815755 -0.043145396 0.21907757
0003a0 67 77 d2 3d c8 5f 10 3d 0e 12 b6 ba c4 dd 32 bc
       0.102766804 0.035247594 -0.0013890879 -0.010917131
0003b0 2b 44 ff 3d 92 65 26 be 92 55 c9 bd 5c d1 7e 3b
       0.12464174 -0.16249683 -0.09830774 0.0038882112
0003c0 ab b5 9a 3c b3 cc 11 3d 9c 5e 6f 3e ce 25 20 be
       0.018885454 0.035595607 0.23375934 -0.15639421
0003d0 4a 3e 9b bc 44 18 be 3d 71 88 26 bd 3a 36 96 3d
       -0.0189506 0.09281972 -0.040657464 0.07334562
0003e0 85 75 d1 bd ee fe a1 3d 57 0a 09 be 43 e7 5a be
       -0.10227493 0.07909952 -0.1338285 -0.21377282
0003f0 0b b9 53 be 83 ac c1 bd f0 f1 77 bd a5 0f 63 bd
       -0.20676057 -0.09456732 -0.060533464 -0.05543484

conv1.bias f4 [64]
000000 0a 33 4a 3d b3 5b 97 3a d8 41 0d bd a4 2a a4 bd
       0.04936508 0.0011547714 -0.03448662 -0.080159456
000010 0f e6 1c 3d 35 a0 fe 3d 16 89 17 be 39 51 63 bd
       0.03830534 0.12432901 -0.14798388 -0.05549738
000020 13 26 01 3e 6c 42 10 bd bb 62 0f be 0d ab 51 3d
       0.1261218 -0.035219595 -0.14002506 0.051188517
000030 0a d7 2b bd cc 6f 1f 3e bd f4 4b bd ea ea 2a 3d
       -0.041953124 0.15569991 -0.049793947 0.041727938
000040 89 42 93 bd e8 58 74 3d 7e 97 92 3d 54 a2 14 3e
       -0.07190425 0.0596551 0.07157801 0.14515048
000050 54 da dd 3d 19 bf 18 be 24 f0 b6 3d c0 7c 03 bd
       0.108326584 -0.14916648 0.08932522 -0.032101393
000060 e8 27 59 bd de 10 1e bd e9 e5 0e 3e 88 21 5d bc
       -0.053016573 -0.038590305 0.13954891 -0.013496764
000070 e9 f0 00 3e 40 ce 5f bd eb f0 0b be d1 1c 91 3d
       0.125919 -0.054640055 -0.13666122 0.070855744
000080 d9 95 19 3e 6c 9e 79 bd 48 76 13 be 25 1f 0e 3c
       0.14998569 -0.0609421 -0.1440059 0.008674418
000090 3a 21 07 be f9 ba 1e bd b8 78 6b bd d4 8b 9e 3d
       -0.13196269 -0.03875253 -0.057488173 0.07741514
0000a0 df d6 17 be 70 63 d0 3d 53 8d 49 bd cd 80 c0 3d
       -0.1482806 0.10175216 -0.049207043 0.09399567
0000b0 2a e0 33 3d 18 36 e8 bd 05 fd 1f 3e c8 9c 8d bc
       0.04391495 -0.113384426 0.15623863 -0.017286673
0000c0 0c 87 84 3d 9a 22 e7 3c 2e 25 11 3c 19 11 8f 3d
       0.06471071 0.028214741 0.008858962 0.06985683
0000d0 43 6b 0c bd 55 8b b8 3d 58 82 47 bd b2 a7 d3 3d
       -0.03428198 0.090109505 -0.04870829 0.1033472
0000e0 7c dd ea 3d d0 bc 9a 3d e1 53 7e 3d 3f 18 0e 3e
       0.11468026 0.075555444 0.062091712 0.13876437
0000f0 e6 b0 57 bd 07 7c 52 3d 87 77 d5 3d 01 fb 41 3d
       -0.052658938 0.051387813 0.10423189 0.047358517

bn1.weight f4 [64]
000000 76 c4 86 3f 21 4d 7f 3f 3a d9 87 3f 68 fa 89 3f
       1.0528705 0.99727064 1.0613167 1.0779543
000010 7b 56 63 3f d2 b6 64 3f 67 d7 92 3f 33 2f 85 3f
       0.88803834 0.8934146 1.1471986 1.0405029
000020 e0 11 82 3f e5 d9 80 3f 49 6f 6b 3f f9 11 96 3f
       1.0161705 1.0066496 0.9196668 1.1724235
000030 8f cd 78 3f cb c1 93 3f 40 02 69 3f 33 b0 78 3f
       0.9718866 1.1543516 0.9101906 0.9714386
000040 ec e9 93 3f f4 d3 88 3f 69 f3 8c 3f 23 f4 8a 3f
       1.1555762 1.0689683 1.1011783 1.0855755
000050 8d 47 92 3f 6c b8 6a 3f e3 74 86 3f 24 46 94 3f
       1.1428086 0.91687655 1.0504421 1.1583905
000060 42 99 62 3f 21 a1 6d 3f cb 04 54 3f 34 99 82 3f
       0.885151 0.9282399 0.82819813 1.0203004
000070 e4 ac 82 3f 83 ce ac 3f 46 e9 89 3f c3 76 9b 3f
       1.0209012 1.3500522 1.0774314 1.2145618
000080 7e 95 80 3f 98 4a b7 3f 36 6d 85 3f 29 e5 72 3f
       1.0045621 1.4319639 1.0423954 0.9488092
000090 f7 45 7c 3f 94 16 54 3f 8d 3f 6d 3f e5 38 84 3f
       0.9854426 0.8284695 0.92675096 1.0329863
0000a0 4d 73 65 3f e1 ff 76 3f 4f f8 64 3f ac 19 b2 3f
       0.8962906 0.9648419 0.8944139 1.3914084
0000b0 35 f3 66 3f 8f ca 71 3f a7 b1 a0 3f 5c 8d 83 3f
       0.90214854 0.94449705 1.2554215 1.0277514
0000c0 d4 46 3d 3f 7b 79 89 3f ce 2c 5a 3f 4e f1 99 3f
       0.739362 1.0740198 0.85224617 1.2026765
0000d0 3b 74 82 3f c5 84 7f 3f c0 dc 73 3f 5b 58 89 3f
       1.0191721 0.99811965 0.9525871 1.0730089
0000e0 74 69 4f 3f 1c 93 80 3f 4f b2 6a 3f ed bf 83 3f
       0.81020284 1.0044894 0.9167833 1.0292946
0000f0 8a ab 96 3f 5b 8f 83 3f ef 4d 6b 3f 74 b0 81 3f
       1.17711 1.0278124 0.9191579 1.0131974

bn1.bias f4 [64]
000000 5a 94 0e bd 08 a8 90 3d 16 63 d1 bc 5a 13 9c 3c
       -0.034809448 0.070632994 -0.025559943 0.019052196
000010 2c 11 ed bd 15 9c 03 be f7 0e c5 3c f5 36 2a bd
       -0.11575541 -0.1285251 0.024054987 -0.041556317
000020 a2 b0 9d bd c1 f9 09 bd 14 9d e5 bd e5 1d 08 3b
       -0.07699706 -0.03368545 -0.11211601 0.0020769772
000030 2a 28 70 bd 94 01 fb bc 61 22 ef bd 17 af 85 bd
       -0.058632053 -0.030640401 -0.11676479 -0.06527536
000040 09 a7 f6 bc 34 ae 92 bc d1 0a 05 bd 7e c2 be 3c
       -0.030108945 -0.017905332 -0.03248102 0.0232861
000050 cf de d0 3b 51 c1 e5 bd a1 90 45 3d 0c 3c ad 3c
       0.006374217 -0.11218513 0.048233632 0.021146797
000060 8d a9 0a be ff 00 ee bd 1c 1a 2c be 67 5b 08 bd
       -0.13541241 -0.11621284 -0.16806835 -0.033290293
000070 12 f6 41 bd 14 44 4d 3c 63 9a 2c bd c3 4b da 3c
       -0.04735381 0.012528438 -0.042139422 0.026647454
000080 41 34 8e bd 87 6d ac bc cf 9c 88 bd ef 2b a8 bd
       -0.069435604 -0.02104832 -0.06670534 -0.08211505
000090 65 e3 c6 bd 55 e6 20 be 76 24 07 be 4b a9 6d bd
       -0.09711341 -0.15712865 -0.13197502 -0.05802278
0000a0 73 91 0b be 6b a4 a3 3d f5 e9 0c be ab e4 b0 3b
       -0.13629703 0.079903446 -0.13761123 0.005398353
0000b0 9b 83 02 be 5e 2f c2 bd 21 0c 1b bc e3 9b 24 3d
       -0.12745516 -0.09481691 -0.009463341 0.040187728
0000c0 ea 60 85 be 3b 5d 58 bd 33 ff 27 be a0 36 e4 bc
       -0.26050502 -0.052823287 -0.16405945 -0.027858078
0000d0 b6 4a fb bc 81 c4 d3 bd 35 15 bf bd e1 ff 20 bd
       -0.030675273 -0.103402145 -0.09330217 -0.039306525
0000e0 d7 63 4f be e0 91 a8 bd b9 86 06 be 98 79 8c bd
       -0.2025293 -0.082309484 -0.1313733 -0.0685913
0000f0 a2 5f f1 3b ec d1 5e 3d 88 1f dc bd 8b fb aa bd
       0.0073661366 0.054399416 -0.107482016 -0.08348759

bn1.running_mean f4 [64]
000000 77 91 56 c2 2a 8e aa 42 c5 b5 94 c3 16 01 62 c3
       -53.642056 85.277664 -297.42007 -226.00424
000010 15 57 19 c2 87 a9 dd 41 54 39 a2 c3 13 aa a0 c2
       -38.33504 27.707777 -324.44788 -80.33218
000020 2e d2 07 42 7f fd 2a 43 e2 c1 8f c2 23 ee 06 c2
       33.955254 170.99022 -71.87868 -33.732555
000030 43 d9 fd 42 bf 33 a4 c3 85 4b 8d c2 70 28 22 c3
       126.92434 -328.40427 -70.6475 -162.15796
000040 b0 0e 9a 43 8f cd 19 43 b9 5b cd 41 ef af 80 c2
       308.11475 153.80296 25.669786 -64.34362
000050 ff 13 aa 42 88 7c 4a 41 83 eb 8e c3 d9 e3 e5 41
       85.039055 12.655403 -285.83994 28.736254
000060 02 72 1f 43 15 e5 aa 41 97 5b d9 42 4c e5 1f 41
       159.44534 21.361856 108.67889 9.993481
000070 e1 94 42 c3 54 7c a0 c2 8d f6 54 42 e3 0f eb 41
       -194.58156 -80.24283 53.240772 29.382757
000080 0a ae 13 43 89 c6 4f 43 4e ef 90 c2 5a 0a 3e c3
       147.67984 207.77553 -72.46739 -190.04044
000090 ac 1b e1 c2 dd cb 31 c3 2c 9e 4b 42 38 26 e0 41
       -112.55405 -177.79634 50.904465 28.018661
0000a0 6f ce 59 41 69 18 3c c2 4b 43 a0 42 cf a9 58 42
       13.612899 -47.023838 80.13143 54.16583
0000b0 f6 3f cd 42 36 45 3b c3 82 1d 1f c1 96 fb c5 c2
       102.62492 -187.27036 -9.944704 -98.99138
0000c0 69 4a aa 42 2d 19 89 40 cc 5b 1d c0 05 9a 4d c2
       85.14533 4.284323 -2.4587278 -51.40041
0000d0 e8 6d e4 42 43 bd 60 41 14 6a 28 c2 a6 0e 1a 42
       114.21466 14.046206 -42.103592 38.514305
0000e0 5e 06 87 42 f4 2f 06 c3 ff 54 b1 42 df f1 53 c3
       67.512436 -134.18732 88.66601 -211.94481
0000f0 75 3c 1a c3 f4 b7 3b c3 83 3b 2b c3 c1 fa ed 42
       -154.23616 -187.71857 -171.23247 118.98975

bn1.running_var f4 [64]
000000 bd ec 7c 44 22 9e 42 44 d0 1b 11 45 a3 b8 3c 45
       1011.69904 778.4708 2321.7383 3019.5398
000010 80 63 60 44 00 a1 fc 44 47 8d 9c 45 bd 57 3b 45
       897.5547 2021.0312 5009.6597 2997.4836
000020 e8 ae e7 44 31 d3 50 45 80 61 fc 43 84 79 69 44
       1853.4658 3341.1995 504.76172 933.8987
000030 12 5f 9b 44 7c 8a 01 45 ee 8c 9e 44 d3 05 84 44
       1242.971 2072.6553 1268.404 1056.182
000040 99 e1 82 45 c5 67 c5 44 08 b0 fb 43 81 75 c0 45
       4188.1997 1579.2428 503.37524 6158.688
000050 a4 e8 ec 44 d4 7d c7 44 4f 8f d3 45 3c ec 55 45
       1895.27 1595.9321 6769.9136 3422.7646
000060 2d f3 2d 45 70 ae a3 43 0a 94 af 44 3b e9 ae 45
       2783.1985 327.3628 1404.6262 5597.154
000070 ac f8 84 44 47 65 85 44 51 34 e2 43 24 e0 b3 44
       1063.771 1067.1649 452.40872 1439.0044
000080 2d ea 5b 45 d4 97 8b 44 bc d9 00 45 c3 dc f2 44
       3518.636 1116.7446 2061.6084 1942.8988
000090 02 67 67 44 a9 33 1a 45 2e 5b a7 44 9e c8 a5 43
       925.6095 2467.2288 1338.8494 331.56732
0000a0 d8 39 b8 43 49 3f 75 43 1f d9 94 44 86 ce 2e 45
       368.4519 245.24721 1190.785 2796.9077
0000b0 17 65 2c 44 87 f2 b4 44 0d e9 2e 45 57 64 03 45
       689.5795 1447.579 2798.5657 2102.2712
0000c0 44 5b 5f 44 01 90 36 45 fe b9 ce 43 21 f3 b7 45
       893.426 2921.0002 413.45306 5886.391
0000d0 48 05 fe 43 d0 41 99 44 9b f3 87 44 88 fa 3e 44
       508.04126 1226.0566 1087.6127 763.91455
0000e0 28 06 f6 44 dd c0 47 45 ad cf 98 44 2c a3 6b 45
       1968.1924 3196.054 1222.4899 3770.1982
0000f0 08 1c 54 44 80 8d 80 45 c1 66 df 44 b7 5f 3c 44
       848.438 4113.6875 1787.211 753.49554

conv2.weight f4 [64, 1, 3, 3]
000000 ed 1e d3 3e 2a e3 0a be 4a 9f 02 bd 58 cf 95 3d
       0.41234532 -0.13563219 -0.03189019 0.07314938
000010 74 64 ac be 16 bd 86 be 84 fc 52 3e bd 74 bb bb
       -0.3367039 -0.26316136 0.2060414 -0.0057207034
000020 30 e2 92 3e 84 65 cf be 99 d6 bb bd 61 4e 43 3e
       0.28688192 -0.40507138 -0.09171791 0.19072868
000030 78 6b 66 3e 12 27 e1 bc 61 d1 1d bc 01 3e 97 3e
       0.22501934 -0.02748445 -0.009632439 0.29539493
000040 ff cc 84 3e fb fe 1f 3d 15 1b 3c be 02 9c a0 be
       0.2593765 0.039061528 -0.18369706 -0.31369025
000050 e9 26 e1 bd fd 72 5c 3e d8 1d 11 3e ba 20 c1 be
       -0.1099375 0.2152824 0.1417154 -0.3772028
000060 ff 7b 69 be 79 2b 1e 3e e2 f8 99 be 56 e6 1c 3d
       -0.22801207 0.15446271 -0.30072695 0.038305603
000070 8a 38 c2 3e d8 39 97 3b ce 6b 93 be 79 97 d5 3d
       0.3793376 0.00461505 -0.28793186 0.10429282
000080 10 96 70 3e 96 45 76 3e 34 9d 39 3e 82 f3 67 be
       0.23494744 0.24049982 0.18126374 -0.22651485
000090 a1 c8 eb bd 1f 14 95 3e 3c c8 9b 3c 9b 1e ad 3e
       -0.11512876 0.29116914 0.019016378 0.33812413
0000a0 c7 0b a1 3e b8 b3 49 bd 05 65 60 bc 21 9f c9 3d
       0.31454298 -0.04924366 -0.01369596 0.098448046
0000b0 6b c8 88 be 56 46 9a bc 3f fb 3a 3e 4b 4f da 3d
       -0.26715407 -0.018832367 0.18259905 0.10659655
0000c0 d7 26 15 bd 52 de 82 3e 34 08 40 bd 33 0b 6d be
       -0.036413994 0.25560242 -0.046882823 -0.23148803
0000d0 2c e5 8b 3e 1e 71 80 3e cd 3d 1c 3c ad 59 22 be
       0.27323282 0.25086302 0.009536219 -0.15854521
0000e0 aa 3a 33 be 06 76 c2 3d 62 07 9f be 78 40 8e 3e
       -0.17502847 0.094951674 -0.3106032 0.2778356
0000f0 c4 fa 93 be d7 07 c9 be 85 95 8e 3e 25 fb 04 be
       -0.28902256 -0.39263794 0.2784845 -0.12986429
000100 04 eb 52 be 88 f4 b7 bd b3 1e ed 3d b1 55 11 be
       -0.20597464 -0.089821875 0.11578121 -0.14192845
000110 16 88 07 bd d8 d2 d4 bd 3b 66 bd be 9d a0 55 3e
       -0.033088766 -0.10391778 -0.36992058 0.2086205
000120 11 01 20 3d f0 34 87 3c ed 51 57 be 17 d6 8b 3e
       0.039063517 0.016504735 -0.21027346 0.27311775
000130 4a 0c a5 be 08 3d ff be 4d b4 69 be fb 93 bc 3e
       -0.32235938 -0.4985125 -0.22822686 0.3683165
000140 d5 7b a6 be b4 71 28 be f8 94 96 3c e3 e9 2c be
       -0.3251635 -0.16449624 0.01838158 -0.16886096
000150 f7 da e4 3e 58 a8 d4 3d 6c 5c 7c 3e fb 0f 79 3e
       0.44698307 0.103836715 0.24644631 0.24322502
000160 81 39 5e bd 06 72 14 3d c3 47 9a 3e 6d 43 c8 3d
       -0.05425406 0.036241554 0.30132875 0.097784854
000170 42 3b 85 be e3 11 31 be eb c6 76 be 1c f4 06 3d
       -0.26021773 -0.1729198 -0.24099319 0.032947645
000180 78 55 0c 3e 3b 35 2a be 3a 0b 7b 3e 00 ee 30 3e
       0.13704479 -0.16621868 0.24516001 0.1727829
000190 75 93 a9 bd dd f2 5e be 42 89 1b 3e 0e 2e d8 3d
       -0.08280078 -0.21772332 0.15189078 0.10555659
0001a0 f1 60 86 bd 74 05 d2 3d 21 f8 b5 bd c3 02 4f 3e
       -0.06561459 0.10254946 -0.088852175 0.20215897
0001b0 b1 4b 4a be 5f 20 4e bd ab 74 ab bc fe 63 a5 be
       -0.19755436 -0.05032384 -0.020929655 -0.3230285
0001c0 2c d9 c0 3d a1 8d fc 3d da 9c 85 be 36 41 32 3d
       0.09416422 0.12331701 -0.2609623 0.04351922
0001d0 3d 47 78 3d 96 58 92 3d f0 82 97 3e 8d 76 95 3c
       0.060614813 0.07145803 0.29592085 0.018245006
0001e0 03 5b 9c be 76 bb 86 be 4a c6 0c 3e 1c b8 f8 3d
       -0.30538186 -0.26314896 0.13747516 0.12144491
0001f0 b6 c9 56 3e 43 5d 65 be b5 9c 27 3e ba 91 dc 3d
       0.20975384 -0.22398858 0.16368373 0.10769983
000200 e7 b5 63 be 73 5e 38 be b9 f6 ff bd f9 95 94 be
       -0.22237359 -0.1800478 -0.124982305 -0.2902067
000210 cf a4 a8 bc a7 d9 b7 bd c0 21 1a be c1 14 a8 be
       -0.0205864 -0.08977061 -0.15051937 -0.32828334
000220 c8 1c cb bd 06 2e 2b 3e 9a 6d 9e bd 93 b5 2b bd
       -0.09917599 0.16716775 -0.077357486 -0.04192121
000230 99 38 98 3e 03 e2 1e 3e 2c 96 4f 3d 53 27 ab 3e
       0.2973068 0.15515904 0.050680324 0.3342844
000240 a3 e7 ed bd 6e 8e 6a 3e d9 a9 b9 bd a4 c5 25 be
       -0.11616447 0.22905895 -0.09065599 -0.16188675
000250 3e 28 b7 3d 4b d3 56 3e 69 7b 81 3e f8 e5 86 be
       0.089432225 0.2097904 0.25289467 -0.26347327
000260 bc af 50 bd e9 d2 5b 3e b7 34 9b be 0b 71 99 be
       -0.050948843 0.21467175 -0.30313656 -0.29969057
000270 f6 d1 57 be c6 2f 6a be 4b 09 31 3d 33 ed 60 be
       -0.21076187 -0.22869787 0.043221753 -0.21965484
000280 63 be 44 bd 0a 54 c0 bd 9e 06 c2 bd ff 74 61 3d
       -0.04803313 -0.09391029 -0.094739184 0.055043217
000290 a2 3c ac bd 76 71 bd be af 1a 1a 3e 12 52 15 be
       -0.08410002 -0.37000626 0.15049241 -0.14582089
0002a0 52 98 d5 3e 06 09 0d 3e b4 32 6a 3e 53 d3 78 bc
       0.41717774 0.13772973 0.22870904 -0.015187102
0002b0 7f 21 b7 3e bd 9a cc 3c 2e f9 cd 3d 15 a2 85 be
       0.35767743 0.024976129 0.10057293 -0.2610022
0002c0 9b 94 5d bc 7e 61 7c be 8c 0f 9a 3e a7 b5 ac bd
       -0.0135242 -0.24646565 0.30089986 -0.08433085
0002d0 0c b2 9c 3d 68 2b 91 3c 5d b7 56 be 35 ac 32 be
       0.07651147 0.017720893 -0.20968385 -0.17448504
0002e0 64 8c a7 3e 7d cd 9e 3d de 3f 5a 3d 03 b2 35 bb
       0.32724297 0.077540375 0.053283565 -0.0027724511
0002f0 c9 29 97 be 2a c2 77 3e 8f 92 ab be a1 8f a5 be
       -0.29524067 0.24195161 -0.33510253 -0.32336143
000300 9d 42 34 3e e3 22 86 be 8e 64 0e 3d 01 bf 06 3e
       0.17603536 -0.2619849 0.034763865 0.131588
000310 bb 27 21 be 61 35 3e 3e 83 f6 7c be ce b4 77 be
       -0.15737812 0.1857505 -0.24703412 -0.24190065
000320 ae 40 c4 bd 68 3c aa 3e 4c 04 04 3e fc 38 3b be
       -0.09582649 0.3324921 0.12892264 -0.18283457
000330 14 d7 63 3e 4b 3f f6 bc 4b 0a e2 bd d4 c3 35 3d
       0.22250015 -0.030059477 -0.110371195 0.04437621
000340 b7 71 1c 3d 3d a1 63 bd 7a cf b9 3b 28 30 6c be
       0.038194384 -0.05557369 0.005670485 -0.23065245
000350 3a f7 3a 3e 24 b0 3e be 73 87 41 be bb 32 a3 3d
       0.18258372 -0.1862188 -0.18899326 0.079686604
000360 61 40 82 be 2b bb 33 3e 6c 39 98 bd 98 a9 53 be
       -0.25439742 0.17551868 -0.07432827 -0.20670164
000370 53 fe 5f be 89 92 b7 be 5d 71 8e 3c 6c 0b a0 3e
       -0.2187436 -0.35853985 0.01738804 0.31258714
000380 27 f6 dd be a4 8c 98 3e 9c f5 86 3e 41 7c 9c 3c
       -0.43351862 0.297948 0.2635926 0.019102218
000390 08 80 de bd 4c 3f 02 be e4 da 8a 3e 5d 98 b7 3d
       -0.10864264 -0.12719458 0.27120125 0.08964608
0003a0 1c b9 32 be de ee 34 3e cd 16 dd bd 1e 43 a0 3d
       -0.17453426 0.17669246 -0.107953645 0.078253016
0003b0 59 6f e9 3e 11 17 92 be 60 76 b1 bd a4 26 47 3e
       0.45592764 -0.28533223 -0.08665156 0.19448334
0003c0 cb 81 1d be 2d 5f 1c 3e 02 1b 03 be 71 d1 99 bd
       -0.15381543 0.15270682 -0.12803271 -0.07510651
0003d0 21 f8 a3 3e 21 42 02 3e 40 68 24 be d2 64 56 3d
       0.32025245 0.12720539 -0.16055393 0.052342243
0003e0 5d ab 6a 3d 94 9b 5f be fc 89 49 3d 4e 54 a0 3e
       0.05729233 -0.21836692 0.049203858 0.3131432
0003f0 80 16 4c be 3d 71 ce bd 86 de 8a 3c 79 ba 40 be
       -0.19930458 -0.10080192 0.01695181 -0.18821134

conv2.bias f4 [64]
000000 e0 de 95 3d a7 e9 6d 3e 2d 61 74 be c8 72 a7 bd
       0.07317901 0.23233663 -0.23865195 -0.0817619
000010 b4 aa 97 be 60 8c 09 be c6 b7 33 be af 8c 5e be
       -0.29622424 -0.13432455 -0.17550573 -0.21733354
000020 08 1a f1 bc 5f 6e 72 bc cb 20 95 be a0 a6 5c 3e
       -0.029431358 -0.014796822 -0.29126582 0.21547937
000030 0d 0e 2a be a2 7e 4a be 54 89 1e 3e f7 f9 0a 3e
       -0.16606922 -0.19774869 0.15482074 0.13571917
000040 cf 1b 2b 3e 03 91 8e 3d e6 e7 88 3d c0 13 f9 bd
       0.16709827 0.069612525 0.06684856 -0.1216197
000050 a8 16 93 bd 35 bb 27 3e ae 2b 0f be d7 36 0e be
       -0.07182056 0.16380008 -0.13981506 -0.13888107
000060 84 77 9b be b9 a7 64 3e c6 69 6b be a7 08 57 be
       -0.3036462 0.22329606 -0.22989568 -0.20999394
000070 57 c8 25 3e 39 20 a6 bd 63 8a d5 3d c4 07 82 3e
       0.16189705 -0.08111615 0.10426786 0.2539655
000080 94 0e 32 be 40 7f 3a bd af 5b 0b be 3e 02 71 be
       -0.17388374 -0.04553151 -0.13609193 -0.23536012
000090 bf 67 03 be ca 9f 96 bd da 78 4f be 07 11 3c bd
       -0.12832545 -0.07354696 -0.20260945 -0.045914676
0000a0 56 94 15 3e a7 c1 40 3e fe c4 3d 3e ca 40 0b 3d
       0.14607367 0.18823873 0.18532178 0.033997335
0000b0 09 7b ae 3e 2f 49 73 be 80 de 80 bb 11 76 27 3e
       0.34078243 -0.23758386 -0.003932774 0.16353633
0000c0 f7 82 0b be 3f f2 9e 3e c3 09 69 be 44 71 a5 3b
       -0.13624178 0.31044194 -0.2275763 0.0050489027
0000d0 29 67 92 3d d1 ff b5 be 3d d3 34 3e 87 c1 8e bd
       0.071485825 -0.35546735 0.17658706 -0.06970506
0000e0 3f fe 4f 3e 65 ba 66 be 50 4d ac be 20 24 1c be
       0.20311831 -0.22532041 -0.33652735 -0.15248156
0000f0 17 90 4c be 20 5f 93 be 78 e5 ca bc fb ef a2 3e
       -0.19976841 -0.28783512 -0.024767622 0.31823716

bn2.weight f4 [64]
000000 51 d1 7b 3f 52 56 6d 3f c1 80 80 3f 51 75 6e 3f
       0.98366266 0.9270984 1.0039293 0.9314776
000010 29 d1 70 3f c5 d3 6e 3f 0a 28 65 3f 90 c5 59 3f
       0.94069153 0.93291885 0.8951422 0.8506708
000020 35 8c 97 3f b9 1d 53 3f 03 2d 78 3f c5 3f 74 3f
       1.1839663 0.8246723 0.9694368 0.95409805
000030 7e 31 63 3f 7a bd 5b 3f c5 10 70 3f de 7c 69 3f
       0.88747394 0.85835993 0.9377559 0.9120616
000040 4b b0 98 3f a0 43 73 3f fb 64 86 3f ca f3 6d 3f
       1.19288 0.9502506 1.0499567 0.9295012
000050 d5 31 6d 3f a6 0d 82 3f 42 e8 58 3f a5 eb 8e 3f
       0.9265416 1.0160415 0.847294 1.1165663
000060 07 c0 7b 3f 68 dc 87 3f a0 94 78 3f 66 7f 5c 3f
       0.98339885 1.0614138 0.97101784 0.86131895
000070 0b c8 5d 3f c3 27 7b 3f 63 5e 74 3f cf a8 8b 3f
       0.86633366 0.98107547 0.9545652 1.0910891
000080 91 92 81 3f 53 17 73 3f 7d 19 77 3f 90 94 63 3f
       1.0122854 0.94957465 0.9652327 0.88898563
000090 0a d9 8d 3f 3d a9 67 3f 40 5c 94 3f b2 b2 69 3f
       1.108186 0.9049261 1.1590652 0.9128829
0000a0 8f ce 8d 3f 55 9c 83 3f 5f 77 84 3f 47 48 87 3f
       1.1078662 1.0282084 1.0348929 1.0568932
0000b0 2d 24 90 3f 28 68 67 3f 2a aa 8c 3f 8f 00 68 3f
       1.126104 0.90393305 1.098943 0.9062585
0000c0 b7 bb 92 3f e3 86 a1 3f 37 2a 91 3f 6f 6e 67 3f
       1.1463536 1.2619289 1.1341008 0.90402883
0000d0 d5 36 82 3f 50 f8 6a 3f 6a 76 89 3f 7b 5e 83 3f
       1.0172983 0.91785145 1.0739262 1.0263208
0000e0 19 ab 83 3f bc e1 76 3f a1 43 81 3f 8b 7c 56 3f
       1.028659 0.96438193 1.0098764 0.8378379
0000f0 69 0f 83 3f e1 f2 60 3f 86 17 68 3f 4b 08 67 3f
       1.0239078 0.87870604 0.90660894 0.9024703

bn2.bias f4 [64]
000000 bb 83 42 bd 92 0c f9 bd 90 f6 4f 3c e6 41 67 bd
       -0.04748891 -0.12160601 0.012693062 -0.05645933
000010 ac a8 7c bd df b2 f0 bc 42 1b 4b bd 17 fd a1 bd
       -0.061684296 -0.029382167 -0.049586542 -0.07909601
000020 2a 36 b9 3d 0e b7 e2 bd 1f 8c 97 bd 69 ed 16 bd
       0.09043534 -0.11070071 -0.07399773 -0.036847506
000030 f7 71 c8 bd 67 64 e9 bd fa 27 8b bd 58 b3 12 be
       -0.09787362 -0.11396103 -0.06794734 -0.14326227
000040 d5 b5 9c 3e 3d 82 4c bd 5f f6 95 3d 3f 69 87 bc
       0.30607477 -0.049928892 0.07322382 -0.016529677
000050 48 a0 87 bd d8 d2 67 bd 51 68 bc bd 64 6b 64 3d
       -0.06622368 -0.05659756 -0.09199584 0.05576648
000060 59 b2 87 ba 2e c7 3b 3d 11 69 e3 3b 4c 09 f5 bd
       -0.0010352834 0.04584425 0.006940015 -0.11964664
000070 28 c4 c9 bd 8b a6 f1 bc cf 88 19 bd 73 ef 71 3d
       -0.09851867 -0.02949836 -0.037483986 0.059066247
000080 00 bb 1e 3c 08 03 eb bd 63 ea 9a 3d 81 63 a2 bd
       0.009688139 -0.114751875 0.07564237 -0.07929135
000090 a2 3d 98 3d 78 09 65 bd ef 14 95 3d 92 2f 96 bd
       0.074336305 -0.055917233 0.072793834 -0.07333292
0000a0 f6 5b 45 3d b5 2b 3a 3e 79 8d ab bd 89 41 0e 3e
       0.048183404 0.18180735 -0.08376593 0.13892187
0000b0 e4 bd aa bc 90 e9 5b bc 2f 61 07 3d 0e af 58 bd
       -0.0208425 -0.013422385 0.033051666 -0.05290132
0000c0 ff 9c bc bd 6a 59 f5 3d 15 7a 3a bd 9f 92 bb bd
       -0.09209632 0.11979945 -0.045526583 -0.09158825
0000d0 59 26 eb 3c 47 d7 b6 bd 68 cc 5b bd bf b5 3c 3d
       0.028704809 -0.0892778 -0.053661734 0.046071764
0000e0 d2 1e a1 bd 03 25 97 bd 80 ee e0 bd 43 98 0f be
       -0.07867207 -0.07380106 -0.1098299 -0.14022927
0000f0 db 56 35 bd 44 44 c0 bd b3 69 f5 bd a3 46 f3 bd
       -0.044272285 -0.09388021 -0.11983051 -0.11878707

bn2.running_mean f4 [64]
000000 91 e0 07 3e 6c e4 c9 3e 6a a4 c5 be 20 6b 52 3e
       0.13269259 0.39432085 -0.38602 0.20548677
000010 01 a9 b1 bd 98 64 8b 3d 3f e4 e2 be e1 4f f1 be
       -0.08674813 0.06806296 -0.44314763 -0.47131255
000020 57 d4 a5 be 54 b6 29 3e de 46 b7 be b5 64 92 3e
       -0.32388565 0.16573459 -0.35796255 0.28592458
000030 55 63 b6 be b7 e9 62 be e1 4c b7 3c b4 17 80 3e
       -0.3562266 -0.22159468 0.022375526 0.25018084
000040 fc 26 49 3e 1b 3e 80 be 46 a7 36 3e dd 67 14 bd
       0.19643778 -0.25047383 0.17837247 -0.036231864
000050 fb 22 cd bd f6 88 8c 3d ea 85 9d be 85 6e 80 be
       -0.100164376 0.06862061 -0.3076623 -0.2508432
000060 e1 09 f4 be 17 46 c9 3e 3a 8f 67 be 4e 38 f5 3d
       -0.47663787 0.39311287 -0.2261323 0.1197363
000070 60 01 a6 bd 9f d5 74 be 4d 86 d4 3e fb f1 a8 3d
       -0.08105731 -0.23909615 0.41508713 0.08249279
000080 66 97 5f be 69 eb 54 3e b8 92 fc bd da 31 49 3d
       -0.21835098 0.20792927 -0.12332672 0.049119808
000090 ad 5b e5 bc c1 58 4b be 29 9b af bd 4c 52 34 ba
       -0.027997816 -0.19858076 -0.08574516 -0.0006878718
0000a0 70 b6 36 3e 1c 81 07 be 83 5a 71 3d fc 63 fd bc
       0.17843032 -0.13232845 0.05892421 -0.030931465
0000b0 ea 74 cf 3e d1 a2 c1 be 92 34 f2 bd e8 3c 51 3e
       0.40518886 -0.37819532 -0.11826433 0.2043339
0000c0 d9 86 f6 bd 15 e8 1d 3e 10 ac 86 be 23 b6 3d bd
       -0.12037439 0.15420564 -0.26303148 -0.046316277
0000d0 42 96 a0 3d 5b cb 02 bf fe 3f 42 3e 70 7c 7a be
       0.078411594 -0.51091546 0.18969724 -0.24461532
0000e0 ea c2 86 3e d7 0e 42 bd a4 39 8d be 10 7a c2 be
       0.26320583 -0.047377434 -0.2758304 -0.3798375
0000f0 ea ee a1 be 5c bb b7 bd cc b3 2a 3c cc ef e9 3e
       -0.3162759 -0.08971283 0.0104188435 0.45690763

bn2.running_var f4 [64]
000000 36 94 d2 3d c2 53 d6 3c eb 3d 04 3e a8 39 81 3e
       0.10282175 0.026162986 0.12914245 0.252393
000010 fe 00 db 3d f9 e8 5f 3d b5 4e f2 3e ff 19 83 3e
       0.106935486 0.05466554 0.47325674 0.2560577
000020 f7 45 c4 3d 10 15 c3 3c 95 15 5e 3d d6 26 a0 3d
       0.09583657 0.023813754 0.0542198 0.07819907
000030 61 04 9f 3d af 10 c4 3d 6c 4e 17 3e 5c cc 00 3e
       0.07764507 0.09573495 0.1477601 0.12577957
000040 a4 94 9c 3b d0 2b 18 3e 14 6c d2 3c 72 c3 b3 3d
       0.0047784615 0.14860463 0.025686301 0.087775126
000050 94 92 85 3e 65 37 4a 3d aa 81 13 3e 9a 52 f1 3c
       0.26088393 0.049369235 0.14404932 0.029458333
000060 62 8e 9a 3d 3c 65 a7 3c 26 21 c9 3c 9b ee 2c 3e
       0.075466886 0.020434014 0.02455194 0.16887896
000070 f8 e6 d3 3e 9f 17 36 3e e9 5e c8 3d 2f 4c 95 3d
       0.41387153 0.17782448 0.09783728 0.072899215
000080 4f 23 58 3d 7e f8 8e 3d 78 ad 16 3d af f8 86 3e
       0.052768048 0.0698099 0.036786526 0.26361606
000090 bd c5 4d 3c e4 1a 00 3e 8f c4 68 3c 7d 60 26 3d
       0.0125593515 0.12510258 0.0142070195 0.040619362
0000a0 23 49 4c 3c d1 db bb 3d 01 37 0e 3c 37 d5 a1 3c
       0.012468609 0.09172786 0.008680106 0.01975499
0000b0 90 86 00 3c a0 43 5c 3e e3 df c8 3c 23 d2 5b 3d
       0.007844582 0.21510172 0.02452082 0.0536672
0000c0 e2 39 6c 3b 47 a3 54 3d 40 10 85 3c c6 e5 ca 3e
       0.0036045243 0.051913526 0.0162431 0.39628428
0000d0 7e 15 e0 3b 09 a1 26 3d 89 51 a2 3c 4b b6 7e 3d
       0.0068384996 0.04068092 0.01981427 0.062185567
0000e0 3a 71 95 3b 63 74 b9 3d c8 87 40 3c 6b cb 38 3e
       0.004560617 0.09055402 0.011751123 0.18046348
0000f0 50 31 cd 3d 3b 0b 86 3e 56 d2 de 3d 62 f8 44 3c
       0.10019171 0.26180443 0.10879962 0.01202211

conv3.weight f4 [64, 64, 1, 1]
000000 da b0 a8 3d 71 a4 a9 bd 4a 6a ab 3c f9 34 df bd
       0.08236857 -0.08283318 0.020924706 -0.108987756
000010 8e 3a d1 3d 8d 73 f7 bc c8 73 c4 bc e8 e5 09 bd
       0.102162465 -0.030206466 -0.02398099 -0.03366652
000020 03 16 70 bd be ce 46 3d d9 30 06 be a9 e9 11 be
       -0.058614742 0.04853701 -0.13104571 -0.1424929
000030 dd 4c d5 3c 88 65 c6 bd f8 bf f6 bd f1 8d e7 bc
       0.026037628 -0.09687334 -0.12048334 -0.028265925
000040 44 92 22 be c6 42 79 3d 9b ff 68 3e f2 69 ac bd
       -0.15876108 0.060854696 0.22753756 -0.08418645
000050 fe 17 66 bd f3 ac 71 bd bd 5d a2 3d 4d 14 e6 3d
       -0.056175224 -0.059002828 0.079280354 0.11234341
000060 3c c9 a3 bd 18 83 d5 3d 02 49 9a 3d 28 77 3b 3d
       -0.07997367 0.10425395 0.075334564 0.045767933
000070 bb c3 97 3d 74 a1 2c 3e 70 8e 9e 3d f7 d9 ac bd
       0.074103795 0.16858464 0.077420115 -0.08440011
000080 2a 9a 19 3d 69 4b 81 3d 8d c8 f8 3d b2 f0 37 3c
       0.037500538 0.063132115 0.12147627 0.01122682
000090 7b 6d ed 3c aa c7 3f 3e e0 54 25 3d 9b 9d 4c 3b
       0.028982868 0.1872851 0.040364146 0.003122187
0000a0 e9 0a a4 3d ba e1 59 bd bc 2b 08 be ec 91 89 3d
       0.080098934 -0.053193785 -0.13297933 0.067172855
0000b0 26 e3 20 bc a0 1f 9c 3c 88 87 09 bd cb 16 02 3d
       -0.009819781 0.019058049 -0.03357652 0.03176002
0000c0 99 fa 97 be 75 31 17 3d 6d 2d f1 3d b4 3a c4 3d
       -0.29683378 0.0369124 0.117762424 0.09581509
0000d0 2c 6f 2c bd 4a 2c c3 3d fb 1d d0 3d fb 57 84 bd
       -0.04209821 0.09529932 0.10161968 -0.064620934
0000e0 aa 67 26 bd 07 76 22 bd 7e da 58 bd 6e 60 18 3d
       -0.040626206 -0.03966334 -0.052942745 0.037201338
0000f0 b6 e3 29 bd 2a c7 98 bd 2e 0d 86 3d 53 70 dc 3d
       -0.041476928 -0.074598625 0.065454826 0.10763612
000100 bf a7 10 bd dd fd 7f 3c 9a bb fe 3d 1d b8 19 3c
       -0.035316225 0.015624491 0.12438126 0.009382275
000110 12 11 ff 3d bd 2c 6e bd d9 1f 1b bd 24 5d 1b 3d
       0.12454428 -0.058148134 -0.03787217 0.037930623
000120 e7 fb 3e 3e db c3 a5 3c e2 97 13 3e e6 e3 04 3e
       0.1865078 0.020234993 0.14413407 0.12977561
000130 94 9b a1 3a 96 c5 f2 3b 4a c9 e4 3d 0f e2 e2 bd
       0.0012329691 0.007408808 0.11171205 -0.110782735
000140 f7 2d c4 bd 35 18 04 be d9 c7 05 3e 7d c7 28 bd
       -0.095790796 -0.12899859 0.13064517 -0.04120587
000150 42 0e b7 bd f1 4b fd bd e6 8f f7 3d 31 42 ec 3c
       -0.08938266 -0.12368 0.12087993 0.028840156
000160 ed f7 9a bd a5 dd bd bd cb bc 20 bc 6f 9b fe 3c
       -0.07566819 -0.09270791 -0.009810637 0.031079976
000170 43 6b fa 3d 8f 3e c1 bb dc f1 25 3d 91 8e d1 bd
       0.1222749 -0.00589735 0.04051386 -0.102322705
000180 e4 98 e8 3c 70 64 d2 bd 79 3d 7c 3d 3b 41 ba bd
       0.028393216 -0.10273063 0.061582062 -0.09094473
000190 32 ae 49 bc d1 7e bf 3d e5 3f 05 3d 40 f3 0a 3e
       -0.012309598 0.0935036 0.032531638 0.13569355
0001a0 28 2f 33 3d 25 9e 20 3d 40 81 a1 bd d8 f8 22 3e
       0.043746144 0.03921332 -0.078859806 0.15915239
0001b0 f8 81 94 3e 44 9d 32 bd c2 4f 94 3d 5b 7c 07 bd
       0.29005408 -0.04360701 0.07241775 -0.03307758
0001c0 ed a5 91 bd 4a 65 92 be c9 92 f7 bd 98 9c 3f 3d
       -0.07111726 -0.28592902 -0.12088544 0.0467802
0001d0 bd 52 e1 3c e7 c6 ba 3c af 08 24 bd 67 71 a6 be
       0.027505273 0.022799922 -0.040047344 -0.32508394
0001e0 5a ac 4c bd 5e 4d 13 3e 14 37 23 36 3e 3d 5e bc
       -0.049969055 0.14384982 2.4320952e-06 -0.013564406
0001f0 4f 07 25 3c 6b 23 80 bd e5 51 7a 3d f2 ea 7c 3d
       0.010072543 -0.062567554 0.061113257 0.0617475
000200 12 75 2e 3d 1b 79 ca bd d6 4b ee 3c 58 71 22 be
       0.042592116 -0.0988638 0.029088896 -0.1586355
000210 90 f9 e5 bc ea de ab 3d 78 83 ae bd 89 cb b8 3c
       -0.028073102 0.08392127 -0.085211694 0.02255799
000220 75 e8 23 3d 64 4b 4b 3c 86 1a 2b bd ad 94 09 3e
       0.04001661 0.012408111 -0.04177334 0.13435622
000230 f2 0f 32 3d 0d ad 8a bd 8a ee 42 3d 8f 08 f3 3c
       0.043472238 -0.06771288 0.04759077 0.029667167
000240 be ca 3f 3d 69 f2 d3 bd 56 69 80 3d a3 7e 3c 3c
       0.04682421 -0.103489704 0.06270091 0.011504802
000250 11 38 bf bd 91 38 82 bd c5 67 25 bd 29 9a 3c be
       -0.09336866 -0.063584454 -0.040382165 -0.18418182
000260 8a 7f 25 3d 16 40 de bc 66 79 ff 3d eb 9e 11 be
       0.040404834 -0.027130168 0.12474327 -0.14220779
000270 85 1d 9d 3d 1a c9 cb 3d 77 36 2d 3e fb c0 bb bd
       0.07671646 0.099504665 0.16915308 -0.091676675
000280 14 e2 6b bd d3 a8 7f 3d 28 50 06 bd 38 2d 2d 3d
       -0.05758865 0.062416863 -0.032791287 0.042279452
000290 4e a7 a6 3d 07 f8 e7 3d 1d 9e 66 3e 68 ef f1 3b
       0.081373796 0.11326604 0.22521253 0.007383276
0002a0 45 fe ed 3d 19 4b 04 be fa 84 ee bd 74 17 e9 bc
       0.11620764 -0.12919272 -0.11646457 -0.028453566
0002b0 d0 5f 5b 3e a7 3a ae bc 30 7f 74 3d 0d ce 56 bd
       0.21423268 -0.021268202 0.059691608 -0.0524426
0002c0 ce 61 95 be 86 58 5d bc a1 b1 30 be bb 27 20 bb
       -0.29176182 -0.013509875 -0.1725526 -0.0024437744
0002d0 03 1a 35 3d dc ae d0 3d c0 4f c6 3d 46 95 01 3e
       0.04421426 0.10189602 0.0968318 0.126546
0002e0 ad 05 fc bd af b6 a6 3d 88 59 c3 3d bb 02 d5 bd
       -0.1230577 0.08140313 0.09538561 -0.104009114
0002f0 e6 4c a8 bd 62 da 36 3d 16 84 d9 3d 5f e0 62 3a
       -0.08217792 0.04464186 0.106208965 0.000865465
000300 92 a5 13 3e e3 69 b8 bd 2e cf 1b 3e d3 d7 d5 3d
       0.14418629 -0.09004571 0.15215752 0.10441556
000310 96 93 4f 3e 2d 61 e7 3d bc 08 ca 3d 05 b6 69 bd
       0.20271143 0.11297832 0.09864947 -0.057058353
000320 0b 33 0d 3d e8 6f 71 bd 84 ae 59 bd a8 1b 8e 3c
       0.034472506 -0.058944613 -0.053144947 0.017347172
000330 89 bc ad 3d 58 ec eb 3d 53 8f 00 3b e1 d7 0e 3e
       0.08483226 0.11519688 0.0019616678 0.13949539
000340 41 41 be 3c db 26 10 3e 68 6a 0a 3e a6 38 14 3e
       0.023224475 0.14077322 0.13517153 0.14474735
000350 b3 8d f4 3d 04 66 11 b9 ce b6 ab bd 22 b9 dc bd
       0.119410895 -0.00013866281 -0.083844766 -0.10777499
000360 99 86 34 3e c5 6d 8d bb dd 36 0e 3c fd fe 99 bd
       0.1762947 -0.004316064 0.008680073 -0.07519338
000370 eb b8 c5 bd 02 34 be bd f9 15 3b 3e 5d bd 58 3e
       -0.09654411 -0.092872635 0.182701 0.21165986
000380 6a 0c 41 bc 6e 7e 2a 3e 11 62 3f be 69 99 ad 3d
       -0.011782745 0.16649792 -0.18689753 0.08476526
000390 cb 32 c3 bd 5d 13 c9 bd 30 39 37 3e 12 81 13 be
       -0.09531172 -0.098181464 0.17892909 -0.14404705
0003a0 41 ce bf 3d 49 c9 2a bd e6 b6 16 3e 14 4a c3 bd
       0.09365512 -0.041695867 0.14718208 -0.09535614
0003b0 71 0e c4 bd a2 68 ff 3d 76 8a 83 3d 91 ee 83 3d
       -0.09573067 0.12471129 0.06422894 0.06441987
0003c0 16 3e 42 be 27 32 38 3d a5 a9 3e 3e 57 75 dd 3d
       -0.18968996 0.044969704 0.18619402 0.108133964
0003d0 79 ae 9a bd 4d aa bb 3c 7d 5e 00 3d 01 f6 90 bc
       -0.07552809 0.022908354 0.03134011 -0.017695429
0003e0 a6 e0 81 3c 23 bc a0 bd a0 f3 84 39 98 ea 06 bc
       0.015854191 -0.07848384 0.00025358517 -0.008234642
0003f0 cd 65 8e 3d 70 18 8a ba 4b 44 e9 3d 1b 24 cf bc
       0.06953011 -0.0010535847 0.11389979 -0.025285771

conv3.bias f4 [64]
000000 26 c8 96 bd 90 33 73 3d c3 aa 11 3d ff 66 a4 bd
       -0.07362394 0.059375346 0.03556324 -0.080274574
000010 c5 58 98 3d 56 c6 18 3e 85 ed 90 3d 4c c3 83 3d
       0.074388064 0.14919409 0.07076553 0.06433734
000020 5d 21 72 bd e4 ea eb 3b a7 57 e7 bc 93 6e 45 bc
       -0.05911385 0.007199632 -0.028240038 -0.012050289
000030 4f 00 bd bd 9f 66 5d 3d 6b e1 84 3c 08 c3 56 b9
       -0.092285745 0.054052945 0.016220769 -0.00020481285
000040 13 ba a5 bd 90 4d 07 3e 41 b8 53 3d e7 4e 58 bd
       -0.080921315 0.13213181 0.05168939 -0.052809622
000050 44 32 97 bc c7 d0 49 bb a4 3b 89 bd a6 58 e2 bd
       -0.018456586 -0.0030794607 -0.06700829 -0.110520646
000060 21 6f 68 bd c6 bf b1 3c 81 64 d0 3d fb e6 7a 3d
       -0.056746606 0.02169789 0.101754196 0.061255436
000070 de 42 09 3d ce 1e 2e 3c 1a 50 d6 3d 42 f6 d6 bb
       0.033511035 0.010627462 0.10464497 -0.006560118
000080 6d d5 d6 3d 84 ad a6 3d 52 3d 04 be 1d 61 c0 3d
       0.104899265 0.08138564 -0.12914017 0.09393523
000090 e6 8e 32 3d b2 4f ae bd c3 7f 03 3e ad 4f fe 3d
       0.04359331 -0.085112944 0.12841706 0.12417541
0000a0 c2 04 8b bd 7a df 03 3e a1 04 2c bd 9c 5f c4 bd
       -0.06788017 0.12878218 -0.041996602 -0.095885485
0000b0 06 a7 a2 bb 44 93 db bc 31 7f 70 3d 0e b8 10 bd
       -0.0049637584 -0.02680362 0.05871505 -0.03533178
0000c0 1a a3 a0 3c 9f 50 f5 3b c4 2f 69 3c 69 92 ab 3c
       0.019609023 0.0074864174 0.01423258 0.020943837
0000d0 82 66 a7 3d a3 21 11 3c 3f cc 8a 3c 28 31 a9 3d
       0.08173849 0.008858117 0.016943095 0.08261329
0000e0 31 31 98 3c e0 4e 4f 3d cf 3f 87 3d 8f 0a eb bd
       0.018578144 0.05061233 0.066039674 -0.11476623
0000f0 d9 3e aa ba d0 c4 cc bd f6 34 ff 3d 95 91 73 bd
       -0.0012988701 -0.099984765 0.12461273 -0.05946501

bn3.weight f4 [64]
000000 60 fe 69 3f cf 87 66 3f bf e1 84 3f 14 8c 75 3f
       0.9140377 0.9005098 1.0381392 0.9591687
000010 ff eb 87 3f 56 98 7d 3f 5f ea 70 3f ff ff 6f 3f
       1.0618895 0.9906057 0.9410762 0.93749994
000020 36 79 64 3f a5 77 87 3f 14 32 82 3f 94 88 78 3f
       0.89247453 1.0583388 1.0171533 0.970834
000030 cd e2 8b 3f 64 22 79 3f 34 e6 93 3f 72 a7 8c 3f
       1.0928589 0.973181 1.1554627 1.09886
000040 39 8b 84 3f a4 bc 92 3f a5 e6 82 3f 6b 7b 7a 3f
       1.0354987 1.1463819 1.0226637 0.9784457
000050 6e c7 7b 3f db 2b 75 3f 3f c3 8a 3f 61 31 91 3f
       0.9835118 0.95770043 1.0840834 1.1343194
000060 a4 2d 8e 3f 29 2f 72 3f aa 31 91 3f 1f 7b 88 3f
       1.1107678 0.9460321 1.1343281 1.0662574
000070 56 33 55 3f b2 e6 6c 3f 9d 9a 9a 3f ea 63 73 3f
       0.8328146 0.92539513 1.2078434 0.9507433
000080 d2 13 88 3f a8 ef 84 3f 87 36 7a 3f 7d 12 95 3f
       1.0631049 1.0385637 0.9773945 1.1646267
000090 1c 54 83 3f 8f 50 61 3f 96 16 93 3f c7 98 92 3f
       1.0260043 0.8801355 1.1491268 1.1452874
0000a0 f6 8e 85 3f 2e 56 90 3f a9 d8 90 3f 4f 66 89 3f
       1.0434253 1.12763 1.131612 1.0734347
0000b0 ce db 70 3f a8 63 8b 3f 16 3e 93 3f df b4 69 3f
       0.94085395 1.0889788 1.1503322 0.9129161
0000c0 25 23 92 3f b5 11 8a 3f d8 2d 8f 3f 73 9b 57 3f
       1.1416975 1.0786654 1.1185865 0.8422157
0000d0 43 d7 77 3f 6b 78 93 3f d4 2f 73 3f 64 ac 95 3f
       0.9681284 1.1521124 0.94994855 1.1693234
0000e0 b7 7c 4a 3f 33 8b 7a 3f 84 24 65 3f 8d 46 91 3f
       0.7909655 0.9786865 0.89508843 1.1349655
0000f0 b3 df 83 3f 7c a1 86 3f 3f d4 8d 3f 62 e6 8c 3f
       1.0302643 1.0518031 1.1080397 1.1007807

bn3.bias f4 [64]
000000 11 af da bd d0 aa 09 be 0d bb 51 3d 00 65 c3 bd
       -0.106779225 -0.13444066 0.051203776 -0.095407486
000010 12 6f 45 bd 54 b9 64 bd 88 4a ca bd 8a ad ad bd
       -0.048201628 -0.055840805 -0.09877497 -0.084803656
000020 e2 87 00 be b5 d1 5b bd df c8 91 bd a7 48 b9 3d
       -0.12551835 -0.05366679 -0.07118391 0.090470605
000030 ef ac 1e 3c da a3 d1 3d 66 ff 52 bd df 7b 15 ba
       0.009684785 0.1023633 -0.0515131 -0.0005702357
000040 36 03 06 3d 31 a8 d6 bc e8 30 7a 3d fd a5 a9 bd
       0.032717906 -0.026203247 0.061081797 -0.08283613
000050 41 8e 9d 3d 58 56 9e 3d 61 56 61 bd 47 8d 72 3b
       0.076931484 0.077313125 -0.055014018 0.0037010477
000060 8a e6 44 bd 22 2a ca bd 99 d0 6a bc a1 d0 5a bc
       -0.04807142 -0.098713174 -0.01433196 -0.013355405
000070 45 3b 3b be 60 b7 dc bd 04 80 26 bc 7f 9f d9 3d
       -0.18284328 -0.107771635 -0.010162357 0.106261246
000080 05 6f 3b 3c b9 41 76 bd ed d3 b1 3d c3 13 99 3c
       0.011440043 -0.06012127 0.08683 0.018686181
000090 04 e9 ec bd 36 26 0e be b6 98 61 3c 02 84 60 bb
       -0.11567882 -0.13881764 0.013769319 -0.003425837
0000a0 0f 33 f6 3c 1a 48 70 bd 04 1d 88 bc 91 cd 1e 3d
       0.030053644 -0.05866251 -0.016615398 0.038770262
0000b0 5e 63 f2 bd 1d b6 e4 bb af 41 26 bc 94 73 18 be
       -0.11835359 -0.0069797174 -0.010147496 -0.1488784
0000c0 14 07 a2 bc 8d 00 81 3d 9c 30 4d bd c8 9b 47 be
       -0.019778766 0.06298933 -0.050095186 -0.1949302
0000d0 8d 21 d0 bd 5a 72 80 ba 23 65 e9 bd 6d 9c d1 bc
       -0.10162649 -0.0009799704 -0.113962434 -0.025587285
0000e0 cd 28 47 be 97 5d 7f bd 8c 11 fd bd d7 40 ed 3c
       -0.19449158 -0.062345114 -0.123568624 0.028961582
0000f0 58 5e 74 3d fb ba 04 bd 5e 0c 6e 3d 5a 01 37 bd
       0.059660286 -0.03240488 0.058117263 -0.044679023

bn3.running_mean f4 [64]
000000 be 25 93 b8 75 01 01 3e 92 53 25 3e 9f c8 1e 3f
       -7.016536e-05 0.12598212 0.16145161 0.62024873
000010 2c 34 3e be d9 ba 31 3d 6c 8d f0 bb 71 5f 95 be
       -0.1857459 0.043391082 -0.0073410776 -0.2917438
000020 9c aa aa be a8 35 ed be 12 72 c8 3d 08 e0 ab bd
       -0.3333329 -0.4633 0.09787382 -0.0839234
000030 1b be a9 be 5d 4f 2b be f5 91 c5 bd 66 0a 5b be
       -0.3315285 -0.16729493 -0.0964698 -0.21390685
000040 99 7e a8 bd 41 46 54 3e 8f 4f 5c bd 36 1a b5 bd
       -0.082272716 0.20729925 -0.05378681 -0.0884289
000050 3a fb 4a bf 7d ab 8b be 45 8c bc bd c3 66 70 bd
       -0.7928959 -0.27279273 -0.09206442 -0.05869175
000060 f0 d5 ac be e4 1b ec be 7b 03 de be 8b 43 25 3e
       -0.3375697 -0.4611503 -0.4336203 0.16139047
000070 50 0e b9 3d 32 11 52 3c 17 2f 76 3e 09 2f bf be
       0.09035933 0.0128214825 0.24041401 -0.37340572
000080 5a 2c 81 3d e7 aa bd 3e 41 b2 e2 be 45 29 01 3f
       0.063072875 0.3704445 -0.44276622 0.504536
000090 be 2e 8f 3a 3c 09 62 bd b5 7e a7 3c fb 5e 1c 3f
       0.0010923964 -0.055184588 0.02044616 0.6108243
0000a0 b1 c5 cc be cb f5 58 be 9a da 74 bb da 71 de be
       -0.39994577 -0.21187513 -0.0037361742 -0.43446237
0000b0 91 f9 e0 be 47 ce 85 3c 09 90 03 3f b2 bd 65 3e
       -0.43940404 0.016333712 0.51391655 0.22435644
0000c0 2a 48 1f be 17 a6 5e 3d d0 87 4c be bf 1f 85 bc
       -0.15554872 0.054357614 -0.19973683 -0.01625049
0000d0 f3 7c 70 3e c2 b3 13 3e 97 cb 38 3e 21 13 db 3e
       0.23485164 0.14424041 0.18046413 0.42788032
0000e0 ec 66 b2 3e f2 01 8e be 78 3f d1 3c 68 eb a4 bd
       0.34844148 -0.2773586 0.02554296 -0.08052713
0000f0 71 db 93 3c d3 da 9e be c0 c8 08 bf fa 7b 93 3e
       0.018048974 -0.31026325 -0.5343132 0.28805524

bn3.running_var f4 [64]
000000 83 e0 42 3e 65 b0 8c 3e 23 90 36 3f cc 20 96 3e
       0.19030957 0.27478328 0.71313685 0.29321897
000010 58 74 58 3e 2f 24 6e 3e d4 eb 48 3e 56 9e a2 3e
       0.21138132 0.2325599 0.19621211 0.31761426
000020 dd d5 3b 3e 60 2b 43 3e b4 03 52 3e b1 e8 86 3e
       0.18343301 0.19059515 0.20509225 0.26349404
000030 5f af ef 3e b3 a6 80 3e 6f 08 64 3e ff 29 e2 3e
       0.46813485 0.2512718 0.22268842 0.44172665
000040 10 a0 48 3e 0d 7d 82 3e 32 4e 89 3e 57 83 db 3e
       0.19592309 0.2548603 0.2681747 0.42873642
000050 94 6c 87 3e 06 78 98 3e 4b 9b 95 3e c1 5c a2 3e
       0.26450026 0.2977907 0.29220042 0.3171139
000060 3d f5 49 3e a7 de b0 3e eb 86 46 3e b2 c2 b6 3e
       0.19722457 0.3454487 0.19387405 0.35695416
000070 a5 b7 5c 3e 88 32 b5 3e d8 10 25 3e 6e 0f b9 3e
       0.2155443 0.35390115 0.16119707 0.36144584
000080 bb 50 02 3e 2a cd a2 3e df 5f b1 3e 1f df 24 3e
       0.12726109 0.31797153 0.34643456 0.16100739
000090 4a 94 6f 3e f1 fa 62 3e ca a8 af 3e d2 5b a0 3e
       0.23396412 0.22166039 0.34308463 0.31320053
0000a0 e8 37 ec 3e b8 2a 78 3e a8 f9 b1 3e 87 25 94 3e
       0.46136403 0.24235046 0.34760785 0.2893488
0000b0 b9 18 56 3e 87 e3 1a 3e 76 e6 6f 3e af 3f b6 3e
       0.20907868 0.15125857 0.23427758 0.35595462
0000c0 a1 4f 67 3e bf 5b 9b 3e 9d 9e 22 3e 46 ec 3d 3e
       0.2258897 0.30343434 0.15880819 0.18547162
0000d0 cc 10 88 3e b2 c2 93 3e 59 e4 a5 3e 84 b4 20 3e
       0.26575315 0.28859478 0.32400778 0.15693861
0000e0 27 37 8b 3e c4 7f 2b 3e bb 9f 6e 3e d1 b9 8e 3e
       0.27190515 0.16747957 0.2330312 0.27876142
0000f0 ae f8 7f 3e d0 39 2d 3e be 14 0c 3f eb 32 81 3e
       0.24997208 0.16916585 0.5471915 0.2523416
