models/trained_models/dscnn_mfcc/model_acc_82.03125.pth (torch_old, 110035 bytes, 56 tensors)

conv1.weight f4 [64, 1, 10, 4]
000000 07 46 2a 3e 2c b5 a2 bd e6 d7 0d be 5d 9c 32 bd
       0.16628276 -0.07944712 -0.1385189 -0.04360615
000010 0e 1f 26 3e 14 0b 5f bd 7e 39 6c 3b 9f d5 04 3e
       0.16222784 -0.054453924 0.003604501 0.12972115
000020 32 ed 63 3e 58 b9 95 3d a5 2c 61 be ef ad 0e 3b
       0.22258452 0.07310742 -0.21989687 0.0021771153
000030 4f ec 49 3d df d0 b5 bd 41 1e cd bc f5 8a 46 bd
       0.049297627 -0.088777296 -0.02503884 -0.048472364
000040 47 ab dc 3d f8 3c 76 be b7 a8 2b be e9 3d 24 3d
       0.10774856 -0.24046695 -0.16763578 0.040098105
000050 f7 a6 ac 3d 6c 67 2f bd 05 0f 76 be 0a d8 96 bc
       0.084302835 -0.04282324 -0.24029167 -0.018413562
000060 d7 fa 07 be a6 20 03 be cc 2b 07 be 78 c0 ae 3d
       -0.13279282 -0.12805423 -0.13200301 0.08532804
000070 38 76 00 3e e3 07 8a bd 89 2f 14 3e 27 16 a6 3c
       0.12545097 -0.067397855 0.14471258 0.020274235
000080 ba 4d f2 3c ff f8 2c be 73 c4 63 bc a8 4b d9 3d
       0.029578079 -0.1689186 -0.013901818 0.106101334
000090 da 64 ab bd 06 c8 89 bc 86 89 87 3e 66 a8 00 be
       -0.08368845 -0.016819011 0.2647211 -0.12564239
0000a0 c6 6f b1 3d c6 88 8b 3e 6a 0b 5b 3e 21 a4 ce 3d
       0.08663897 0.27252787 0.21391073 0.10089899
0000b0 14 d1 45 3d fe 22 c4 bd 82 60 38 3d 8a 53 80 3e
       0.048295096 -0.09576987 0.045013912 0.25063735
0000c0 db 32 69 bd 52 c4 2d be 89 e0 f6 3c f8 b8 2f 3c
       -0.056933265 -0.16969422 0.030136364 0.010725252
0000d0 b2 ed 43 bd 7a 2d 0b be 77 cc 71 be c0 76 6b 3d
       -0.047834106 -0.13591567 -0.23613153 0.057486296
0000e0 73 9c 79 bd b5 3e cf 3c f4 0b 75 bd 91 ad 45 be
       -0.060940217 0.025298456 -0.059825853 -0.19304492
0000f0 15 58 1a 3c 23 a7 04 3e 71 b3 a4 3d d8 61 ac bd
       0.009420414 0.12954383 0.08042038 -0.084171
000100 20 df 8a bd 40 09 41 3d ef b9 87 3e 23 dd 1a bd
       -0.06780839 0.047127962 0.26509044 -0.03780855
000110 6a b0 10 bc 96 da aa bd 9b 53 95 3e 18 7f 0b 3e
       -0.008831123 -0.08342473 0.29165348 0.13622701
000120 8d 59 bc 3d 99 5c b6 3c 14 ae 49 3c 2e 26 c6 3d
       0.09196768 0.02226095 0.01230957 0.09675251
000130 25 d6 0a 3d f2 ac 1e be 7a e7 a5 3d 86 49 c1 bd
       0.03389563 -0.15495661 0.08100791 -0.094378516
000140 14 9e 73 3c ac 32 2d 3e 2b 12 03 bd 56 14 bd bd
       0.014869232 0.16913861 -0.03199975 -0.092323944
000150 ae 51 0d be d0 b8 24 bd 74 36 2e be cd 6d e8 3d
       -0.1380069 -0.040215313 -0.1701296 0.11349068
000160 f9 9b c9 bc 31 f1 8c be 87 14 fc 3c 20 3e ab 3b
       -0.024610506 -0.27527764 0.030771507 0.0052259117
000170 b4 57 83 3d b6 a9 a0 be 71 e7 37 bd 70 a2 f0 bb
       0.064132124 -0.3137948 -0.044898454 -0.007343583
000180 87 20 c9 bc 25 0c ca be fb e3 3b be b8 cd c7 3d
       -0.024551643 -0.3946239 -0.18348686 0.097560346
000190 40 db 3a bd 60 45 77 be af cf 5f bb 26 e4 e6 bd
       -0.04561925 -0.24147558 -0.0034150889 -0.112739846
0001a0 36 9a 12 be 4c 95 e8 3d f1 60 65 be a3 67 21 3e
       -0.1431664 0.11356601 -0.22400261 0.1576219
0001b0 d1 44 e0 bd 26 a4 d2 bd 34 c2 a8 bd 81 7d 3c bd
       -0.10950626 -0.10285215 -0.08240166 -0.046018127
0001c0 49 a4 2a bd 37 ea a2 bd 46 37 4c be d1 3e 35 bd
       -0.04166058 -0.07954829 -0.1994296 -0.04424936
0001d0 58 e4 f1 3d 3b 17 de bd 50 07 28 be 33 01 ee bd
       0.11811131 -0.108442746 -0.1640904 -0.116213225
0001e0 d4 09 ab bd a3 b1 b9 3c ed aa e9 bd 85 90 0a bc
       -0.08351484 0.022667712 -0.11409555 -0.008457308
0001f0 d2 99 d3 bd 19 fa ea 3d 41 57 dc bd 2f f3 6a 3d
       -0.10332073 0.114734836 -0.1075883 0.057360824
000200 5a 2b 14 3e 12 92 06 3e fd e0 75 bd f4 e3 42 bd
       0.14469662 0.13141659 -0.06002902 -0.047580674
000210 04 de a6 3d 72 cc fd 3d 7e 58 c6 bd c8 e2 81 be
       0.08147815 0.123925105 -0.09684847 -0.25368333
000220 40 93 79 3d a7 30 e7 bd b1 f5 4b be 02 33 71 be
       0.060931444 -0.112885766 -0.19917943 -0.23554614
000230 89 07 1c be 74 59 1f be 52 e2 01 bf 4a 37 98 3c
       -0.1523725 -0.15561467 -0.5073596 0.018581051
000240 33 8f ba bd b6 44 6c 3d 34 21 51 3d 6a 9f 33 be
       -0.09109344 0.057682715 0.051057056 -0.1754128
000250 4f 3f f9 3d 9c 46 d7 bd 41 13 aa bd bb bd 42 be
       0.12170278 -0.105115145 -0.08304454 -0.19017689
000260 cd 1b 92 bd d4 f6 2d be 77 0d a7 3d 38 ae 21 be
       -0.07134209 -0.16988689 0.08156865 -0.15789115
000270 26 a4 2d be 09 57 0f be 4a e8 82 3d 1e 2b 1a bd
       -0.16957149 -0.13998045 0.06391962 -0.037638776
000280 63 d3 bc bc 43 c7 07 3e b1 bb 1b 3d 23 78 1d be
       -0.023050016 0.13259606 0.038020793 -0.1537786
000290 27 6a 05 bc 94 96 2b 3e dd 99 a4 3c 9d 34 c3 bc
       -0.0081429845 0.1675666 0.020092899 -0.023828799
0002a0 6c 4e f7 3d 2b 38 32 3e 41 4e db 3c 85 11 d9 3d
       0.12075505 0.17404239 0.026770713 0.10599045
0002b0 c2 97 f0 bc 79 a1 99 bc 31 1f cd 3d e3 fd 7f 3d
       -0.029369239 -0.018753754 0.10015715 0.062497985
0002c0 6b 07 31 be 1f 30 8c 3d da 71 35 be f5 a5 23 3e
       -0.17287986 0.06845116 -0.17719212 0.15981276
0002d0 68 80 16 be e1 47 5c be bc bc 3f be d7 be fd bc
       -0.1469742 -0.21511795 -0.1872434 -0.030974789
0002e0 77 c3 86 bc 0e 7d b6 bd ce 84 45 3c 0c 93 ad bd
       -0.016450627 -0.08910571 0.012055589 -0.084753126
0002f0 72 24 c7 bd da ea 3e be bc 62 f2 3d 4f f7 47 3d
       -0.09723748 -0.18644276 0.11835238 0.048819836
000300 72 48 48 3d 0a 05 e8 3d 74 19 04 be d7 35 ba bd
       0.048897214 0.11329086 -0.12900335 -0.090923004
000310 89 65 f4 bd ff 0a 27 3e eb 3e 3b 3d 71 fe 6e ba
       -0.11933429 0.16312788 0.0457143 -0.0009116894
000320 8a 91 53 be fe 0b 6c bd 48 23 9e 3d 0b 27 a2 3c
       -0.20660987 -0.057628624 0.07721573 0.019794008
000330 60 41 99 bd e5 05 e2 bd 3e e6 14 be 9a 09 de 3d
       -0.074831724 -0.110362805 -0.14540955 0.10841675
000340 a0 ee c1 bc 4c ab 29 be 24 a0 8d bd ea 44 1f 3e
       -0.023673356 -0.16569251 -0.0691531 0.15553632
000350 8a 1b 5c bd 17 55 15 bc 33 f0 f8 bc 77 a1 1a 3e
       -0.0537372 -0.009114525 -0.030387973 0.15100656
000360 bc 77 d1 3d 58 81 e5 bd 98 77 34 3e 3b 60 72 bd
       0.10227916 -0.11206311 0.17623746 -0.059173804
000370 48 1e 31 3e 87 47 fc 3c b2 c1 95 bd 44 c9 58 3d
       0.17296708 0.030795826 -0.07312335 0.052926317
000380 97 94 de 3d a3 de e7 bd de f6 e9 3c 21 83 63 3e
       0.10868185 -0.113217615 0.028560098 0.2221799
000390 f9 87 2d 3e 3f e6 de 3d db 7e f8 bc 74 a8 69 3e
       0.169464 0.1088376 -0.030333927 0.22818166
0003a0 ab 6e e8 3d 86 a4 2b 3d d3 be 0c 3b 6b cf 24 bc
       0.11349233 0.04190495 0.0021476045 -0.010059218
0003b0 ef 6c 0b 3e 29 10 20 be de 27 c4 bd 18 09 68 3b
       0.13615774 -0.15631165 -0.095779166 0.003540581
0003c0 49 bb 38 3d 29 0c 35 3d 8f 1e 5f 3e 67 aa 31 be
       0.045100484 0.04420105 0.21789001 -0.1735016
0003d0 b9 a3 9f 3b ea cd cd 3d 98 4a 7e bd cf 6d 72 3d
       0.004871812 0.100490406 -0.062082857 0.059186753
0003e0 ae 26 a0 bd 37 8e b0 3d 93 2a 1d be fa e2 69 be
       -0.078198776 0.08620875 -0.15348272 -0.22840491
0003f0 a2 84 3a be 90 6e b0 bd 69 88 95 bd 3b be 8f bd
       -0.18214658 -0.08614838 -0.07301409 -0.070187055

conv1.bias f4 [64]
000000 94 d2 49 3d 08 23 0e 3b 6a 46 0d bd 0f 0e a4 bd
       0.04927309 0.002168836 -0.03449098 -0.08010494
000010 25 4d 1c 3d 41 97 fd 3d 27 88 17 be ce 4d 63 bd
       0.03815951 0.12382365 -0.14798032 -0.055494122
000020 82 42 01 3e ee d9 0f bd c8 38 0f be e7 9c 51 3d
       0.12623027 -0.035119943 -0.13986504 0.051175024
000030 49 f2 2b bd d1 6f 1f 3e a7 0a 4c bd ba e7 2a 3d
       -0.041979108 0.15569998 -0.049814846 0.041724898
000040 86 14 90 bd c7 04 74 3d 12 e7 94 3d 91 a1 14 3e
       -0.070351645 0.05957487 0.07270636 0.14514758
000050 ed e3 dd 3d 44 c0 18 be 72 f5 b6 3d e1 79 03 bd
       0.10834489 -0.14917094 0.08933534 -0.032098655
000060 2a af 59 bd e0 33 22 bd dd bf 0e 3e 69 5f 5d bc
       -0.053145565 -0.039600253 0.13940378 -0.013511517
000070 9b fa 00 3e 5b c2 60 bd 8b 58 0b be e9 56 92 3d
       0.12595598 -0.05487285 -0.13607995 0.07145483
000080 51 ad 19 3e 2d ca 78 bd 1c 95 13 be 03 a4 0e 3c
       0.15007521 -0.060739685 -0.1441235 0.008706096
000090 81 06 09 be f0 b2 1e bd ed 4f 6a bd 09 f0 9e 3d
       -0.13381387 -0.038744867 -0.05720513 0.07760627
0000a0 eb c0 18 be 07 93 d0 3d bf d8 40 bd 3c c6 c0 3d
       -0.14917342 0.10184293 -0.047081705 0.0941281
0000b0 ef 80 3d 3d 14 26 e8 bd 37 81 1f 3e c6 60 8c bc
       0.04626554 -0.11335388 0.15576635 -0.017135989
0000c0 34 63 82 3d 95 82 e8 3c 99 0b 18 3c cb 17 8f 3d
       0.06366578 0.028382579 0.009280109 0.0698696
0000d0 55 88 0d bd 7a d8 b8 3d 0f 69 48 bd 0a 14 d4 3d
       -0.034553844 0.09025665 -0.048928317 0.10355385
0000e0 60 6f ea 3d 3c d3 9a 3d e1 22 7d 3d 78 14 0e 3e
       0.11447024 0.07559821 0.06180084 0.13874996
0000f0 01 dd 59 bd 10 6f 52 3d c8 77 d5 3d e6 42 42 3d
       -0.05318928 0.05137545 0.10423237 0.04742708

bn1.weight f4 [64]
000000 75 25 87 3f 57 33 82 3f 19 13 88 3f 85 69 83 3f
       1.0558306 1.0171918 1.0630828 1.0266577
000010 ac 02 5b 3f 23 ce 62 3f e9 9a 95 3f fe f7 84 3f
       0.8555095 0.8859579 1.16879 1.0388181
000020 cf 97 82 3f 1a 2b 81 3f 83 57 64 3f 4a 87 9b 3f
       1.0202578 1.0091279 0.8919603 1.2150662
000030 9b 6c 74 3f 7d d1 92 3f 03 92 69 3f e5 be 7b 3f
       0.9547822 1.1470181 0.9123842 0.98338157
000040 92 d9 95 3f c2 40 8c 3f dc 0c 8f 3f 0a a4 8f 3f
       1.1707022 1.0957263 1.1175799 1.1221936
000050 c4 bb 94 3f 2d 27 60 3f 49 78 88 3f 30 11 98 3f
       1.1619802 0.8755978 1.0661708 1.1880245
000060 98 f5 68 3f 21 44 68 3f 05 3a 4f 3f da 17 85 3f
       0.90999746 0.90728956 0.80947906 1.0397904
000070 34 42 84 3f 8a 91 ae 3f e6 36 87 3f de 9d 9a 3f
       1.0332704 1.3638165 1.0563629 1.2079427
000080 c1 f8 7c 3f 5a 4d b9 3f 84 be 83 3f c3 1b 6e 3f
       0.9881707 1.4476731 1.0292516 0.9301111
000090 07 06 79 3f ec 56 55 3f e0 52 67 3f f7 32 86 3f
       0.9727482 0.8333576 0.9036083 1.0484303
0000a0 80 90 63 3f 65 f8 70 3f a3 d3 60 3f a0 9e b9 3f
       0.88892365 0.9412902 0.8782293 1.4501534
0000b0 a4 a6 65 3f 81 4b 73 3f c0 c4 a6 3f bc bf 85 3f
       0.897074 0.95037085 1.3028793 1.0449138
0000c0 d8 a1 3b 3f 60 d4 85 3f 1e 5a 5b 3f 2a 77 9e 3f
       0.7329383 1.0455437 0.8568438 1.2380116
0000d0 92 8e 85 3f e5 77 7b 3f 4b f0 74 3f c9 c3 87 3f
       1.0434134 0.9822982 0.9567916 1.0606624
0000e0 4e db 4a 3f f5 38 84 3f 7a 78 6a 3f 24 d6 82 3f
       0.7924088 1.0329882 0.9159008 1.02216
0000f0 30 20 9c 3f a7 ba 81 3f b7 f5 6c 3f db 37 84 3f
       1.2197323 1.0135087 0.9256243 1.0329546

bn1.bias f4 [64]
000000 56 ff 2e bd 0c b2 80 3d 40 59 ee bc a1 1a 8b 3d
       -0.042723976 0.0628396 -0.029095292 0.067921884
000010 e8 f7 15 be bf 90 0d be e3 f7 e4 3b cc 92 32 bd
       -0.1464535 -0.13824748 0.006987558 -0.043597028
000020 92 cd 9e bd 69 d6 25 bd 72 6b 0e be b7 a2 61 3b
       -0.07754053 -0.04048768 -0.13908175 0.003442926
000030 81 23 9e bd b8 d3 3a bd f6 f9 ee bd 8b 30 80 bd
       -0.077216156 -0.045612067 -0.1166877 -0.06259259
000040 b8 15 f2 bc e6 da 3d bc 02 1e d9 bc 76 13 0b 3c
       -0.029551372 -0.011587834 -0.026503567 0.008488527
000050 da a4 cb bb 51 8e 1b be 98 12 37 3d 58 6a 04 3c
       -0.00621472 -0.15191008 0.044695467 0.008081995
000060 71 4e eb bd 65 49 0c be 3f f8 3f be ca 10 43 bc
       -0.11489571 -0.13699873 -0.18747042 -0.011905858
000070 81 80 35 bd 7b c5 8b 3c 29 71 87 bd b0 1f 2e 3d
       -0.044312004 0.01706194 -0.066133805 0.04251069
000080 d8 ba b2 bd 73 72 b5 bc 71 4f a6 bd 78 d1 cf bd
       -0.08727044 -0.0221493 -0.08120621 -0.10147375
000090 f8 fa e5 bd c8 a3 1e be 17 21 20 be af 22 51 bd
       -0.11229509 -0.15492165 -0.15637623 -0.051058467
0000a0 7e 3d 16 be e8 f2 d0 3d 42 77 1e be c2 80 5b 3b
       -0.14671895 0.10202581 -0.15475181 0.0033493494
0000b0 4e f1 09 be 22 dd c0 bd b7 d2 17 bc 80 a6 f8 3c
       -0.13470957 -0.09417178 -0.009266547 0.03035283
0000c0 73 69 89 be ef 96 a3 bd 85 e3 25 be 86 94 77 bc
       -0.26838264 -0.07987773 -0.16200073 -0.015111094
0000d0 60 6f c6 bc 47 1e f5 bd e9 3b bf bd 65 c1 6e bd
       -0.02422303 -0.119686656 -0.09337599 -0.058289904
0000e0 c8 f8 62 be 15 71 7d bd 49 35 09 be 46 55 9e bd
       -0.22165215 -0.06187542 -0.13399233 -0.07731108
0000f0 f3 9e 36 3c 21 2c 94 3d 96 10 d9 bd 95 c6 8a bd
       0.011146295 0.072349794 -0.10598867 -0.06776158

bn1.running_mean f4 [64]
000000 03 59 90 c2 31 4c ba 42 78 6c 9e c3 9e 53 89 c3
       -72.17385 93.14881 -316.8474 -274.65326
000010 db a9 07 c2 0e 7c 59 42 ef fb a6 c3 d7 5b a0 c2
       -33.915874 54.371147 -333.96823 -80.179375
000020 72 80 f3 41 26 91 3c 43 31 99 94 c2 76 5d 8d c2
       30.437717 188.56699 -74.2992 -70.68254
000030 a0 43 86 42 9d 3d a9 c3 00 a8 4d c2 d5 d5 11 c3
       67.13208 -338.48135 -51.414062 -145.83528
000040 07 a0 99 43 de cd 4f 43 89 2b de 41 85 2e 84 c2
       307.2502 207.80417 27.771257 -66.09086
000050 a2 d4 d1 42 a7 16 4a c1 02 70 90 c3 e5 66 b7 41
       104.9153 -12.63053 -288.87506 22.925241
000060 50 ec 2f 43 78 6e 11 41 9e fc df 42 0a cb 03 41
       175.9231 9.08947 111.99339 8.23707
000070 b8 05 46 c3 65 a4 e2 c2 21 29 47 42 f4 00 0f 42
       -198.02234 -113.32108 49.790165 35.75093
000080 5e e5 04 43 73 53 57 43 0a 6d a6 c2 f8 16 45 c3
       132.89597 215.32597 -83.21297 -197.08972
000090 ba 42 e5 c2 b2 ca 2f c3 93 c6 7d 42 dc 07 30 42
       -114.630325 -175.79178 63.44392 44.007675
0000a0 26 80 5f 41 39 d1 77 c2 c5 56 98 42 af a1 80 42
       13.968786 -61.95432 76.16947 64.31579
0000b0 a6 ff be 42 88 c9 4f c3 63 0e c2 c0 3f e6 85 c2
       95.49931 -207.78723 -6.064256 -66.9497
0000c0 20 13 8c 42 e9 0d 5a 41 53 ce 08 41 37 86 dd c0
       70.03735 13.628396 8.550372 -6.9226336
0000d0 2f 90 ea 42 cd a5 96 42 15 ef 29 c2 69 99 db 41
       117.28161 75.32383 -42.48348 27.449907
0000e0 8e 4c 69 42 5a d7 0e c3 e2 34 a1 42 eb 27 54 c3
       58.32476 -142.84122 80.60329 -212.15593
0000f0 dc 09 28 c3 9a 44 60 c3 5e 08 5b c3 f1 60 b6 42
       -168.03851 -224.26797 -219.03268 91.18934

bn1.running_var f4 [64]
000000 29 e4 78 44 ad 4a 52 44 81 53 33 45 57 12 4e 45
       995.565 841.1668 2869.219 3297.1462
000010 7e 91 49 44 b6 ed 14 45 16 de b7 45 19 a3 5e 45
       806.2733 2382.857 5883.7607 3562.1936
000020 83 c0 f9 44 33 d6 6f 45 87 ca e0 43 da dd 9c 44
       1998.016 3837.3875 449.58224 1254.9329
000030 cd e5 84 44 9d 47 fc 44 fe 92 a8 44 2d 3e bd 44
       1063.1813 2018.2379 1348.5935 1513.943
000040 f9 72 86 45 5e 2c 00 45 95 ac 07 44 42 0c ba 45
       4302.3716 2050.773 542.6966 5953.532
000050 80 70 1c 45 50 49 b7 44 0c 56 d6 45 bb 4c 70 45
       2503.0312 1466.291 6858.756 3844.7957
000060 9a 79 5a 45 e2 b1 a3 43 cf 13 b6 44 71 f2 c4 45
       3495.6 327.3897 1456.619 6302.305
000070 90 f9 96 44 8c fe 8a 44 bc 58 e0 43 64 7e a8 44
       1207.7988 1111.9546 448.69324 1347.9497
000080 1e 26 4f 45 fa aa 89 44 74 32 09 45 42 eb fb 44
       3314.3823 1101.343 2195.1533 2015.3518
000090 0b 64 55 44 b2 5d 10 45 cb b4 bc 44 5e 32 e0 43
       853.5632 2309.856 1509.6498 448.3935
0000a0 11 60 e2 43 41 87 ab 43 18 3c 82 44 a9 8d 49 45
       452.75052 343.05667 1041.8779 3224.8538
0000b0 88 9a 20 44 73 72 ce 44 fa 4e 42 45 13 36 f5 44
       642.41455 1651.5765 3108.936 1961.6898
0000c0 62 f2 3f 44 cc 8f 45 45 d6 fa e4 43 ef fe a8 45
       767.78723 3160.9873 457.95966 5407.8667
0000d0 a9 a7 df 43 d1 cb e8 44 26 94 9e 44 ec 1f 42 44
       447.30984 1862.3693 1268.6296 776.4988
0000e0 31 6c e7 44 6b 3b 6e 45 1c 3c 93 44 0f ae 8b 45
       1851.381 3811.7136 1177.8784 4469.7573
0000f0 3f 6f 56 44 5d 34 92 45 ff 51 27 45 bc f0 29 44
       857.7382 4678.5454 2677.1248 679.7615

conv2.weight f4 [64, 1, 3, 3]
000000 75 81 dd 3e 53 02 12 be f9 2b a6 bc c6 6f c5 3d
       0.4326283 -0.14258699 -0.02028464 0.0964046
000010 16 41 a4 be 08 16 7d be 3e ec 5f 3e f6 be fd 3b
       -0.32080907 -0.24715436 0.21867463 0.0077437116
000020 45 27 98 3e 4d 1b ce be bc 3f d8 bd 34 d7 4b 3e
       0.2971746 -0.40255204 -0.10559031 0.19906312
000030 d3 17 6b 3e 6e a3 17 bd 67 2f f7 bb b8 59 97 3e
       0.22958307 -0.037021093 -0.0075434926 0.29560637
000040 16 08 83 3e 0c 1b 81 3d 5a 2f 2d be 66 d7 a2 be
       0.25592107 0.06303987 -0.16912594 -0.3180496
000050 b3 05 d9 bd 5f 39 73 3e 6b f8 11 3e 4c 26 c9 be
       -0.1059679 0.23752354 0.1425492 -0.3928703
000060 18 d2 54 be 69 c7 27 3e 2d 6c 8f be 3a 41 0e 3d
       -0.2078327 0.16384663 -0.2801222 0.034730174
000070 b7 df c3 3e 48 ab a8 bb 36 fe b0 be 98 5c c4 3d
       0.38256618 -0.0051473714 -0.34568948 0.09587973
000080 9f 4c 5f 3e 3d 2a 60 3e 05 53 3b 3e 3e 0a 7c be
       0.21806572 0.21891113 0.18293388 -0.24613282
000090 c3 d3 e9 bd ff 0b 99 3e 20 1e 25 3c 97 df ad 3e
       -0.114173435 0.29891965 0.010077983 0.33959648
0000a0 3f 2e a8 3e 6f b8 6e bd f7 a7 37 bc 0c 34 99 3d
       0.32847783 -0.05828136 -0.0112094795 0.0748063
0000b0 f4 4a 86 be 7c 94 23 3c 89 f4 5f 3e 81 a5 cf 3d
       -0.2622906 0.009984132 0.21870627 0.10138989
0000c0 54 38 42 bc bd b1 8c 3e 35 e0 65 bd 51 8b 69 be
       -0.01185425 0.27479354 -0.056122024 -0.22807051
0000d0 2c 63 8d 3e 81 73 6c 3e 55 76 c8 3a 8a 4f 25 be
       0.27614725 0.23090936 0.0015294055 -0.16143623
0000e0 5a 6f 33 be 45 3f 96 3d 75 bd a6 be fb c2 8b 3e
       -0.17522946 0.073362865 -0.3256642 0.27297196
0000f0 fc 2d 93 be 46 03 cc be e6 b3 8d 3e ea ed 0e be
       -0.2874602 -0.39846247 0.27676314 -0.13957945
000100 39 99 5c be aa 7c 9e bd b3 89 cf 3d 9c 8c 20 be
       -0.21542825 -0.077386215 0.10133686 -0.15678638
000110 7d 23 dc bc 70 c5 f4 bd a0 15 c6 be 47 33 59 3e
       -0.02687239 -0.11951721 -0.38688374 0.21210967
000120 19 03 28 3d 3a cd 2f 3c 15 59 5b be e4 70 8e 3e
       0.04101858 0.010730082 -0.21420701 0.27820504
000130 34 4e a2 be 43 21 f8 be e3 13 71 be e9 c3 c1 3e
       -0.3170029 -0.48462877 -0.23542742 0.3784478
000140 a9 46 9e be 74 1e 40 be 9f 1a 0c 3c ea 85 47 be
       -0.30913284 -0.18761617 0.008551269 -0.19484678
000150 7a 87 e6 3e 81 f6 cf 3d a4 d1 61 3e cb ae 83 3e
       0.45025235 0.10154439 0.22052628 0.25719294
000160 6a aa 70 bd a6 f7 5e 3c b5 61 9d 3e ec b6 ad 3d
       -0.05875627 0.013608849 0.30738607 0.08482155
000170 d6 2b 83 be bd 42 2e be 2e 64 80 be 98 b1 11 3d
       -0.25619382 -0.17017646 -0.2507643 0.035569757
000180 0e 72 0d 3e d5 17 34 be 49 86 74 3e 5c df 49 3e
       0.1381304 -0.17587216 0.2387935 0.19714111
000190 46 ca 80 bd 48 0d 4f be 28 0c 28 3e f4 c4 ee 3d
       -0.062885806 -0.2021991 0.16410887 0.116586596
0001a0 60 0f 54 bd 71 23 a9 3d 75 25 b1 bd 62 ec 57 3e
       -0.051772475 0.08258713 -0.086497225 0.21086267
0001b0 1a d1 42 be 18 12 80 bd fb a2 34 bb 78 c3 9f be
       -0.19025078 -0.06253451 -0.0027562964 -0.31203818
0001c0 de 80 b5 3d c9 4b 1c 3e 67 24 6e be 35 7b 51 3d
       0.0886247 0.15263285 -0.23256074 0.05114289
0001d0 96 3c c6 3d 91 61 c3 3d cd 7f a8 3e b4 ef 92 3c
       0.096795246 0.09540094 0.32910004 0.017936565
0001e0 55 7b 8e be bf 13 81 be eb bf 08 3e 38 44 d5 3d
       -0.2782847 -0.25210378 0.13354461 0.10413402
0001f0 3e 81 4f 3e b1 b9 76 be 0a eb 22 3e 45 3d c6 3d
       0.20264146 -0.24094273 0.15909973 0.09679655
000200 87 39 7d be 00 aa 37 be cd c9 fc bd b4 59 a7 be
       -0.24728976 -0.17935944 -0.12343178 -0.32685626
000210 2e b8 a2 3b 91 16 ae bd a9 ea 45 be 11 d0 98 be
       0.0049658036 -0.08500398 -0.19327797 -0.29846242
000220 b1 69 a9 bd 49 19 3d 3e f5 02 aa bd 13 0b 1f bd
       -0.08272112 0.18466677 -0.08301345 -0.03882892
000230 a4 f1 9f 3e 9e 9c 16 3e 74 be 5d 3d be bc b1 3e
       0.31239045 0.14708182 0.05413671 0.3471431
000240 35 9a f0 bd 15 14 6e 3e 5d bd af bd 80 30 27 be
       -0.11748163 0.23249848 -0.0858104 -0.16327095
000250 30 bf b5 3d 0c d3 51 3e 2c e3 81 3e 4d 37 89 be
       0.08874357 0.20490664 0.2536863 -0.26800004
000260 da 46 72 bd e3 ac 64 3e fe 3f 9b be ce 9f 9a be
       -0.0591496 0.22331576 -0.3032226 -0.30200046
000270 0f 3a 56 be 4a bc 73 be 29 7b 42 3d b0 5b 5f be
       -0.20920585 -0.23802295 0.047480736 -0.2181232
000280 94 38 b3 bc 57 91 9a bd 08 c7 b4 bd e0 25 62 3d
       -0.021877564 -0.075472526 -0.08827025 0.0552119
000290 ae 25 ba bd 40 21 c0 be 1a 1f 0d 3e d6 c9 19 be
       -0.09089218 -0.37525368 0.13781396 -0.150184
0002a0 6e b1 d9 3e 0c ef ef 3d aa 46 6c 3e 49 9d cd bb
       0.4251818 0.117155164 0.23073831 -0.0062748534
0002b0 c2 d7 c0 3e f9 d4 c8 3c 3a f1 d5 3d ae a3 8b be
       0.3766461 0.024515616 0.10446401 -0.27273315
0002c0 a4 b7 da bc e4 48 70 be 79 3f 93 3e 3c 1d d0 bd
       -0.026698895 -0.23465306 0.28759363 -0.10161826
0002d0 c4 89 90 3d 5f e9 df 3c 44 0b 4b be 49 a6 37 be
       0.07057527 0.02733296 -0.19828516 -0.17934527
0002e0 10 7e af 3e c4 6f b7 3d 78 6a 65 3d b1 c7 03 3a
       0.34275866 0.089568645 0.05600974 0.000502701
0002f0 b5 18 91 be fa fc 70 3e 46 80 a9 be a8 02 a7 be
       -0.28339162 0.23534003 -0.33105677 -0.32619214
000300 50 40 3b 3e 0d e0 85 be 98 b3 2d 3d 7d 4c 0a 3e
       0.18286252 -0.261475 0.042407602 0.1350574
000310 50 0b 2e be c9 5d 4a 3e 81 64 7f be a0 c9 6c be
       -0.16996503 0.19762339 -0.24940683 -0.23123789
000320 9f 15 c2 bd 0d 25 b0 3e da ec 0e 3e c5 d9 33 be
       -0.0947678 0.34403268 0.13957539 -0.17563541
000330 6f a4 6d 3e 57 94 87 bc fa c9 d5 bd 69 ea 31 3d
       0.23207258 -0.016550226 -0.104389146 0.04343644
000340 56 69 0e 3d 62 78 81 bd 16 98 5b 3a 35 11 80 be
       0.034768425 -0.06321789 0.00083768496 -0.25013128
000350 4a 82 3b 3e 68 92 30 be 83 9d 60 be 83 4c b0 3d
       0.1831142 -0.1724335 -0.21935086 0.086083435
000360 54 49 85 be 0b 08 30 3e fb 22 98 bd db 62 4e be
       -0.26032507 0.17190568 -0.07428547 -0.20154898
000370 b6 a5 5d be ea 0e bc be 9a 6b a8 ba 76 5c 93 3e
       -0.21645245 -0.3673013 -0.001284945 0.2878148
000380 f5 dd ed be db 66 96 3e 06 9d 85 3e 4c a7 93 3b
       -0.46458402 0.29375347 0.26096362 0.0045060273
000390 66 85 fd bd 5d 31 0d be be 0c 94 3e 2a c6 b0 3d
       -0.12378959 -0.13788362 0.28915972 0.08631547
0003a0 78 ae 2b be 7f b5 3a 3e 92 e8 a2 bd 0c df b2 3d
       -0.16765773 0.18233298 -0.079545155 0.08733949
0003b0 0b bd f6 3e c3 43 8b be 29 3c a3 bd 6c df 54 3e
       0.48191103 -0.27200136 -0.07970459 0.20788354
0003c0 b0 96 0a be 2f fb 13 3e 30 21 0c be 69 3d c2 bd
       -0.13534045 0.14451288 -0.13684535 -0.09484369
0003d0 18 7a a1 3e 8b e8 0a 3e 88 46 10 be 96 7e 47 3d
       0.31538463 0.1356527 -0.14089406 0.048704706
0003e0 05 15 8d 3d 44 ae 5f be 8c b1 2f 3d f3 5d a4 3e
       0.06888775 -0.21843821 0.04289393 0.32102928
0003f0 2c 21 2d be e0 9b da bd bc f3 a8 3b 9e 50 64 be
       -0.16907185 -0.10674262 0.0051560085 -0.22296378

conv2.bias f4 [64]
000000 f3 ee 85 3d d0 75 68 3e 7f 80 70 be 44 e8 a2 bd
       0.065397166 0.22701192 -0.23486517 -0.079544574
000010 7a a5 98 be 3f 09 06 be bc 9b 37 be 65 ea 61 be
       -0.2981375 -0.13089465 -0.17930502 -0.2206207
000020 e5 af fc bc 8e 78 8d bc 46 99 95 be 4d 63 59 3e
       -0.030845592 -0.017269399 -0.292185 0.21229286
000030 00 35 18 be be 8e 50 be e6 a9 24 3e ce ef 14 3e
       -0.14863968 -0.20366952 0.16080436 0.14544603
000040 c4 11 06 3e df d2 93 3d 81 ff 7d 3d 89 2b ed bd
       0.13092715 0.07217955 0.062011246 -0.11580569
000050 7a 08 96 bd b7 36 40 3e c2 56 08 be 6b 22 05 be
       -0.073258355 0.18770872 -0.13314345 -0.1300141
000060 f3 f6 98 be 3d 9b 80 3e b9 c3 5b be a7 f4 56 be
       -0.29875907 0.25118437 -0.21461381 -0.20991765
000070 d6 b6 21 3e ad 76 af bd ee c7 cb 3d 76 36 87 3e
       0.15792403 -0.085675575 0.09950243 0.26408738
000080 5c 6e 24 be 5d ce 12 bd ed b9 07 be a5 ac 6e be
       -0.16057724 -0.035841335 -0.13254519 -0.23308046
000090 28 06 f1 bd 1e be 9a bd c8 7f 5a be a4 e5 36 bd
       -0.11768752 -0.07555793 -0.21337807 -0.044652596
0000a0 27 03 27 3e 46 3a 44 3e a9 ab 2d 3e 89 f0 55 3d
       0.16309796 0.19162855 0.16960014 0.052231345
0000b0 b3 2b a3 3e 60 c0 73 be bc 41 a5 bc 50 a0 2e 3e
       0.31869277 -0.23803854 -0.020172946 0.17053342
0000c0 0e 89 17 be 3d 01 9a 3e 7d 36 71 be c9 28 eb 3b
       -0.14798376 0.3007907 -0.23555942 0.007176493
0000d0 f4 52 9f 3d b0 d3 b7 be 4c ce 30 3e a9 23 97 bd
       0.07779494 -0.35903692 0.17266196 -0.073798485
0000e0 8d 47 61 3e d2 ef 5f be 2e 63 a5 be 3c 31 18 be
       0.2199995 -0.21868828 -0.3230223 -0.14862531
0000f0 fe 31 4d be a8 73 94 be 12 07 d4 bc 89 a4 9d 3e
       -0.20038602 -0.2899449 -0.025882278 0.30789593

bn2.weight f4 [64]
000000 57 e7 7e 3f fd 4e 77 3f db 39 7f 3f a5 28 6a 3f
       0.99571747 0.966049 0.99697655 0.9146827
000010 d2 37 6f 3f 9e 7f 6d 3f cd e3 65 3f e4 7b 55 3f
       0.9344455 0.92772853 0.8980072 0.8339217
000020 fb 26 9a 3f 16 f3 4e 3f d9 fc 74 3f 24 ce 74 3f
       1.2043146 0.8083967 0.95698315 0.95627046
000030 39 d0 61 3f cb c2 5d 3f 52 bc 6a 3f d7 ca 67 3f
       0.8820835 0.86625355 0.91693604 0.90543884
000040 6a d1 99 3f 49 af 70 3f 30 fa 86 3f 29 69 6d 3f
       1.2017033 0.94017464 1.0545101 0.92738587
000050 75 ea 67 3f 94 67 84 3f 35 85 54 3f be 56 91 3f
       0.9059213 1.034411 0.8301576 1.1354597
000060 de 28 74 3f bd 32 88 3f fd 10 75 3f aa 18 55 3f
       0.9537486 1.0640484 0.9572905 0.8324076
000070 ab 82 5e 3f 2a 8c 75 3f 4f e8 76 3f c3 b5 8b 3f
       0.86918133 0.95917 0.96448225 1.0914844
000080 30 fd 81 3f ec bb 72 3f 9c 26 73 3f 9d 8a 5b 3f
       1.0155392 0.94817996 0.9498079 0.8575838
000090 d4 ec 8d 3f da e2 68 3f 41 50 98 3f 28 32 63 3f
       1.1087899 0.9097115 1.1899492 0.8874841
0000a0 70 35 8e 3f 88 42 7f 3f ad fa 86 3f 98 d0 86 3f
       1.1110058 0.99710894 1.054525 1.0532408
0000b0 91 ed 8f 3f 57 10 68 3f fe fd 8c 3f 61 0e 61 3f
       1.1244375 0.9064993 1.1015012 0.87912565
0000c0 36 28 95 3f 09 09 a2 3f b9 f7 94 3f 9d 2e 62 3f
       1.1652896 1.2659007 1.1638099 0.88352376
0000d0 a8 4c 82 3f 4b 79 67 3f 80 8c 88 3f d7 44 84 3f
       1.0179644 0.90419453 1.0667877 1.0333508
0000e0 37 c1 84 3f 34 29 77 3f c9 6c 7b 3f 20 cf 55 3f
       1.0371464 0.96547246 0.9821287 0.8351917
0000f0 6a db 83 3f ea d2 5f 3f bd 79 66 3f b8 ea 65 3f
       1.0301335 0.87431204 0.9002951 0.8981128

bn2.bias f4 [64]
000000 ab 75 31 bd 3b db a9 bd 97 22 6f bb 56 ce 99 bd
       -0.043325108 -0.08293768 -0.0036489123 -0.075100586
000010 33 ad 97 bd 5e 9c 1b bd 49 9b fa bc bc 2b bb bd
       -0.07406082 -0.03799092 -0.030591624 -0.09139201
000020 7a 8d d6 3d 30 4b 01 be e2 68 8f bd 0a 3f bb bc
       0.10476203 -0.12626338 -0.07002427 -0.022857208
000030 98 c8 ea bd 42 64 0e be 1f 36 96 bd b8 ac 21 be
       -0.114640415 -0.13905433 -0.073345415 -0.15788543
000040 f3 7c 9d 3e 22 28 a0 bd 10 55 ad 3d 80 48 2f bc
       0.3075939 -0.07820155 0.0846349 -0.010698438
000050 63 01 c5 bd 3b ad 71 bd 5e fe d5 bd 24 c5 98 3d
       -0.09619405 -0.059003096 -0.10448907 0.074594766
000060 3a 49 10 bd 51 0a 50 3d 06 d6 95 ba 04 93 15 be
       -0.035226084 0.05079109 -0.0011431582 -0.14606863
000070 37 5c b4 bd e2 77 32 bd 1c 69 18 bd 39 4a 83 3d
       -0.08806651 -0.04357136 -0.037209615 0.06410641
000080 4c 47 61 3c fa c9 0b be 07 67 92 3d 82 fe f4 bd
       0.013749909 -0.13651267 0.07148557 -0.11962606
000090 1c 4d 84 3d fa ad 6f bd f4 7f 9a 3d 90 b2 85 bd
       0.0646002 -0.058515526 0.07543936 -0.06528199
0000a0 c5 d2 e0 3c ec fa 40 3e 18 b9 b6 bd b2 6c 24 3e
       0.027444253 0.18845719 -0.089220226 0.16057089
0000b0 7d 7e ec bc 23 33 5f bc 89 db 40 3c fc 3c 93 bd
       -0.028868908 -0.013623032 0.011771091 -0.07189366
0000c0 16 37 5e bd 23 19 ed 3d 26 c2 22 bd e9 af 00 be
       -0.054251753 0.1157706 -0.039735936 -0.12567104
0000d0 17 66 09 3d 1b 72 d1 bd 85 d1 66 bd 08 7c 75 3d
       0.033544626 -0.10226842 -0.056352157 0.05993274
0000e0 07 a6 a7 bd 5d 80 95 bd 46 c6 00 be 22 58 0a be
       -0.08185964 -0.07299874 -0.12575635 -0.13510182
0000f0 3c 74 31 bd a7 b8 c5 bd 1d 73 f7 bd 60 56 15 be
       -0.04332374 -0.0965436 -0.12082503 -0.1458373

bn2.running_mean f4 [64]
000000 76 07 1c 3e 31 9c ca 3e c2 d6 ba be 2d b2 2b 3e
       0.15237221 0.3957229 -0.36491972 0.16767187
000010 ee 13 ba bd ab 3d cc 3d 7e f0 dd be 26 84 f4 be
       -0.090858325 0.099727 -0.43347543 -0.4775707
000020 55 b9 a1 be 9d 35 fb 3d a8 36 ad be 4b ea a5 3e
       -0.3158671 0.12266085 -0.33830762 0.32405314
000030 29 fb 8f be 0a a6 56 be 75 97 b9 3c 43 2e 9e 3e
       -0.28121307 -0.20961776 0.022655228 0.3089467
000040 bd 2b 1d 3e 60 8f 9c be 6a 8b 30 3e a5 cb da bc
       0.15348716 -0.30578136 0.17240682 -0.026708433
000050 f6 05 a9 bd 3b ec ec 3d 6c eb 91 be 4c 5f 85 be
       -0.0825309 0.11568495 -0.28499925 -0.26049268
000060 f6 8f 07 bf 8e 77 cc 3e 80 55 51 be e7 8c 0f 3e
       -0.5295404 0.39934963 -0.20442772 0.14018594
000070 d3 7c dd bd 3f 8d 82 be 65 89 d0 3e 7d 85 cc 3d
       -0.10814824 -0.25498387 0.40729824 0.09986398
000080 23 b7 44 be eb b9 43 3e e2 60 f8 bd 8b 05 dd 3c
       -0.19210486 0.19113891 -0.12127854 0.026980182
000090 70 fb 94 bc 71 45 3c be 2d ea f3 bd c0 85 a1 3b
       -0.018186301 -0.18385865 -0.119099 0.0049292743
0000a0 3e c3 45 3e c5 1d e8 bd 53 4d 56 3d f0 b8 25 3c
       0.1931276 -0.11333803 0.052319836 0.010114893
0000b0 b8 b1 c3 3e 82 f9 c1 be ea d8 23 be 07 3f 4e 3e
       0.38221526 -0.37885672 -0.16000715 0.2014123
0000c0 9c f3 08 be 7c 0e 2c 3e ce 59 8c be a3 02 7b bd
       -0.1337418 0.168024 -0.27412266 -0.06128181
0000d0 fa e9 be 3d f8 4d 0b bf 62 72 31 3e 06 5d 5e be
       0.09321971 -0.54415846 0.1732879 -0.21715173
0000e0 10 32 8c 3e 6b 25 9f bd 2c 59 87 be 72 8b c7 be
       0.27381945 -0.07770809 -0.2643522 -0.38973576
0000f0 c0 21 9e be 37 0c 17 be ed e1 a0 3c a4 cd d6 3e
       -0.30885124 -0.14750753 0.01963898 0.41953766

bn2.running_var f4 [64]
000000 90 a9 bd 3d 3f 2f d6 3c c7 5e ef 3d a3 7e 54 3e
       0.09260857 0.026145576 0.11687999 0.20751433
000010 0c af d1 3d fe 88 76 3d a2 2e 1e 3f aa 80 94 3e
       0.10238466 0.06018924 0.61789906 0.29004413
000020 88 f8 ce 3d de 0d a8 3c 76 e7 95 3d b5 fb da 3d
       0.10105997 0.020514425 0.07319538 0.106925406
000030 33 53 73 3d 45 46 b0 3d 80 0e 47 3e 66 5b 08 3e
       0.059405517 0.08607153 0.19439125 0.13316116
000040 75 ef 9e 3b fc 79 f5 3d 12 cc d7 3c 4c 23 a9 3d
       0.004850323 0.11986157 0.026342425 0.082586855
000050 fc 2b 7f 3e 78 f6 19 3d 5d 9d 1c 3e a4 b7 1f 3d
       0.24919122 0.037588567 0.15294404 0.038993493
000060 f9 31 a7 3d 8c d7 94 3c 09 9f 8a 3c 85 8b 45 3e
       0.081638284 0.018169187 0.016921537 0.19291504
000070 d8 e0 02 3f 38 15 62 3e a4 ef b8 3d 32 f1 83 3d
       0.51124334 0.22078407 0.09030083 0.06442489
000080 c1 c6 3a 3d 79 b9 89 3d 35 66 02 3d 11 15 81 3e
       0.045599703 0.06724829 0.031835753 0.25211385
000090 4c e6 3e 3c a2 76 c4 3d f0 f9 38 3c a6 93 05 3d
       0.011651587 0.0959294 0.0112900585 0.03261151
0000a0 a4 39 34 3c 3e f3 e2 3d 56 da 00 3c c9 9b 9c 3c
       0.011000071 0.11081551 0.007864555 0.019117253
0000b0 53 3b 0e 3c 5c 26 5a 3e 50 f9 f0 3c a6 03 2f 3d
       0.008681136 0.21303695 0.029415756 0.04272809
0000c0 53 26 57 3b 6e 76 38 3d 47 49 8b 3c 15 8d c0 3e
       0.003282924 0.04503482 0.017002715 0.37607637
0000d0 ec 54 ed 3b 3e ee 2c 3d 2b 0d aa 3c fe a9 7d 3d
       0.0072427895 0.042219393 0.020758232 0.061929695
0000e0 19 60 69 3b 4b f1 b8 3d 1b 07 32 3c 9d 07 51 3e
       0.0035610257 0.09030398 0.010865952 0.2041306
0000f0 e9 7f e9 3d 8d 93 6e 3e 2b de d9 3d 65 21 29 3c
       0.1140135 0.23298474 0.10638078 0.010322903

conv3.weight f4 [64, 64, 1, 1]
000000 8a c0 9f 3d 9c 60 5e bd 73 3c 2d 3d f3 e6 df bd
       0.07800396 -0.054291353 0.042293977 -0.10932722
000010 27 b8 db 3d 66 63 19 bd 35 3f c2 bc 91 29 de bc
       0.10728484 -0.03744831 -0.02371178 -0.02711943
000020 12 1e 0c bd f5 15 61 3d 7b 9c ea bd a7 fc 2e be
       -0.034208365 0.05495258 -0.114556275 -0.17088567
000030 7e 6d 0f 3d 15 17 b3 bd 50 4c eb bd fd 99 05 bd
       0.03501653 -0.08744637 -0.11489165 -0.032617558
000040 13 36 2a be 49 93 6a 3d 69 f3 6c 3e 6f ef ba bd
       -0.1662219 0.05726937 0.23139729 -0.091276996
000050 3c 34 52 bd 1b d5 83 bd 31 7d 8c 3d fd 6d e8 3d
       -0.051319346 -0.06437131 0.06859816 0.113491036
000060 a0 1f 91 bd 4e df d9 3d ed bc 87 3d d6 dc 38 3d
       -0.0708611 0.10638295 0.066278316 0.04513248
000070 b6 27 75 3d 3c 21 32 3e cc e1 9d 3d 77 38 b8 bd
       0.059852324 0.1739549 0.07709083 -0.08995145
000080 c5 56 27 3d 59 74 59 3d 3b 0a 06 3e 99 28 d5 3c
       0.040854234 0.053089473 0.1308984 0.026020335
000090 fa d7 b1 3c 23 e8 2e 3e 8e 2e 5b 3c e0 24 33 bb
       0.021709431 0.1708074 0.013377799 -0.0027335212
0000a0 1b 33 ad 3d b9 19 89 bd 3e 09 e2 bd 86 a6 cc 3d
       0.08457013 -0.06694359 -0.11036919 0.09992699
0000b0 2c 35 11 bd 57 fd f3 3c 15 db e0 bc fa 48 20 3d
       -0.0354511 0.029783888 -0.027448216 0.039132096
0000c0 dd 1d a5 be b1 cb 8a 3d 9f f3 0a 3e 28 fb bc 3d
       -0.32249346 0.06777132 0.13569497 0.09227592
0000d0 7f e0 ac bd cc b5 d7 3d 50 94 ca 3d 0f fe 93 bd
       -0.08441257 0.10532722 0.098915696 -0.07226192
0000e0 b5 28 5d bd d0 88 0b bd f7 08 95 bd ff 7f 2c 3d
       -0.0539939 -0.03406602 -0.072771005 0.042114254
0000f0 c9 ac 42 bd d8 24 93 bd dc a6 55 3d dc d8 ee 3d
       -0.047528062 -0.07184762 0.052161083 0.116624564
000100 0d 33 0c bc 45 d1 9c 3c 01 14 00 3e 0f b5 be 3b
       -0.008557093 0.019142756 0.12507631 0.0058199237
000110 4a 1f f8 3d 8b 93 87 bd e3 b3 01 bd 08 c8 14 3d
       0.12115343 -0.066199385 -0.031665694 0.036323577
000120 1f ea 50 3e 4f 68 d8 3c 12 90 09 3e 90 dc 0e 3e
       0.2040181 0.026416926 0.13433865 0.13951325
000130 f7 e1 9d 3b 22 35 b7 3b 6b 2d bb 3d 91 8d c9 bd
       0.004818197 0.0055910507 0.09139522 -0.09841455
000140 56 25 ae bd d6 ab d5 bd 7f b8 d7 3d 3e 4a 56 bd
       -0.08503215 -0.10433166 0.10533237 -0.052316897
000150 ee dc c7 bd 39 44 f5 bd 3e 3a 17 3e 4f 41 86 3d
       -0.09758936 -0.11975903 0.14768311 0.065554254
000160 7e 57 79 bd be 54 e3 bd f4 18 6b 3c 61 3b 00 3d
       -0.060874455 -0.11100148 0.014349211 0.03130663
000170 a0 e0 d5 3d d6 c5 06 bd 9b ce 5a 3d 67 0a d1 bd
       0.104432344 -0.032903515 0.05341969 -0.10207062
000180 27 77 ea 3c 8d b7 e8 bd c9 a0 8a 3d 52 0b d4 bd
       0.02862127 -0.113631345 0.067689486 -0.10353722
000190 bf 10 d8 bc 34 95 dc 3d 36 15 48 3d d6 de 17 3e
       -0.026375173 0.10770646 0.048848353 0.14831099
0001a0 d3 1f 1f 3d c2 96 3c 3d f3 00 9c bd 1c a1 2b 3e
       0.03884871 0.04604221 -0.076173685 0.16760677
0001b0 9e 01 93 3e 3c 19 38 bd 8b 6c b6 3d 9a d2 50 bd
       0.2871217 -0.04494594 0.08907422 -0.050982095
0001c0 55 ed 8b bd f2 97 94 be 52 02 1e be f6 86 1f 3d
       -0.06832377 -0.29022175 -0.15430573 0.03894707
0001d0 8f f0 3d 3d 8c 6d 31 3c fd 55 83 bd a2 78 a1 be
       0.046371993 0.010829341 -0.06412885 -0.31537348
0001e0 c6 a9 bd bd 2d 3a 1c 3e 0c 75 f3 bc 6f 85 ac bc
       -0.09260897 0.15256567 -0.029718898 -0.02105972
0001f0 4a 1c 40 3d f7 b0 46 bd c7 b8 bb 3d 9d f7 7d 3d
       0.04690198 -0.04850861 0.09166103 0.06200372
000200 c2 10 7c 3d e0 a9 e3 bd 25 80 11 3c 3d da 29 be
       0.06153942 -0.111163855 0.00888065 -0.16587158
000210 11 ed f5 bc cb c7 b2 3d 45 9a b0 bd 87 37 31 3c
       -0.030020269 0.08729514 -0.086231746 0.010816461
000220 fc fc 81 3d 69 90 1d 3d 96 05 45 bd 09 9c 0f 3e
       0.06347081 0.0384678 -0.04810103 0.14024366
000230 c0 6d 5b 3d a2 cd 5c bd e1 d3 5c 3d 2e 6e e8 3c
       0.053571463 -0.053907044 0.053913 0.02837285
000240 a8 30 62 3d ad 90 9c bd 6c 37 b0 3d 64 30 4b 3c
       0.055222183 -0.07644782 0.08604321 0.012401674
000250 70 1c ce bd 61 0e 95 bd 73 4e 9e bc 9d e4 35 be
       -0.10064018 -0.07278133 -0.019324517 -0.1776299
000260 b9 0a 29 3d 23 c1 68 bc bb 9d e2 3d 7b 2d 1d be
       0.04126999 -0.014206204 0.11065241 -0.1534938
000270 0f 5d 92 3d 09 99 90 3d f2 d3 2b 3e 54 6b c0 bd
       0.07146656 0.07060439 0.1678007 -0.09395471
000280 da e8 85 bd f0 1e 74 3d 9d 87 6c bc 3f e1 5b 3d
       -0.065385535 0.059599817 -0.01443663 0.05368161
000290 a3 0b 73 3d 5b 84 ed 3d c0 d2 6c 3e 3d b4 92 3c
       0.05933727 0.115975104 0.2312727 0.01790821
0002a0 7f 4c 01 3e ed 60 2c be 12 fb e4 bd 99 04 8a bc
       0.12626837 -0.16833849 -0.111807 -0.016847895
0002b0 7e 1f 58 3e de 68 20 bc 8d b8 69 3d 26 24 b0 bd
       0.21105763 -0.009790627 0.057060767 -0.08600645
0002c0 60 29 8b be 09 83 71 bc 70 66 3e be 50 63 50 bc
       -0.27180004 -0.014740714 -0.18593764 -0.01271899
0002d0 b1 2d 67 3d ee e5 e2 3d ca 7d d9 3d 93 76 e2 3d
       0.05644006 0.11079012 0.106196955 0.110577725
0002e0 1c 52 05 be 22 8a b8 3d 01 b0 a8 3d a6 e3 c5 bd
       -0.13019603 0.09010722 0.08236695 -0.09662561
0002f0 70 24 c2 bd ed fa 2d 3d 25 1f c8 3d 36 2a 0d bd
       -0.09479606 0.04247563 0.09771565 -0.034464084
000300 f0 63 19 3e 55 fb ae bd 56 4e 19 3e 60 57 b6 3d
       0.1497953 -0.085440315 0.14971289 0.08903384
000310 c8 15 59 3e 23 a6 e7 3d f5 46 ba 3d ef 8c 85 bd
       0.21199715 0.11310985 0.09095565 -0.065210216
000320 a9 05 76 3c 99 3e 60 bd 58 5c 2d bd 40 41 2d 3d
       0.015015998 -0.054747198 -0.042324394 0.042298555
000330 1a 57 9c 3d b3 24 d4 3d d2 49 cf bb ed d4 05 3e
       0.07633801 0.10358562 -0.0063259387 0.13069506
000340 b7 58 11 3d a7 22 07 3e ca 92 0b 3e a8 6e 1a 3e
       0.035484996 0.13196813 0.13630214 0.15081275
000350 9f 0e ca 3d 1e e1 65 3c e0 45 a2 bd 0a ef 27 be
       0.0986607 0.014030723 -0.07923484 -0.1639978
000360 46 1b 24 3e 4d 12 99 3b 99 bd f3 bb b4 d8 b0 bd
       0.16026029 0.004671371 -0.0074383733 -0.08635083
000370 f2 8d ff bd 86 63 dd bd 9a 79 33 3e 84 ce 52 3e
       -0.12478246 -0.10809998 0.17526856 0.20586592
000380 4c 63 62 bc 71 b4 2a 3e 5b 9f 5c be 07 cc 9c 3d
       -0.0138176195 0.16670395 -0.21545164 0.07656103
000390 b3 31 7f bd 54 d0 ec bd d4 9a 55 3e a0 4c 09 be
       -0.062303256 -0.11563173 0.20859843 -0.13408136
0003a0 74 52 d4 3d ae a1 31 bd ab 74 34 3e e2 24 d4 bd
       0.10367289 -0.04336708 0.1762263 -0.10358597
0003b0 ad b9 b1 bd e8 e3 02 3e c7 fc 8e 3d 46 d1 85 3d
       -0.08677993 0.12782252 0.06981807 0.06534056
0003c0 cf 15 54 be c1 83 8a 3d 10 e3 4e 3e 4c f4 e7 3d
       -0.20711444 0.06763411 0.20203805 0.11325893
0003d0 12 28 8b bd a7 3e 0d 3d 49 c1 b7 3c 4b ef 45 bc
       -0.06794752 0.034483578 0.022431033 -0.012080978
0003e0 04 00 98 bb 61 f2 b7 bd 49 91 93 3c a6 d3 02 bd
       -0.0046386737 -0.08981777 0.018013613 -0.031940125
0003f0 55 d3 80 3d e6 0a be 39 1c 49 f9 3d 67 17 b7 bc
       0.062903084 0.00036247744 0.12172148 -0.022350026

conv3.bias f4 [64]
000000 17 93 94 bd 57 b3 74 3d ef 90 24 3d 4d a8 a4 bd
       -0.07254618 0.059741344 0.040177282 -0.08039913
000010 e9 9e 93 3d 66 57 15 3e e8 fc 82 3d 78 91 84 3d
       0.07208044 0.14584121 0.06395894 0.064730585
000020 1f 38 82 bd f4 59 1d 3c 69 ad fe bc 6c aa ab bc
       -0.063583605 0.009603966 -0.031088548 -0.020955287
000030 86 bc bf bd c8 46 90 3d 98 c1 d9 3b c3 71 4e bb
       -0.0936213 0.070447505 0.0066453926 -0.0031500913
000040 c2 64 aa bd 71 fe 02 3e 4f df 44 3d d4 92 3e bd
       -0.08319999 0.12792374 0.048064526 -0.046526745
000050 28 4a 23 bc df 14 d1 bc f1 ec 71 bd 44 1d ff bd
       -0.009966411 -0.025522647 -0.059063856 -0.12456754
000060 e4 4a 80 bd 20 f0 a2 3c 34 be c9 3d 93 61 77 3d
       -0.06264284 0.019889891 0.098507315 0.06039579
000070 25 dc f3 3c 78 28 b8 3b a6 12 cc 3d d6 f9 a2 3a
       0.029768059 0.0056200586 0.099644944 0.0012434076
000080 21 23 cc 3d f2 b7 a1 3d e3 eb fc bd 4c c0 c9 3d
       0.09967638 0.07896413 -0.12349679 0.09851131
000090 65 ba 3d 3d 72 3f af bd 76 7d 07 3e ac d4 f4 3d
       0.046320338 -0.08557023 0.13231453 0.119546264
0000a0 4b fe 95 bd e0 76 03 3e f4 32 2b bd 9e f8 c9 bd
       -0.07323893 0.12838316 -0.04179664 -0.09861873
0000b0 59 af 9a bb 50 cd ea bc e3 4d 77 3d ae d5 2d bd
       -0.00472061 -0.028662354 0.060377013 -0.04244011
0000c0 67 ae d1 3c 76 af 59 3c aa 95 66 3c 92 da c3 3c
       0.025595857 0.013286462 0.014073769 0.023907933
0000d0 44 9c 93 3d ef b4 e6 3b 1b 4b 84 3c b6 7a 98 3d
       0.0720754 0.007040612 0.016149094 0.0744528
0000e0 f1 37 9f 3c 67 14 6e 3d 9a 4c 9a 3d 75 b6 ec bd
       0.019435855 0.058124926 0.07534142 -0.115582384
0000f0 a3 1f 19 3c 09 97 d2 bd 31 c0 f9 3d d7 d4 73 bd
       0.009345922 -0.10282714 0.12194861 -0.05952915

bn3.weight f4 [64]
000000 89 7b 69 3f 88 22 64 3f 4a 59 83 3f 79 62 6a 3f
       0.91204125 0.8911519 1.0261624 0.9155651
000010 1e a3 8b 3f 02 b0 7f 3f c4 c4 70 3f 31 82 6e 3f
       1.0909154 0.9987794 0.9405024 0.93167406
000020 39 6b 62 3f 23 e1 88 3f 6e 70 80 3f 7b 2e 7d 3f
       0.8844486 1.0693706 1.0034311 0.9889905
000030 41 f2 8c 3f 8a 31 73 3f 3b 1f 8f 3f f5 c2 8e 3f
       1.101143 0.94997466 1.1181406 1.1153246
000040 5a 7e 87 3f 60 44 8e 3f c4 7a 84 3f e3 30 71 3f
       1.0585434 1.1114616 1.0349965 0.9421522
000050 20 88 7b 3f 15 34 65 3f 78 f5 8b 3f 09 b5 92 3f
       0.98254585 0.89532596 1.0934286 1.1461498
000060 0f 38 8f 3f bf f2 6f 3f e0 b5 93 3f 0d 07 86 3f
       1.1188983 0.93729776 1.1539879 1.0470902
000070 17 eb 57 3f 67 95 72 3f 5a 82 9a 3f 05 86 70 3f
       0.84343094 0.9475922 1.207103 0.939545
000080 7d dc 8b 3f 63 66 86 3f 2a fd 77 3f 0e 8d 96 3f
       1.0926663 1.0499996 0.9687067 1.1761796
000090 fd 0a 83 3f 87 96 58 3f 40 55 94 3f db cd 95 3f
       1.0237728 0.84604686 1.1588516 1.1703447
0000a0 0d d1 86 3f 4c d9 8c 3f 17 dd 93 3f 47 87 8c 3f
       1.0532547 1.1003814 1.1551846 1.0978783
0000b0 a4 a3 71 3f d2 ef 8d 3f ec ad 94 3f b1 27 66 3f
       0.9439032 1.1088812 1.1615577 0.89904314
0000c0 e2 b3 90 3f fa 54 8a 3f 0d c1 89 3f bf 3b 5a 3f
       1.1304896 1.0807183 1.076204 0.85247415
0000d0 23 0a 7b 3f 53 1e 98 3f 5f f7 72 3f 86 1c 9a 3f
       0.9806234 1.1884254 0.9490871 1.2039955
0000e0 8c f2 48 3f 13 a2 78 3f 83 2c 69 3f b8 47 92 3f
       0.784951 0.97122306 0.91083544 1.1428137
0000f0 f1 d9 83 3f 58 e8 89 3f de ae 92 3f bc 15 8e 3f
       1.0300885 1.0774031 1.1459615 1.1100383

bn3.bias f4 [64]
000000 37 6f e4 bd 5e e5 15 be 07 5c 88 3d e6 d9 0a be
       -0.11154025 -0.14638278 0.06658178 -0.13559684
000010 09 8b 07 bd bf c0 50 bd 62 6b d4 bd 4c 41 c0 bd
       -0.03309158 -0.050965067 -0.10372044 -0.093874544
000020 ad 6f 09 be 05 d1 5a bd 89 38 b6 bd 2e d3 a5 3d
       -0.13421507 -0.053421993 -0.08897502 0.0809692
000030 da bd 9e 3c 26 bb f6 3d 16 45 a0 bd cb 06 20 bc
       0.019377638 0.120474145 -0.07825677 -0.009767245
000040 b3 af 9e 3c 97 6d 64 bd 1a 5b 5f 3d de 9b ee bd
       0.01937089 -0.055768576 0.05453024 -0.11650823
000050 50 3f a8 3d d5 f4 fe 3d 0d cd 52 bd 1d cc d3 bc
       0.08215201 0.12449042 -0.051465083 -0.025854165
000060 69 07 47 bd 3c b7 e4 bd 38 7b 62 bc 65 66 2d bd
       -0.04859105 -0.11167762 -0.013823323 -0.04233398
000070 a0 96 34 be a2 fc b8 bd 53 6a fc bc 8b d6 f5 3d
       -0.17635584 -0.09032561 -0.030812418 0.120038114
000080 c3 dc 38 bc e9 07 61 bd bb fb c7 3d 68 85 96 3c
       -0.011283102 -0.054939184 0.09764811 0.01837416
000090 82 31 fa bd 2d f2 31 be ea a8 98 3c 3d 88 30 3b
       -0.12216474 -0.17377539 0.018635232 0.0026936673
0000a0 36 b5 cf 3c 8a f4 aa bd ae ed a6 bc 26 d4 a3 3c
       0.025354963 -0.083474234 -0.020377006 0.019998621
0000b0 86 11 f4 bd 66 be 1e 3b 4e 71 ac bc d8 9b 27 be
       -0.11917405 0.0024222373 -0.021050122 -0.16368043
0000c0 b6 d2 1a bd 63 7b 89 3d 7e a2 ba bd 87 bb 3f be
       -0.037798606 0.06712987 -0.09113024 -0.1872388
0000d0 78 9b c0 bd dc 2f 33 bc 54 fc f2 bd af b2 71 bc
       -0.09404653 -0.0109367035 -0.11864534 -0.014752074
0000e0 45 d3 4e be 0c 1d 96 bd 67 83 e4 bd 51 4a f9 3c
       -0.2019778 -0.07329759 -0.111578755 0.030430945
0000f0 9d 1a 88 3d e5 0e 85 bc 18 14 f7 3c de 6d 29 bd
       0.06645701 -0.016242454 0.030160949 -0.041364543

bn3.running_mean f4 [64]
000000 17 af a6 3c d0 53 25 3e a7 98 23 3e 46 fd 18 3f
       0.020347161 0.16145253 0.15976201 0.59761465
000010 c3 b4 5d be c4 a2 68 bc 05 8f 9c bd c0 e0 b0 be
       -0.21650986 -0.014198963 -0.07644466 -0.3454647
000020 9a 40 a8 be 34 99 fe be 18 4d dc 3d 70 23 a8 bc
       -0.32861787 -0.4972626 0.10756892 -0.02052471
000030 ad d8 b2 be 14 2d 59 be 2a 5a e0 bd 9e c5 a5 be
       -0.34930936 -0.21208602 -0.109546974 -0.32377332
000040 e6 b3 3f bd e0 ed 9d 3e d4 fd 23 bd 38 c9 a1 bc
       -0.046802424 0.30845547 -0.04003699 -0.019749269
000050 d6 24 35 bf 93 1c 90 be d9 1c 1f be 28 1f 9c bd
       -0.7075933 -0.281468 -0.15538348 -0.0762313
000060 16 0e c4 be d5 5c f0 be bb f2 da be c6 53 7e 3e
       -0.38291997 -0.46945825 -0.42763314 0.24836645
000070 d4 a0 d0 3d 6d d8 e7 b9 d9 4f 61 3e f9 33 c7 be
       0.101869255 -0.00044221003 0.22003116 -0.3890684
000080 2c 23 0b 3d fa 77 af 3e cf 54 00 bf 67 b4 03 3f
       0.03396909 0.34271222 -0.5012941 0.5144715
000090 4e ef 36 bd a2 5c 47 bc 9a dd 7b bc db 61 0b 3f
       -0.044661812 -0.0121680815 -0.015372658 0.5444619
0000a0 d1 d8 b4 be 0a 0f 7a be bc 7c af bc cc 1a d7 be
       -0.35321668 -0.244198 -0.021421783 -0.42012632
0000b0 a3 7a 05 bf 7b d1 ba 3d 5d 0b 0a 3f 3b 31 dd 3d
       -0.52140254 0.091219865 0.5392359 0.108004056
0000c0 30 45 1d be 7d aa 2c 3d 2d 7e bc be 61 7b 87 3c
       -0.15358424 0.042154778 -0.36815014 0.016538324
0000d0 52 a8 45 3e c5 4a 6a 3d 8d c1 15 3e 2a 20 cb 3e
       0.1930249 0.057200212 0.14624615 0.39672977
0000e0 8b e7 9f 3e 84 8f a0 be a8 b7 61 3d 8d b2 17 be
       0.3123134 -0.31359494 0.05510679 -0.14814205
0000f0 31 52 c8 3b aa 1f 9e be b5 8f 0d bf 82 d6 b2 3e
       0.0061133136 -0.30883533 -0.55297405 0.3492928

bn3.running_var f4 [64]
000000 75 5d 41 3e 35 b2 8a 3e 6c 10 30 3f f8 3d d0 3e
       0.18883307 0.27089086 0.6877506 0.40672278
000010 ed 35 74 3e 41 08 8a 3e b7 5a 76 3e 49 54 9c 3e
       0.23848696 0.26959422 0.24058042 0.30533054
000020 e2 21 45 3e 9f fa 71 3e 8c ac 4f 3e a9 1a 83 3e
       0.19251207 0.2363076 0.20280665 0.25606278
000030 43 11 0a 3f 76 43 77 3e 29 bf 5e 3e 5a b5 e4 3e
       0.5393259 0.24146828 0.2175261 0.4466961
000040 e9 e9 67 3e 83 1d 7e 3e 6d 85 7c 3e 74 31 d5 3e
       0.22647823 0.24815945 0.24660273 0.41639292
000050 e2 e8 8f 3e 6c 87 a5 3e c5 69 92 3e ad 98 c0 3e
       0.28107363 0.3232988 0.2859632 0.37616482
000060 e4 7f 6a 3e 7e 32 9d 3e 98 d7 5e 3e 8f 1a ad 3e
       0.22900349 0.30702585 0.2176193 0.33809325
000070 e8 e7 47 3e b4 47 cb 3e ca 97 25 3e 40 8e d4 3e
       0.19522059 0.39703143 0.16171184 0.41514778
000080 dc 26 15 3e f4 dc af 3e 44 84 de 3e 44 88 34 3e
       0.14565605 0.3434826 0.43460286 0.17630106
000090 d9 f5 9a 3e c5 42 7a 3e 07 5a c8 3e ba a8 d7 3e
       0.30265692 0.24439533 0.39131185 0.42120916
0000a0 6f 38 db 3e ee 71 97 3e 49 b0 d1 3e 47 d2 91 3e
       0.42816493 0.2957911 0.40954807 0.2848074
0000b0 39 25 70 3e 8d e4 36 3e 74 90 67 3e 03 d0 e4 3e
       0.234517 0.17860623 0.22613698 0.4468995
0000c0 b5 33 b5 3e 8a 9e ae 3e b7 4a 91 3e 74 d3 40 3e
       0.35391012 0.3410533 0.28377315 0.18830663
0000d0 e9 aa 8a 3e f6 ba c5 3e 4a 1b cb 3e 50 3d 23 3e
       0.2708352 0.38619202 0.39669257 0.15941358
0000e0 28 35 8f 3e ab d7 37 3e c4 ab 80 3e 20 00 88 3e
       0.27970243 0.17953365 0.25131047 0.26562595
0000f0 0a d3 92 3e 51 06 55 3e 6b d7 f6 3e 2a 0c 99 3e
       0.28676635 0.20803191 0.48211226 0.29892093
