models/trained_models/dscnn_mfcc/model_acc_88.28125.pth (torch_old, 110035 bytes, 56 tensors)

conv1.weight f4 [64, 1, 10, 4]
000000 e9 82 25 3e 94 6a b9 bd 61 8c 12 be fd 84 ad bc
       0.1616322 -0.09053531 -0.14311363 -0.021181578
000010 af 4b 33 3e b0 3e 83 bd cd 43 75 bc 78 fb 28 3e
       0.1750934 -0.06408441 -0.014969778 0.16502178
000020 b4 b1 72 3e 85 bd 5d 3d 23 fe 72 be cd 8a 0d 3d
       0.23700601 0.054135818 -0.23729758 0.0345562
000030 cd fc 84 3d db a0 a9 bd 88 92 6e bd 3e ba 27 bd
       0.064935304 -0.08282634 -0.05824521 -0.0409491
000040 1f 96 08 3e 5f 37 82 be cf a6 4a be 92 2f 32 3d
       0.13338517 -0.2543287 -0.19790195 0.043502398
000050 4f 85 cd 3d b2 3a 99 bc 6f 81 90 be 97 e6 ec bc
       0.10035192 -0.018704746 -0.2822375 -0.028918548
000060 f3 53 13 be a5 20 12 be 6d 74 1c be 07 12 9a 3d
       -0.14387493 -0.14270265 -0.15278788 0.0752297
000070 2a 9d ea 3d ec 5c ad bd 74 00 1b 3e de 73 62 3c
       0.11455758 -0.08464989 0.15136892 0.01382157
000080 cb ed ad ba eb e4 41 be 8c 00 8d 3b 2c 1b a8 3d
       -0.001326972 -0.18934982 0.0043030437 0.082083076
000090 51 d1 f8 bd e3 5a ad bc 2d 33 97 3e 6e 09 0f be
       -0.12149299 -0.021161502 0.29531232 -0.13968441
0000a0 2a 67 b0 3d 7b b8 a3 3e 87 50 78 3e 45 69 be 3d
       0.08613427 0.31976685 0.24249469 0.09297422
0000b0 58 9a 2c 3d f2 f4 b9 bd e3 1a 96 3d e0 fa 85 3e
       0.04213938 -0.09079923 0.07329347 0.26167965
0000c0 b4 fa 87 bd 5c d8 32 be 83 b5 51 3d d8 91 42 3d
       -0.06639615 -0.17465347 0.051198494 0.04750237
0000d0 06 e1 28 bd 54 86 2a be 44 64 7c be f1 96 87 3d
       -0.041230224 -0.16652805 -0.24647623 0.06620587
0000e0 8d c2 84 bd e5 24 8d 3c 85 df aa bd bc dd 4a be
       -0.0648242 0.017229507 -0.08343414 -0.19811147
0000f0 cc aa ce 3c 98 7f 31 3e 24 b3 bd 3d f2 af ec bd
       0.025227927 0.1733383 0.09262684 -0.115569964
000100 9d d4 68 bd f7 aa b9 3d 3c 11 8c 3e cf 0a 4e bd
       -0.05684339 0.09065812 0.273569 -0.050303277
000110 a6 7e 7b 3b 2a 98 d6 bd 90 c8 d1 3e 9f 6b e2 3d
       0.003837505 -0.10478242 0.4097333 0.11055683
000120 6d d6 d5 3d 6e 55 c7 bb f8 8a b8 3c 56 54 a3 3d
       0.10441289 -0.006083182 0.022527203 0.0797507
000130 f6 a7 08 3d e3 f7 07 be 25 53 b3 3d c6 b2 e5 bd
       0.033363305 -0.13278155 0.08756093 -0.11215739
000140 4a f7 88 3c 2d 43 3b 3e 7c 97 1f bd 5d 76 b6 bd
       0.01671948 0.18287344 -0.038962826 -0.08909295
000150 97 aa 09 be 30 59 7b bd 09 fe 38 be 6a b4 c5 3d
       -0.13443981 -0.061364353 -0.18065657 0.09653552
000160 59 a0 af bc bf 0d 94 be 60 24 27 3d 4b 5e 8f bc
       -0.021438764 -0.28916737 0.040806174 -0.017501017
000170 19 e6 8f 3d 1d be a9 be 14 04 59 bd 60 5f ae bc
       0.070263095 -0.33152857 -0.052982405 -0.021285713
000180 1d a1 98 bc 99 8b f4 be dc 7c 42 be 8f 8b c3 3d
       -0.018631512 -0.47762755 -0.18992943 0.09548103
000190 d4 fc 20 bd d0 24 84 be 48 86 07 bc b5 ea f2 bd
       -0.039303616 -0.25809336 -0.008271761 -0.11861173
0001a0 49 57 1c be 74 98 0b 3e 34 7a 8c be b5 5b 0c 3e
       -0.15267672 0.13632375 -0.27436984 0.13706858
0001b0 08 88 f1 bd 55 15 cb bd 5a b6 12 be ce 15 7e bd
       -0.11793524 -0.09916178 -0.14327374 -0.062032513
0001c0 1d b0 23 bd 88 7d f1 bd 26 74 46 be 65 e7 61 bd
       -0.039962877 -0.11791521 -0.19380245 -0.055152316
0001d0 f0 3c f5 3d 77 57 24 be 08 6f 1f be ae 4a fa bd
       0.119745135 -0.1604899 -0.15569699 -0.12221275
0001e0 a4 12 df bd cb 4d 2e 3c 5d ae f8 bd 03 a4 c0 bc
       -0.10892227 0.0106386645 -0.12142632 -0.023515707
0001f0 ae af 01 be 57 48 f3 3d ff fc d9 bd 83 01 6b 3d
       -0.12664673 0.11879032 -0.10643958 0.05737449
000200 ce 25 f6 3d de 98 06 3e ff eb 82 bd d9 11 40 bd
       0.120189294 0.13144252 -0.06392669 -0.04689202
000210 d4 16 88 3d 92 15 e4 3d c8 55 f6 bd d6 5b 91 be
       0.06644979 0.11136927 -0.1202808 -0.28390378
000220 95 cf 2c 3d 25 d4 0b be e4 bb 65 be d5 77 87 be
       0.042190153 -0.13655145 -0.22434956 -0.26458612
000230 c2 29 2a be 7b d0 45 be 53 fc 0d bf 08 8f b5 3c
       -0.16617492 -0.1931781 -0.5546314 0.02216293
000240 04 e7 f6 bd cf b9 06 3d ef b5 b2 3c 08 a3 3a be
       -0.120557815 0.032892045 0.021815268 -0.18226254
000250 8a 75 cd 3d 00 1f 08 be 2d 1a eb bd 71 40 4b be
       0.100321844 -0.13293076 -0.11479602 -0.19848801
000260 3d 16 be bd 85 b4 58 be 73 de c6 3c bd 63 2a be
       -0.09281585 -0.21162613 0.024275994 -0.1663961
000270 ca 03 3d be bc 59 36 be 75 43 24 3c 38 a3 3d bd
       -0.18458477 -0.17807668 0.010025849 -0.046298236
000280 0e 55 24 bd 00 dd 01 3e d7 02 48 3d 68 7e 23 be
       -0.040120177 0.12681961 0.048830833 -0.15966189
000290 87 6d d5 bc 64 2c 2e 3e 7f e7 78 3d b3 9a 64 bc
       -0.026053203 0.17009121 0.060767647 -0.013952899
0002a0 4a 98 d4 3d 31 75 46 3e 4e b9 62 3d b0 ff d2 3d
       0.10380609 0.19380642 0.0553525 0.10302675
0002b0 32 e6 39 bd 4e f7 03 bd c4 b9 ba 3d d5 e9 8e 3d
       -0.045385547 -0.03221827 0.09117463 0.06978194
0002c0 da 12 41 be a0 f1 67 3d 21 25 55 be b4 ef 27 3e
       -0.18854848 0.056626916 -0.20814945 0.16400033
0002d0 b8 ce 25 be 79 d8 76 be a6 9c 7a be 4a b0 da bc
       -0.16192138 -0.24106015 -0.24473819 -0.02669539
0002e0 65 58 15 bd 55 7f f4 bd 18 c6 97 bc cf 6b a5 bd
       -0.036461253 -0.11938349 -0.018527076 -0.080772035
0002f0 e9 78 f1 bd b5 e2 69 be 7f 13 cf 3d 2e 72 6c 3d
       -0.1179064 -0.22840388 0.101111405 0.057726078
000300 87 00 fe 3c f2 d6 d6 3d 53 4f 21 be 00 21 be bd
       0.03100611 0.10490216 -0.15752916 -0.09283638
000310 d2 c5 0c be 0a 41 29 3e 6a 57 9c 3c b1 91 33 3b
       -0.13747337 0.16528717 0.019084651 0.0027400071
000320 5b 32 57 be 4d f3 66 bd 0b f0 ba 3d 2c 9a 16 3d
       -0.21015303 -0.056384373 0.09127816 0.036768124
000330 27 ae 91 bd 24 b8 db bd 29 98 03 be 3b 6b 0d 3e
       -0.07113295 -0.107284814 -0.12851013 0.13810436
000340 7e 9c 8d bc cb ea 20 be 49 9e 25 bd 73 7b 3a 3e
       -0.017286535 -0.15714566 -0.040434156 0.18211155
000350 c6 4a 61 bd 03 44 ae bc 5d 84 08 bd 93 a7 3b 3e
       -0.05500295 -0.021272665 -0.033329356 0.18325643
000360 f7 62 d4 3d 15 6a fd bd 75 79 33 3e 0d 08 dd bc
       0.103704385 -0.12373749 0.17526801 -0.026981378
000370 4d 20 3e 3e 8f 8c 15 3c fb af ed bd cf 79 c5 3d
       0.1856701 0.00912775 -0.11605831 0.09642374
000380 ee 94 05 3e 7f f2 03 be 55 fa 2c bb 81 eb 7e 3e
       0.13045093 -0.12885474 -0.0026394327 0.24894525
000390 6e 49 54 3e ae 45 d7 3d cf 1c 7d bd dc 68 7b 3e
       0.20731136 0.10511337 -0.061795052 0.2455172
0003a0 c1 3a ff 3d a1 41 83 3c 42 7f 15 bd 33 07 f8 bc
       0.12462378 0.016022505 -0.036498316 -0.03027687
0003b0 d3 22 1e 3e 06 5e 3c be 1c c3 09 be 39 61 a7 bc
       0.15442972 -0.18395242 -0.13453335 -0.020432102
0003c0 9c 0d 13 3d 0c f2 5b 3d 8d 13 33 3e be 4f 3d be
       0.03590165 0.05369763 0.17487927 -0.1848745
0003d0 dd 92 62 3b 2a 34 0d 3e 4e 2c 98 bd 5a 44 60 3d
       0.00345724 0.1378943 -0.074303254 0.054752685
0003e0 9f 9f a0 bd 27 d2 e2 3d d7 65 2c be d5 dc 6b be
       -0.07842945 0.1107524 -0.16835724 -0.2303346
0003f0 dc 0e 40 be 15 fc b3 bd d3 62 10 be 6a af af bd
       -0.18755668 -0.08788315 -0.14100198 -0.085783795

conv1.bias f4 [64]
000000 44 50 49 3d c9 82 95 3b fc 61 0e bd 1e ef a3 bd
       0.049148813 0.00456271 -0.034761414 -0.08004592
000010 e0 08 1d 3d 51 c3 fd 3d 9f 74 17 be a0 74 63 bd
       0.038338542 0.12390769 -0.14790581 -0.055531144
000020 90 80 00 3e 76 e8 10 bd 36 c4 0e be 85 cd 51 3d
       0.12549043 -0.035377942 -0.13942036 0.05122139
000030 91 4b 2d bd a7 51 1f 3e e3 27 4c bd 0e 3d 2b 3d
       -0.042308394 0.15558492 -0.049842726 0.041806273
000040 27 18 8f bd d7 d1 75 3d 4a de 96 3d 93 98 14 3e
       -0.069870286 0.060014572 0.07366617 0.14511327
000050 3e 8b dd 3d 4c 3c 19 be 85 f9 b6 3d e7 ba 01 bd
       0.10817574 -0.14964408 0.08934311 -0.031672385
000060 ad 36 5c bd a2 d5 1c bd 01 94 0e 3e b5 07 5e bc
       -0.05376308 -0.038289674 0.13923647 -0.013551642
000070 64 02 01 3e dd 78 61 bd b9 9e 0a be af ff 90 3d
       0.12598568 -0.055046905 -0.1353711 0.07080018
000080 1c 4c 1a 3e 5c 84 7d bd a5 e9 12 be 66 e9 0e 3c
       0.15068096 -0.061893806 -0.14346941 0.008722639
000090 7d 93 0a be cf e7 1e bd 96 11 72 bd 53 e9 9c 3d
       -0.13532825 -0.03879529 -0.059098803 0.076616906
0000a0 f4 de 15 be 4a c2 d3 3d d4 05 44 bd fc 4a c9 3d
       -0.14635831 0.10339792 -0.04785712 0.09828755
0000b0 e2 ab 30 3d 68 54 e8 bd 22 c8 1d 3e d3 b6 8d bc
       0.04313267 -0.11344224 0.15408376 -0.017299091
0000c0 81 03 8a 3d c1 38 e4 3c 9b 86 20 3c f2 f9 8e 3d
       0.067389496 0.027859094 0.009797717 0.06981267
0000d0 2b 6f 15 bd 45 dc b8 3d d6 da 4c bd 95 41 d6 3d
       -0.03648297 0.09026388 -0.050013386 0.104617275
0000e0 44 d4 ed 3d 29 8c 9a 3d a4 5e 7f 3d 6b 1b 0e 3e
       0.11612752 0.07546265 0.062346116 0.13877647
0000f0 77 7c 5a bd 7b 9e 52 3d ed 82 d5 3d b5 78 3f 3d
       -0.053341355 0.05142067 0.10425363 0.046745975

bn1.weight f4 [64]
000000 55 1c 86 3f 8c 4e 85 3f c9 5c 8b 3f 4a ec 80 3f
       1.0477396 1.0414596 1.0887691 1.007211
000010 f5 b9 54 3f 9a ee 64 3f 13 43 99 3f 19 2d 83 3f
       0.8309625 0.8942658 1.1973594 1.0248138
000020 34 85 85 3f d5 fe 83 3f d4 bd 6b 3f 98 9c b5 3f
       1.0431275 1.0312144 0.9208653 1.4188414
000030 8d 16 63 3f f8 98 93 3f 97 85 6e 3f 50 fa 72 3f
       0.88706285 1.1531057 0.9317259 0.94913197
000040 4b 86 9b 3f c0 3b 90 3f ed 89 96 3f ac 54 96 3f
       1.2150358 1.1268234 1.1760842 1.174459
000050 bd db 89 3f a0 49 6e 3f d0 b9 8d 3f 02 e7 a2 3f
       1.0770184 0.9308109 1.107233 1.2726748
000060 ae 13 65 3f fb cb 67 3f ea af 4e 3f 87 24 8c 3f
       0.89483154 0.90545624 0.80737174 1.0948647
000070 fe 7f 81 3f 88 cf b7 3f e7 bf 87 3f 9b da 9e 3f
       1.0117185 1.4360209 1.0605439 1.2410463
000080 53 58 76 3f 50 84 c0 3f 19 3e 83 3f 28 e4 79 3f
       0.9622852 1.5040379 1.0253326 0.97613764
000090 f2 94 76 3f be 1b 51 3f c2 a7 65 3f aa cc 89 3f
       0.9632102 0.81682956 0.89709103 1.0765584
0000a0 8b 69 59 3f 3f 87 6c 3f 1d f9 60 3f 5a 14 c7 3f
       0.8492667 0.9239387 0.87880117 1.5553086
0000b0 83 cd 59 3f f1 1b 68 3f 8b ca b0 3f 23 84 86 3f
       0.8507921 0.90667635 1.3811811 1.0509075
0000c0 cd bf 35 3f 26 a9 82 3f 29 7b 57 3f 96 ce 97 3f
       0.7099579 1.020787 0.841723 1.185992
0000d0 c5 e6 81 3f 72 85 63 3f 62 50 73 3f b1 17 89 3f
       1.014855 0.88875496 0.9504453 1.0710355
0000e0 d6 e4 4b 3f 0e 39 81 3f a7 10 66 3f 38 17 87 3f
       0.7964605 1.0095537 0.8986916 1.0553961
0000f0 a8 c7 ae 3f c1 7d 86 3f 74 dd 6a 3f 8c 7b 7c 3f
       1.365468 1.0507127 0.9174416 0.9862602

bn1.bias f4 [64]
000000 52 ca 9d bd 6b bd 6f 3d a8 cd 1b bd 9f 13 ce 3d
       -0.07704605 0.058530252 -0.038037926 0.10062336
000010 8b e9 30 be 04 e5 10 be 63 e4 d9 bc 5c 1a 85 bd
       -0.1727659 -0.14149863 -0.026598161 -0.06499168
000020 53 50 93 bd 11 68 27 bd 99 76 f8 bd 3e 15 fa bb
       -0.07193055 -0.04087073 -0.12131996 -0.007631927
000030 fe 02 17 be 1b b6 82 bd a3 af e1 bd 91 13 de bd
       -0.14747235 -0.0638239 -0.11019828 -0.10843576
000040 48 76 e9 bc f1 d9 15 bd cd 64 c2 3b 5d ad b0 bc
       -0.028498784 -0.0365848 0.0059324265 -0.021567041
000050 38 1c ca 3d 51 1a e5 bd c7 90 0a 3d 32 29 98 3c
       0.098686635 -0.1118666 0.033829477 0.018574331
000060 1f f4 0d be bf 0d 19 be 3f 06 4b be 34 da 7b bc
       -0.13862656 -0.1494665 -0.19826601 -0.015371848
000070 83 2b af bd 18 8b 83 3c d0 97 9b bd 61 83 3a 3d
       -0.08553221 0.016057536 -0.07597315 0.04553545
000080 c9 49 f7 bd 0c 4b bd bc 13 74 ce bd 29 d5 85 bd
       -0.1207462 -0.023107074 -0.10080733 -0.06534798
000090 f3 ff 06 be 04 39 36 be bd 46 30 be 2a f4 2f bd
       -0.13183574 -0.17795187 -0.17214485 -0.042957462
0000a0 70 11 42 be 0c 7e 04 3e 9d 58 21 be ae be cb bc
       -0.18951964 0.12938708 -0.1575646 -0.024871197
0000b0 0e 38 3e be ef b2 07 be 83 fc 44 bc f5 a1 57 3d
       -0.1857607 -0.13251851 -0.012023094 0.05264469
0000c0 28 52 98 be 20 6d ec bd 84 f2 3c be 6b 22 99 bd
       -0.2975018 -0.115442514 -0.18451887 -0.07477268
0000d0 58 7d 9d bd 36 26 5a be 75 f8 e9 bd 9c 6d 94 bd
       -0.07689923 -0.21303639 -0.114243425 -0.07247469
0000e0 5b 21 68 be d1 57 c9 bd f1 0b 22 be d0 fc 6e bd
       -0.22668974 -0.09831203 -0.15824868 -0.05834657
0000f0 60 53 d3 bc 9f d5 69 3d d4 9b f5 bd 4f e6 f9 bd
       -0.025796592 0.05708849 -0.119926125 -0.12202131

bn1.running_mean f4 [64]
000000 16 77 ba c2 98 b5 f7 42 eb 72 b4 c3 eb d5 b4 c3
       -93.23259 123.854675 -360.8978 -361.67123
000010 19 5a 8d c2 b6 be 3b 42 7b b3 c0 c3 02 9c cc c2
       -70.67597 46.93624 -385.4022 -102.3047
000020 8a 79 3a 42 6a 53 62 43 ea 40 bc c2 f8 1a a3 c2
       46.61869 226.32584 -94.126785 -81.55267
000030 dc 1b 92 42 ec af af c3 29 32 d4 c0 2e b7 46 c3
       73.05441 -351.3744 -6.631123 -198.71555
000040 03 e0 a6 43 0b 2c 4f 43 b1 f3 1f 42 ac e8 b9 c2
       333.7501 207.17204 39.98798 -92.95444
000050 34 2e 4c 43 6a 4f 08 c1 f8 ff a4 c3 4c 07 09 42
       204.18048 -8.519388 -329.99976 34.257126
000060 6c e3 46 43 f9 20 98 41 d7 49 c3 42 96 e1 51 42
       198.88837 19.0161 97.64422 52.4703
000070 5b 14 95 c3 55 b3 09 c3 fd 03 96 42 b5 1e fc 41
       -298.15903 -137.70052 75.00779 31.514994
000080 91 19 61 43 91 58 8a 43 a8 c4 e8 c2 65 db 58 c3
       225.09987 276.69193 -116.384094 -216.85701
000090 0a eb fe c2 2d 76 8a c3 5f 90 a6 42 37 d6 81 42
       -127.45906 -276.92325 83.281975 64.91839
0000a0 c5 61 5a 41 99 70 b3 c2 da 6c 35 42 34 c1 a1 42
       13.6488695 -89.71992 45.3563 80.87735
0000b0 dd c6 f8 42 aa 6f 62 c3 81 2c 8b c0 09 a2 4f c2
       124.388405 -226.43619 -4.3491826 -51.908237
0000c0 3c 80 a6 42 10 b2 d1 40 6b 25 96 41 f3 7a 80 c1
       83.25046 6.552986 18.76827 -16.060034
0000d0 a0 bc 1c 43 43 89 80 42 7c 8e 7d c2 25 10 0d 42
       156.73682 64.26809 -63.389145 35.265766
0000e0 a6 a2 91 42 d1 0f cc c2 9c 96 75 42 e1 bb 94 c3
       72.81767 -102.03089 61.39708 -297.4678
0000f0 0c b0 45 c3 83 f1 78 c3 16 b5 6f c3 1b 5b f6 42
       -197.68768 -248.9434 -239.70737 123.17794

bn1.running_var f4 [64]
000000 50 43 7d 44 a5 f1 82 44 92 dd 67 45 04 cc 97 45
       1013.05176 1047.5514 3709.8481 4857.502
000010 52 bf ad 44 77 d6 39 45 93 58 d7 45 54 b1 94 45
       1389.9788 2973.404 6891.072 4758.166
000020 6a b4 1c 45 b7 72 93 45 25 bd 18 44 ca 20 eb 44
       2507.276 4718.3394 610.9554 1881.0247
000030 c5 31 b8 44 e6 32 07 45 d1 1e 04 45 31 72 18 45
       1473.5553 2163.1812 2113.926 2439.137
000040 86 b0 a2 45 18 49 2d 45 93 40 4f 44 c9 01 d7 45
       5206.0654 2772.5684 829.009 6880.223
000050 97 ac 53 45 85 e5 0a 45 c7 11 13 46 b4 6c a6 45
       3386.7869 2222.345 9412.444 5325.588
000060 dd 2e 90 45 a2 7e f5 43 73 ad fc 44 7e e9 ad 45
       4613.858 490.98932 2021.4203 5565.1865
000070 49 84 12 45 99 80 d9 44 5f 3b 2e 44 1c ab dc 44
       2344.2678 1740.0187 696.9277 1765.3472
000080 8a 53 6c 45 32 08 cd 44 0b 1c 51 45 da d0 3e 45
       3781.2212 1640.2561 3345.7527 3053.0532
000090 46 94 7b 44 b1 60 34 45 59 4d f3 44 c1 98 59 44
       1006.3168 2886.0432 1946.4171 870.3868
0000a0 4d 9f 0d 44 8a 77 e3 43 86 98 81 44 24 0d 83 45
       566.4891 454.9339 1036.7664 4193.6426
0000b0 0b 34 64 44 e3 7c 0b 45 1c 61 80 45 0d a6 16 45
       912.8132 2231.8054 4108.1387 2410.3782
0000c0 d4 b4 79 44 54 04 7e 45 83 9b f3 43 1c 1f ab 45
       998.82544 4064.2705 487.21494 5475.8887
0000d0 d8 d5 48 44 7d 5a cf 44 33 de c0 44 8f ff 8d 44
       803.3413 1658.8278 1542.9437 1135.9862
0000e0 b6 aa 5d 45 a8 99 4f 45 0c 14 8b 44 02 21 8e 45
       3546.6694 3321.6035 1112.6265 4548.126
0000f0 e9 e0 9d 44 f8 f5 a8 45 a9 20 7e 45 95 fd 6d 44
       1263.0284 5406.746 4066.0413 951.9622

conv2.weight f4 [64, 1, 3, 3]
000000 94 bc ea 3e 5b ec 20 be aa 83 2f bd 5b 7f 05 3e
       0.45847 -0.15715162 -0.042850174 0.13036864
000010 25 7e a6 be bf 55 82 be 61 e5 46 3e 22 cf 8c bb
       -0.32518116 -0.25456044 0.19423439 -0.004297153
000020 53 cb 94 3e e1 40 d2 be 13 b7 e2 bd 6b 83 46 3e
       0.29061374 -0.41065124 -0.11070075 0.1938607
000030 b8 a5 72 3e c8 88 9a bd 8b 08 e7 bc d3 02 92 3e
       0.23696029 -0.0754562 -0.028202316 0.2851778
000040 d7 39 97 3e 2b 5f c9 3c c9 2a 31 be 32 c9 9f be
       0.29536316 0.024581512 -0.17301477 -0.31208187
000050 a7 f8 97 bd e9 fa 8b 3e cc c3 19 3e ca e5 d2 be
       -0.074204735 0.27339867 0.15016097 -0.4119094
000060 21 cf 48 be f0 dc 3a 3e e0 2b 8d be 7d 29 67 3d
       -0.19610263 0.18248343 -0.27572536 0.05643605
000070 f2 68 db 3e ca 6e c8 bc ea e1 c0 be a0 2c 43 3d
       0.42853504 -0.02446689 -0.3767236 0.04764998
000080 57 49 2c 3e 70 61 7e 3e 41 33 35 3e 27 b2 88 be
       0.16824852 0.24841857 0.17695333 -0.2669842
000090 f6 b9 10 be 9f f4 9d 3e 34 0b 46 bc 98 fa af 3e
       -0.14133438 0.30850694 -0.012087632 0.34370875
0000a0 17 66 a2 3e 20 c2 cf bd c1 8f 23 bc f5 4b 56 3d
       0.31718513 -0.10144448 -0.009983004 0.052318532
0000b0 95 f1 89 be ef 56 b1 3c 0a f2 65 3e 59 9a e0 3d
       -0.26942125 0.021647898 0.22455612 0.109669395
0000c0 6d d0 dd 3b 33 91 a1 3e 87 33 60 bd 4c db 6c be
       0.006769231 0.3155609 -0.05473664 -0.2313053
0000d0 a6 77 9b 3e 9a b5 59 3e 5e 55 27 ba 68 42 37 be
       0.30364722 0.21260682 -0.0006383265 -0.17896426
0000e0 e6 5a 36 be 7b 56 14 3e 3a 02 9b be b7 44 90 3e
       -0.17808113 0.14486115 -0.30275136 0.28177425
0000f0 c1 cd 9e be 96 37 da be ea ce 85 3e 34 ac 2c be
       -0.31016353 -0.42620534 0.26134425 -0.16862565
000100 52 25 8a be 0c 5a 8c bd 4b 68 b0 3d 7e f8 57 be
       -0.26981598 -0.068531126 0.08613642 -0.21090886
000110 37 53 02 bd 17 a2 02 be 18 7f e1 be e9 c6 4e 3e
       -0.03181764 -0.12757145 -0.44042277 0.20193066
000120 31 2a 91 3c 10 65 97 bc 6a a4 38 be 14 e0 8f 3e
       0.017720314 -0.018480808 -0.18031469 0.28100646
000130 81 53 a0 be 66 75 fa be b4 3e 76 be 67 70 ce 3e
       -0.31313708 -0.48917693 -0.24047357 0.4032013
000140 3a aa a7 be 77 ba 41 be 3d ec f7 3b 65 bb 48 be
       -0.3274706 -0.18918787 0.0075660036 -0.19602735
000150 f7 ea f9 3e 83 35 bb 3d a3 0f 61 3e f4 90 81 3e
       0.48812076 0.09141066 0.21978621 0.25305903
000160 ad 73 cd bd 8e 6c d6 bc ea 36 a8 3e 47 0a 93 3d
       -0.10031829 -0.02617481 0.32854396 0.071796946
000170 0c 33 9d be ab 57 40 be f1 67 62 be 17 e8 44 3d
       -0.30703008 -0.18783443 -0.22109963 0.0480729
000180 ba 74 d0 3d 77 d0 37 be ce 6d 67 3e 6f db 66 3e
       0.10178514 -0.17950617 0.22600481 0.22544645
000190 56 60 ec bc 24 78 63 be 3f 88 30 3e 73 fb 03 3e
       -0.02885453 -0.22213799 0.17239474 0.12888889
0001a0 c1 59 93 bd 8a 80 a8 3d 13 e3 c6 bd 5a 5b 4b 3e
       -0.071948536 0.08227642 -0.0971128 0.19859067
0001b0 7a 4d 50 be 20 09 9f bd 42 5a 28 3c a7 8a a4 be
       -0.20342055 -0.07765412 0.010275425 -0.32137033
0001c0 44 24 9f 3d 2a 5b 2d 3e 0e 49 45 be b8 96 7f 3d
       0.07770589 0.16929308 -0.1926615 0.062399596
0001d0 2c 20 2a 3e 43 98 e3 3d d1 5a a4 3e 03 ee 58 bd
       0.16613835 0.11113026 0.32100537 -0.05296136
0001e0 52 96 85 be ad f9 82 be 4b 87 a2 3d ca af f4 3d
       -0.26091248 -0.25581113 0.07935961 0.119475916
0001f0 1a ab 56 3e d5 80 9a be f5 3a 28 3e ce 9e df 3d
       0.20963708 -0.30176416 0.1642874 0.109189615
000200 b9 fb 74 be 23 ee 3a be ec b8 f9 bd ab ad b5 be
       -0.2392415 -0.18254904 -0.12193474 -0.3548406
000210 cc ac 07 bc f7 57 a2 bd 8a 4b 6e be 08 fa 98 be
       -0.008280944 -0.07926934 -0.23271003 -0.2987826
000220 41 21 96 bd a8 5d 56 3e 3c 3a c2 bd a6 7b 2f bd
       -0.073305614 0.20934165 -0.094837636 -0.04284253
000230 87 f6 a8 3e 75 64 10 3e f5 32 e1 3c a5 e5 ae 3e
       0.33000585 0.14100821 0.027490119 0.3415958
000240 72 fc 07 be 52 04 77 3e f7 09 9d bd 13 2c 2a be
       -0.13279894 0.24122742 -0.07667916 -0.16618375
000250 20 ae b5 3d 8e ba 51 3e 3f a6 89 3e fe de 8c be
       0.08871102 0.20481321 0.26884648 -0.2751388
000260 48 db 67 bd 0b 88 68 3e b8 6b 98 be 23 83 a3 be
       -0.056605607 0.22708146 -0.29769683 -0.31935987
000270 83 7f 5e be 06 69 86 be 13 9c 88 3d 02 54 68 be
       -0.2172833 -0.26252002 0.06670394 -0.22688296
000280 21 c9 2f bc f3 8c f7 bc f1 4a 8d bd 29 0a 63 3d
       -0.010729105 -0.030218577 -0.068990596 0.05542961
000290 95 10 a7 bd 10 5e ca be 63 76 10 3e 13 ea 1d be
       -0.0815746 -0.3952489 0.14107661 -0.15421323
0002a0 6f 32 e1 3e 26 45 8a 3d a7 30 72 3e d1 f0 bf 3c
       0.4398379 0.0675147 0.23651372 0.02343026
0002b0 d1 38 ca 3e dd 88 1d 3c 8a 8f 0b 3e bc da 8c be
       0.39496472 0.00961515 0.13628975 -0.2751063
0002c0 c9 ab 66 3b 01 20 50 be c6 ac 9d 3e ef b8 cf bd
       0.0035197607 -0.20324709 0.30795878 -0.10142695
0002d0 25 c2 b3 3b 0e 89 09 3d e3 f3 77 be 2a 91 3f be
       0.0054857903 0.03357797 -0.24214129 -0.1870772
0002e0 89 5b ad 3e 58 0c 81 3d 58 ef 8d 3b 0c 6a c2 bc
       0.33858898 0.063011825 0.0043315105 -0.023732208
0002f0 36 53 9a be 30 b1 58 3e 0c 03 a7 be ef 30 a0 be
       -0.3014161 0.21161342 -0.32619512 -0.31287333
000300 af 25 54 3e 18 58 91 be 65 d1 7d 3d a3 55 18 3e
       0.207175 -0.28387523 0.061967272 0.14876418
000310 9a 70 2a be 76 6e 75 3e e5 ed 98 be 9c 5e 77 be
       -0.16644517 0.23967919 -0.29869 -0.24157184
000320 ee 91 e0 bd 37 94 af 3e 37 6e 0f 3e 8f 92 40 be
       -0.10965334 0.34292766 0.14006887 -0.18805908
000330 be 85 61 3e 98 e8 63 bb 58 bb fe bd a3 dc 2f 3d
       0.22023675 -0.0034776088 -0.12438077 0.042935025
000340 be c5 c2 3c e2 45 df bd 64 d9 de bc db 18 8b be
       0.023775931 -0.10902001 -0.02720327 -0.271674
000350 26 d6 49 3e 11 ff 43 be 5b 36 26 be 89 0e 17 3e
       0.19710597 -0.19140269 -0.16231672 0.14751638
000360 a5 2e 9e be 49 d1 0d 3e 9e 52 f8 bc 4c 93 3c be
       -0.30894962 0.13849367 -0.030312832 -0.18415564
000370 3f 06 70 be ba f0 9c be cf e8 a5 39 43 93 99 3e
       -0.23439883 -0.3065241 0.00031644708 0.29995164
000380 da 56 fe be 98 a2 95 3e 1d 6d 92 3e 1b 4c 05 bd
       -0.49675637 0.29225612 0.28598872 -0.032543283
000390 ad f9 d7 bd 8f 84 1f be 68 42 ad 3e 72 19 c1 3d
       -0.10545669 -0.15577911 0.33839726 0.094286814
0003a0 e2 82 24 be 96 01 f2 3d eb f3 46 bd ad 50 88 3d
       -0.16065553 0.11816709 -0.048572462 0.06656013
0003b0 aa 7c 06 3f 54 bb 99 be c8 96 05 be f8 49 4e 3e
       0.5253397 -0.30025733 -0.130458 0.20145404
0003c0 41 d3 0c be c9 88 f4 3d 59 75 ee bd 8e af 02 be
       -0.13752462 0.11940152 -0.11643476 -0.12762281
0003d0 62 32 b0 3e a3 bf 03 3e 7f 90 eb bd 25 be 94 3d
       0.3441344 0.12866072 -0.1150217 0.0726283
0003e0 bb 2e 6e 3d 92 bd 51 be 1a bc 80 3d 05 c0 9d 3e
       0.058150034 -0.20482472 0.062858775 0.30810562
0003f0 68 89 3b be a7 da 64 bd 6e 61 11 bd 87 08 5c be
       -0.18314135 -0.055872586 -0.035493307 -0.21487628

conv2.bias f4 [64]
000000 b4 93 8c 3d 0b 7f 7f 3e 83 3d 80 be 7f e7 a4 bd
       0.0686411 0.24950807 -0.2504693 -0.08051967
000010 98 9a 95 be a4 65 04 be 05 ed 30 be ce b2 74 be
       -0.29219508 -0.12929398 -0.17277916 -0.23896334
000020 f7 5a 56 bd 6a 97 77 bc 39 a5 8f be c0 93 58 3e
       -0.052332845 -0.0151117835 -0.28055742 0.21150112
000030 b4 5a 09 be 5b 07 66 be fd f1 23 3e 5e a6 18 3e
       -0.13413507 -0.22463743 0.1601028 0.14907214
000040 ec da 15 3e 7e 87 93 3d d6 9e 7a 3d 37 fe eb bd
       0.14634293 0.072035775 0.061186634 -0.11523097
000050 98 2e 99 bd 75 b5 64 3e a5 55 03 be ca a6 0a be
       -0.0747959 0.22334845 -0.1282564 -0.13540187
000060 02 75 96 be 2f 59 86 3e 48 7e 41 be bb 39 5b be
       -0.29386145 0.26239917 -0.18895829 -0.21408741
000070 12 36 1e 3e 47 91 ba bd d1 8a f1 3d 34 a5 8f 3e
       0.15450314 -0.09109741 0.11794055 0.28055727
000080 9d c5 2b be 2a 54 ce bc b0 b3 16 be 8a a9 6f be
       -0.16774602 -0.025186617 -0.14716983 -0.23404518
000090 76 95 3b be 7e 47 8c bd 00 c3 6b be a6 a2 85 bd
       -0.18318734 -0.068495736 -0.23023605 -0.06525163
0000a0 a2 f5 2a 3e 05 6c 38 3e 51 e7 2d 3e 52 f4 e3 3c
       0.16695264 0.18009956 0.16982771 0.027826462
0000b0 5b ee a1 3e fc 24 84 be d1 dd cd 3b f1 e8 29 3e
       0.31627163 -0.25809467 0.006282546 0.16592766
0000c0 d0 cf 17 be af 2a 9c 3e e8 79 74 be 41 7f 5b bb
       -0.14825368 0.30501315 -0.23874629 -0.0033492597
0000d0 36 7e d5 3d 32 a1 a5 be ad 1d 48 3e d8 08 53 bd
       0.104244635 -0.32349545 0.1954257 -0.051522106
0000e0 2c c8 77 3e a9 94 47 be 37 9f 98 be 43 35 10 be
       0.24197453 -0.19490303 -0.2980897 -0.14082818
0000f0 91 62 3c be 70 dd 95 be 73 02 bc bc a0 c2 93 3e
       -0.18396975 -0.29270506 -0.022950387 0.28859425

bn2.weight f4 [64]
000000 6b 22 80 3f 77 9d 7a 3f 47 02 81 3f fd 06 67 3f
       1.0010504 0.9789652 1.007882 0.9024504
000010 91 85 65 3f 7d af 65 3f ce 37 60 3f 51 17 49 3f
       0.8965693 0.897209 0.8758515 0.78551203
000020 3d 1f a2 3f 23 05 45 3f fa 8f 74 3f cb 5e 6f 3f
       1.2665783 0.76960963 0.9553219 0.9350402
000030 e0 a2 58 3f 4a 46 58 3f 5d e8 43 3f 23 50 60 3f
       0.8462353 0.8448225 0.76526433 0.8762228
000040 77 28 9d 3f 5e 2d 74 3f 86 fb 85 3f 0a 07 6e 3f
       1.2277974 0.95381725 1.0467384 0.9297949
000050 d2 e6 60 3f fc 99 83 3f c4 f7 4e 3f 8a cb 94 3f
       0.87852204 1.0281367 0.8084681 1.1624615
000060 be 8b 71 3f cc 2a 89 3f e4 ac 6f 3f eb 67 45 3f
       0.94353855 1.0716186 0.93623185 0.7711169
000070 75 17 5c 3f 50 cd 73 3f ab 4d 71 3f 49 4c 8a 3f
       0.8597329 0.95235157 0.94259137 1.080453
000080 ec 5b 7c 3f 23 c2 77 3f df 41 73 3f 86 9e 4b 3f
       0.9857776 0.96780604 0.95022386 0.7953876
000090 03 d4 8d 3f 5f 89 68 3f a7 3b 9d 3f 2b 78 5b 3f
       1.1080326 0.9083461 1.228383 0.85730237
0000a0 59 53 8d 3f d1 5d 82 3f b0 6b 8b 3f d0 a3 8c 3f
       1.1041061 1.018488 1.0892239 1.0987492
0000b0 e1 c3 90 3f dd 9a 63 3f 1a f9 8d 3f 8b 1d 5c 3f
       1.1309777 0.8890818 1.1091645 0.8598258
0000c0 f7 71 96 3f 7b 68 a7 3f 8b 17 96 3f 16 2c 5c 3f
       1.1753529 1.307876 1.1725935 0.8600477
0000d0 04 26 86 3f 52 42 5e 3f 65 68 8d 3f 35 32 86 3f
       1.0480351 0.86819947 1.1047484 1.0484072
0000e0 ef 47 87 3f 41 ca 75 3f 2e 19 7b 3f e7 6a 4a 3f
       1.0568827 0.9601174 0.98085296 0.7906937
0000f0 38 4e 84 3f 1b c4 53 3f 98 28 5f 3f 0a 53 63 3f
       1.033637 0.8272111 0.87171316 0.8879858

bn2.bias f4 [64]
000000 0e d2 7e bd c8 43 d5 bd ce f5 9a bc 0c c8 b0 bd
       -0.062212043 -0.10413319 -0.018916037 -0.08631906
000010 8a 6b b0 bd 0b f3 7a bd 90 e2 f2 bc 89 4f e6 bd
       -0.086142614 -0.06126694 -0.029649049 -0.11245639
000020 40 48 0a 3e 6b 02 08 be 71 ea ad bd 3b a1 4d bc
       0.13504124 -0.13282172 -0.08491982 -0.012550647
000030 df 77 17 be c8 0e 2b be 6d ae 5d be 27 0d 46 be
       -0.14791821 -0.16704857 -0.2164857 -0.19340955
000040 de d1 c0 3e 06 fd a0 bd 5d 60 06 3e 5e a6 d8 bb
       0.37660116 -0.078607604 0.13122697 -0.0066116294
000050 2a 61 c7 bd c7 62 a5 bd 21 6f d5 bd 41 66 bd 3d
       -0.097353294 -0.08075481 -0.10421587 0.09248019
000060 86 30 95 bd 78 e7 81 3d fa a2 4c bd 7b b3 49 be
       -0.07284646 0.06342977 -0.049960114 -0.19697373
000070 81 6d d4 bd 23 06 20 bd 88 81 8a bd 8c 08 1c 3d
       -0.10372449 -0.039068352 -0.067629874 0.03809409
000080 96 54 36 3b c1 13 38 be 10 f3 9a 3d 4c 73 23 be
       0.0027821413 -0.17976286 0.07565892 -0.15961951
000090 a6 08 8f 3d 91 51 e9 bc 03 29 aa 3d 74 42 45 bc
       0.069840714 -0.028481277 0.083086036 -0.012039769
0000a0 35 2a 70 bc c1 7d 62 3e 74 d2 ed bd 60 da 40 3e
       -0.0146585 0.22118284 -0.116124064 0.18833303
0000b0 da 0f f7 bc 18 94 80 bd 28 69 77 3b bd 04 9b bd
       -0.030158926 -0.06278247 0.0037751887 -0.07569263
0000c0 68 dd a1 bd e5 fe 09 3e c2 a1 86 bd 55 49 1e be
       -0.07903558 0.13476141 -0.065738216 -0.15457661
0000d0 fc b9 89 3d de 61 2c be ee df 06 bd 38 e5 b4 3d
       0.06724927 -0.16834208 -0.0329284 0.088327825
0000e0 5c 9e 92 bd 9d 76 dc bd 2b e2 24 be 2a 7b 34 be
       -0.07159111 -0.10764811 -0.16101901 -0.17625108
0000f0 56 75 55 bd 56 da 07 be 8e af 0e be fd ba 3c be
       -0.052113853 -0.13266882 -0.13934156 -0.18430705

bn2.running_mean f4 [64]
000000 df 39 08 3e dd 25 ca 3e 10 ae b8 be 71 03 01 3e
       0.13303326 0.39482012 -0.360703 0.12598969
000010 57 fd b4 bd 56 30 05 3e 80 39 db be 04 d8 0e bf
       -0.08837383 0.1300672 -0.42817307 -0.55798364
000020 b6 3e b5 be dc 64 f3 3d 5d cf b8 be f6 7c af 3e
       -0.35399407 0.11884472 -0.36095706 0.34275025
000030 47 a7 6e be 9f 78 7c be a6 f7 0e 3c 37 b8 8f 3e
       -0.23305999 -0.24655388 0.008726036 0.28070232
000040 83 1b 30 3e b9 d2 87 be 84 be 32 3e fa fc b4 3c
       0.17197995 -0.26527956 0.17455488 0.022093285
000050 6e 87 0a be 2c 32 17 3e 89 44 a3 be 00 37 91 be
       -0.13528225 0.14765233 -0.31888226 -0.28362274
000060 5c 26 f0 be 6b 79 ce 3e bf a4 43 be 2d b9 2d 3e
       -0.46904266 0.4032701 -0.19105814 0.1696517
000070 7f 70 89 bd d3 a3 5c be 7f 5a db 3e 69 d0 9e 3d
       -0.0671091 -0.21546869 0.4284248 0.07754595
000080 d5 57 59 be 4e f5 79 3e 9f c8 06 be cb fd aa 3d
       -0.21224912 0.24409983 -0.13162468 0.083491884
000090 eb 10 bc bd 51 5d 5e be c4 c5 e0 bd 9a 42 f4 3c
       -0.09182914 -0.21715285 -0.10975221 0.029816914
0000a0 81 c5 41 3e 6c 92 e8 bd 49 92 67 3d 64 ef 23 bd
       0.18922998 -0.11356053 0.056535993 -0.040023223
0000b0 34 49 bd 3e 36 ed ca be d4 7f 01 be 2c 24 3b 3e
       0.36969912 -0.39634103 -0.12646419 0.18275517
0000c0 3e 18 15 be eb 8c 3b 3e ee 38 89 be 5e 3f b5 bd
       -0.14560029 0.18315475 -0.26801246 -0.08849977
0000d0 bf eb ed 3d 39 7e dd be 97 3f 43 3e fa 41 4c be
       0.116172306 -0.43260363 0.19067226 -0.19947043
0000e0 85 ca 93 3e 8d db 42 bd 20 dd 60 be 0b fc c9 be
       0.28865448 -0.04757266 -0.21959352 -0.39450106
0000f0 f9 98 a3 be 1c 3e 45 be 7b a0 e1 3c 6c 5b bf 3e
       -0.31952646 -0.19261974 0.027542343 0.37374437

bn2.running_var f4 [64]
000000 ad 05 d2 3d 9a a4 a7 3c b1 76 e6 3d ec e3 36 3e
       0.10254989 0.02046423 0.11253107 0.17860383
000010 7c 51 cf 3d b7 a1 6e 3d 62 7d 25 3f f0 ab c3 3e
       0.10122964 0.058259692 0.64644444 0.38217115
000020 bd 49 00 3e e9 e8 dd 3c 1d 0d 68 3d d8 32 12 3e
       0.12528129 0.0270886 0.05665313 0.14277208
000030 f1 96 6c 3d d0 14 e8 3d 81 f3 4d 3e 44 83 c8 3d
       0.057761136 0.11332095 0.2011242 0.09790662
000040 e2 37 b9 3b d0 73 18 3e 89 07 e6 3c 68 7e c7 3d
       0.0056524137 0.14887929 0.028079765 0.09740907
000050 78 c1 43 3e 86 80 25 3d dc 05 4f 3e 21 2a 30 3d
       0.19116771 0.040405773 0.20217079 0.043008927
000060 d1 00 9d 3d eb 7f 83 3c bd f8 b9 3c 56 74 71 3e
       0.07666171 0.016052207 0.022701615 0.23579535
000070 ae 28 bb 3e 7d 69 40 3e b5 69 cd 3d 44 9f 83 3d
       0.36554474 0.1879024 0.10029928 0.06426862
000080 91 f3 03 3d 21 7d a3 3d 8b 45 2a 3d a7 0c 9d 3e
       0.032214705 0.07982851 0.041570228 0.30673715
000090 eb c0 46 3c 8e 4b 29 3e c5 c6 6a 3c 83 bf f3 3c
       0.012130956 0.16532728 0.014329617 0.029754406
0000a0 2e b0 10 3c c5 5d d3 3d 4a 32 f8 3b c5 1f c1 3c
       0.008831067 0.103206195 0.0075743543 0.02357472
0000b0 42 77 e0 3b 2f 00 48 3e 9a 49 e7 3c b4 2c 2d 3d
       0.006850154 0.1953132 0.028233338 0.04227896
0000c0 c9 f4 27 3b 98 c6 32 3d 62 cb 5a 3c bd 51 a3 3e
       0.002562808 0.043646425 0.013354154 0.318983
0000d0 76 0c c6 3b 86 6a 68 3c 03 b0 73 3c 1e e6 8c 3d
       0.006043966 0.014185553 0.014873507 0.06879829
0000e0 e2 e1 6b 3b ee 0f c8 3d db b4 94 3c fd 65 5a 3e
       0.003599279 0.09768663 0.018152645 0.21327968
0000f0 28 c7 05 3e 2c 59 74 3e f8 00 02 3e 70 7a d3 3b
       0.13064253 0.23862141 0.12695682 0.0064538047

conv3.weight f4 [64, 64, 1, 1]
000000 ec e7 ce 3d 4b 4a a8 bd 27 fd 27 3c 6c d6 fc bd
       0.10102829 -0.08217295 0.010253227 -0.12345585
000010 54 32 d0 3d 42 1d 5d bd 0c 58 46 bd 39 d5 b0 bc
       0.10165849 -0.05398298 -0.04842381 -0.021586047
000020 24 8a 6a bd 6f 07 81 3d b7 a2 12 be 0e 45 4f be
       -0.057260647 0.06300246 -0.14319883 -0.20241186
000030 c7 14 24 3d 34 15 b7 bd e8 cb e3 bd 7a 6e 07 bd
       0.040058877 -0.08939591 -0.111228764 -0.033064343
000040 7c 82 01 be 12 33 3f 3d e4 c5 85 3e 50 8e f0 bd
       -0.12647432 0.046679564 0.2612754 -0.11745894
000050 66 e0 19 bd 3a 71 3a bd 5b 5d b9 3d 9a 1b fa 3d
       -0.03756752 -0.045518138 0.09051009 0.12212296
000060 af 21 81 bd d1 25 ee 3d 5a 4c 04 3d 4d d7 d5 3c
       -0.06305253 0.11628307 0.032299377 0.02610364
000070 5f fa 3c 3d dd 6c 04 3e 61 de f2 3d cd a0 01 be
       0.04613721 0.12932153 0.11858822 -0.12658997
000080 32 53 28 3d 4a c1 28 3d 3f 64 3d 3e 98 e5 bb 3c
       0.041094966 0.04119996 0.18495272 0.022936627
000090 f8 c4 9f 3c 42 bc 18 3e 77 94 f0 3c f9 3a da bb
       0.019503102 0.14915565 0.029367669 -0.006659862
0000a0 90 6d a0 3d 82 d2 ba bd 0a 8b 01 be e4 59 32 3e
       0.078333974 -0.091221824 -0.12650695 0.17417103
0000b0 cc a5 cc bc 5a 90 4e 3d d5 21 0e bd e6 73 db 3c
       -0.024981402 0.050430633 -0.034700233 0.026788663
0000c0 33 2f ba be a1 51 63 3d 88 ed fd 3d 6e d8 b7 3d
       -0.36364135 0.05549777 0.12398821 0.089768276
0000d0 83 73 78 bd d9 8b e5 3d 44 cd d6 3d 42 48 db bd
       -0.060657036 0.112083144 0.1048837 -0.107071415
0000e0 73 16 33 bd 6e 41 3c bd 17 74 b7 bd c3 e2 85 3d
       -0.04372258 -0.045960836 -0.08957689 0.06537392
0000f0 0f 89 f3 bc 72 3c bc bd bd 1f 97 3d eb 24 31 3e
       -0.02972844 -0.091912165 0.073791005 0.1729924
000100 51 18 17 bd 16 99 09 3b 28 58 cb 3d 6c cb 2f bc
       -0.036888424 0.0020995787 0.09928924 -0.010729652
000110 eb 73 1c 3e 2d 1e b4 bd b8 1b 3a 3c e0 c3 5a 3d
       0.15278594 -0.08794818 0.011359148 0.053409457
000120 8c ae 57 3e 1d 03 a3 bd 8b 20 1f 3e 6c d2 2b 3e
       0.21062678 -0.07959578 0.15539758 0.16779488
000130 5b 41 cf 3c 11 bd 1f bd eb 61 3f 3d d0 ad 82 bd
       0.025299719 -0.038998667 0.04672424 -0.06380808
000140 7c 5c b7 bd 3f bb 17 be ef b2 d6 3d 12 cf b1 bc
       -0.08953187 -0.14817522 0.104833476 -0.021705184
000150 f1 a7 13 be 4d 29 59 be ca 49 15 3e 93 0d d7 3d
       -0.14419533 -0.21207161 0.1457893 0.10500636
000160 4c ef df bc 55 af bf bd 2e 9c 64 3d 72 9a 12 3d
       -0.027335785 -0.09359614 0.055813007 0.03579182
000170 3c bc 8d 3d 40 86 fd bd b1 d1 0d 3d ca 72 db bd
       0.069206685 -0.12379122 0.034623805 -0.10715254
000180 28 ea ac bc 42 82 13 be e0 7b cc 3d 78 fb ff bd
       -0.021107748 -0.14405158 0.09984565 -0.12499136
000190 8f 74 4e bd dd 3d 22 3e ea e3 34 3d af 66 f0 3d
       -0.050404128 0.15843911 0.04416267 0.11738335
0001a0 ff 6c ef 3c 4c 6c a6 3d 0b 2e 11 bd a5 b2 51 3e
       0.029226778 0.08126125 -0.0354443 0.20478304
0001b0 d9 5e 97 3e 51 21 74 bd 5d fa b3 3d a7 aa dc bd
       0.2956455 -0.059602086 0.087879874 -0.10774737
0001c0 56 dc 3a bd 5c 34 91 be a2 4d d0 bd e5 d1 5c 3d
       -0.045620285 -0.2836026 -0.10171057 0.05391111
0001d0 4b fb 95 3d 02 27 6f bb 6c ba f7 bd 93 88 d2 be
       0.07323321 -0.0036491756 -0.12096104 -0.41119823
0001e0 33 ab ed bd a8 1c 3d 3e e5 14 a5 bd da b5 02 bd
       -0.11604919 0.18467963 -0.08060626 -0.03191171
0001f0 22 56 ca 3d e5 59 cf bb 16 bb f3 3d 95 46 42 3d
       0.0987971 -0.006327855 0.11900918 0.047430594
000200 d5 89 fc 3c f6 f4 03 be 49 71 d9 bb ad be 09 be
       0.030827442 -0.12886414 -0.006635819 -0.13451643
000210 b2 e6 2b bc 43 ab ac 3d 20 53 3b be f3 40 f2 39
       -0.010492014 0.08431103 -0.18293428 0.00046206228
000220 e1 d8 ca 3d 03 a3 19 3d a0 59 4d bd e1 69 2f 3e
       0.099046476 0.037508976 -0.0501343 0.17130233
000230 27 6d 79 3d d1 e0 dd bc 47 3c a7 bb c4 f3 09 bd
       0.06089511 -0.02708474 -0.005103621 -0.03367974
000240 cc 6f 8d 3d 2d 62 87 bd 18 ab c4 3d fb de 8e bc
       0.06906089 -0.066105224 0.09602946 -0.01744031
000250 c3 af de bd 19 be f1 bd 8d 8d c7 3c c1 cf 3e be
       -0.10873368 -0.118038364 0.024359489 -0.1863394
000260 65 6b ed 3c 29 63 88 bb 59 26 0e 3e 1e 6e 2a be
       0.028981874 -0.0041622114 0.13881816 -0.16643569
000270 33 53 d0 3d 4f e3 8f 3d d6 60 32 3e db f2 db bd
       0.10172119 0.070257775 0.17419752 -0.107396804
000280 ca da ac bd f4 35 89 3d ec 06 c5 3b e4 6b da 3d
       -0.08440168 0.06699744 0.006012788 0.1066511
000290 c1 fe 7b 3d 2b 2e e9 3d 00 ec 79 3e 9f de 5a 3d
       0.06152225 0.11385759 0.24406433 0.053434964
0002a0 da b5 f5 3d d1 bf 44 be 69 03 00 be ba 76 75 bd
       0.11997576 -0.19213797 -0.12501301 -0.05992768
0002b0 ac 1d 6f 3e 7c 6c 8e bc 65 60 39 3d 7d 0e 06 be
       0.23351163 -0.017385714 0.045257945 -0.13091464
0002c0 65 ff 99 be 59 be d3 bb 61 4f 2b be d6 84 ff 3b
       -0.30077663 -0.0064619 -0.167295 0.0077978177
0002d0 92 ff 4a 3d 78 2f 2c 3e 38 a3 2a 3e 0f 7a b2 3d
       0.049560137 0.16814983 0.16663826 0.08714687
0002e0 63 fd f6 bd e4 89 02 3e 89 1f bf 3d 18 06 dd bd
       -0.120600484 0.12747914 0.09332187 -0.10792178
0002f0 25 7e f8 bd 16 23 b9 bc 7e 1a a4 3d cf 01 8d bc
       -0.12133435 -0.022599738 0.080128655 -0.017212776
000300 cb a8 2e 3e b2 db b8 bd 02 9f 7b 3e 6b f2 0d 3e
       0.17056577 -0.090262786 0.24572375 0.13862006
000310 3c 21 7c 3e 2b df c6 3d 63 a8 b2 3d 99 d3 bc bd
       0.24622053 0.09710535 0.087235235 -0.092200466
000320 41 47 41 3d 33 8a df bc 42 34 e1 bc 50 94 03 3d
       0.047187094 -0.027287578 -0.027490739 0.032123864
000330 fe 52 5c 3d 8f 08 58 3e 30 eb 66 bd 94 cb 02 3e
       0.053790085 0.21097015 -0.056376636 0.12772971
000340 ca 99 56 3d 0e ef 02 3e 9a 6b 11 3e 54 e6 01 3e
       0.05239276 0.12786505 0.14201203 0.1268552
000350 06 f1 08 3e 1d 83 22 bc f8 ce a7 bd 1c 51 76 be
       0.13373193 -0.009918955 -0.08193773 -0.24054378
000360 82 a8 21 3e b4 fd f9 3a d5 14 97 3c a6 70 6f bd
       0.15786937 0.0019072802 0.01844255 -0.05845704
000370 38 54 c6 bd 04 a8 85 bd 94 67 2b 3e 86 59 42 3e
       -0.09684032 -0.06526187 0.1673873 0.18979463
000380 4a 36 d2 bb e4 40 b7 3d c5 7c 43 be 58 53 b4 3d
       -0.006415163 0.08947924 -0.19090565 0.08804959
000390 80 de 1c bd 61 f0 d9 bd 7d 97 6e 3e c1 1c 13 be
       -0.03829813 -0.10641552 0.23299976 -0.14366437
0003a0 bc 40 1c 3e 29 d8 2c bd 6e 74 55 3e 73 9c 0d be
       0.15259069 -0.042198334 0.20845196 -0.13829212
0003b0 b8 63 e4 bd 47 d5 43 3e 8c e5 9d 3d 05 c5 e1 3d
       -0.11151832 0.19124328 0.07709798 0.110239066
0003c0 32 7b 91 be 49 92 51 3d 02 dc 53 3e 55 1a f2 3d
       -0.28414303 0.0511649 0.20689395 0.11821429
0003d0 e7 2a 99 bd c2 91 0e 3d 19 da 27 bd 9e cc 20 bd
       -0.07478886 0.034806974 -0.04097948 -0.03925764
0003e0 75 b5 a9 3c d3 de c3 bd c4 05 80 3c 67 1e 50 bd
       0.020716408 -0.09563985 0.01562775 -0.050810244
0003f0 e8 1a 6c 3d 26 b9 80 3c 72 72 f2 3d c1 17 8d 3d
       0.057642847 0.015713286 0.11838235 0.06889296

conv3.bias f4 [64]
000000 42 c1 9b bd cf bd 5d 3d b9 a4 7b 3d e3 b3 b1 bd
       -0.076052204 0.054136094 0.06143639 -0.08676889
000010 e4 61 a1 3d 25 88 26 3e 85 69 89 3d db 8e 6a 3d
       0.07879999 0.16262873 0.067095794 0.057265144
000020 73 59 9b bd e5 0f 9d 3c 30 f2 07 bc 08 90 32 bc
       -0.075854205 0.019172618 -0.008297488 -0.010898598
000030 67 a5 d4 bd ff fa 41 3d d4 8f ba ba ed cf a0 bc
       -0.103831105 0.04735851 -0.0014233538 -0.019630397
000040 58 34 85 bd 1d 80 0a 3e d4 bb 02 3d 22 20 45 bd
       -0.065041244 0.13525434 0.031917408 -0.048126347
000050 fe ae ee bc 57 66 cf bc 89 ec 8d bd 93 cf fa bd
       -0.029136177 -0.025317354 -0.06929881 -0.12246623
000060 6d 79 89 bd 58 21 c3 3b a1 1c c6 3d 33 6d 56 3d
       -0.06712613 0.0059549026 0.09673429 0.052350234
000070 07 59 ef 3c 6d 15 69 3b 26 80 c0 3d 70 f1 24 3c
       0.029217256 0.003556575 0.093994424 0.010067329
000080 59 47 bd 3d c2 13 91 3d a4 6b c5 bd 8d a4 be 3d
       0.09242124 0.07083847 -0.096396714 0.09308729
000090 58 d3 2d 3d 72 5b 9c bd 6f 9f 0b 3e 55 4a ef 3d
       0.04243788 -0.07634629 0.13635038 0.116840996
0000a0 da 3a 92 bd 41 e2 f0 3d 62 cf 1a bd 7e 88 af bd
       -0.07140131 0.117619045 -0.037795432 -0.08570956
0000b0 d6 7f 45 ba eb aa 04 bd 3f 7e 89 3d 07 84 2b bd
       -0.00075340027 -0.032389563 0.06713533 -0.041873958
0000c0 79 cb b8 3c be c6 90 39 0c 6c 7b 3c 97 f8 5f 3c
       0.02255796 0.00027613895 0.015345585 0.013670108
0000d0 e5 ee 80 3d d5 1e 8d 3c d9 52 9f 3c ef 2b 93 3d
       0.062955655 0.017226616 0.019448685 0.07186114
0000e0 a6 7b 88 3c 7a a2 56 3d 84 41 a8 3d 72 63 e8 bd
       0.016660523 0.052401043 0.08215621 -0.11347093
0000f0 11 1a 9e 3c b8 72 9e bd 45 0c 0c 3e ef 0c 89 bd
       0.019299539 -0.077367246 0.13676555 -0.0669192

bn3.weight f4 [64]
000000 8e 26 75 3f f1 89 60 3f b2 53 85 3f 5a 4a 5b 3f
       0.95761955 0.8771048 1.0416167 0.85660326
000010 f2 3b 89 3f 96 a8 86 3f 32 a9 68 3f 85 be 7e 3f
       1.0721419 1.0520198 0.9088317 0.9950946
000020 83 4e 59 3f 99 e0 8d 3f e2 39 7c 3f 02 d2 78 3f
       0.84885424 1.1084167 0.9852582 0.97195446
000030 5b 8a 95 3f 02 bc 75 3f f9 7e 90 3f 74 ef 95 3f
       1.1682848 0.9599 1.1288749 1.17137
000040 87 cb 91 3f ae 4c 92 3f 0e da 80 3f 48 15 79 3f
       1.1390237 1.1429651 1.0066545 0.972981
000050 b9 4a 75 3f 32 9c 66 3f 3b 6a 93 3f d8 58 94 3f
       0.9581714 0.90082085 1.1516794 1.1589613
000060 dc cf 96 3f 0a ae 70 3f c0 3c a3 3f d5 2a 88 3f
       1.1782184 0.9401556 1.2752914 1.0638071
000070 f8 ec 4c 3f f4 78 6e 3f 77 a1 a5 3f 28 af 71 3f
       0.80049086 0.9315331 1.29399 0.9440789
000080 67 64 97 3f fe 4d 7b 3f 38 62 77 3f dc e2 8f 3f
       1.1827515 0.9816588 0.96634245 1.1241107
000090 51 48 82 3f 29 08 60 3f 99 e5 9a 3f d6 cb a1 3f
       1.0178319 0.8751245 1.2101318 1.2640331
0000a0 65 75 81 3f 9a 00 8d 3f b5 6d 95 3f bf ec 93 3f
       1.0113951 1.1015809 1.1674105 1.1556624
0000b0 78 0c 71 3f a5 7c 93 3f a8 d9 93 3f ec 06 5e 3f
       0.9415965 1.1522413 1.1550798 0.8672931
0000c0 0f b2 8f 3f 85 ed 8b 3f fb 25 83 3f d3 e4 55 3f
       1.1226214 1.093186 1.0245966 0.83552283
0000d0 e0 78 7c 3f 54 67 9c 3f dc 29 69 3f 3d c2 9b 3f
       0.9862194 1.2219033 0.910795 1.2168652
0000e0 04 0e 47 3f d8 71 81 3f c7 09 6c 3f 23 1e 91 3f
       0.7775576 1.0112867 0.9220242 1.1337322
0000f0 68 fe 8c 3f 01 df 90 3f 19 9b 91 3f a7 8d 8d 3f
       1.1015139 1.1318055 1.1375457 1.1058854

bn3.bias f4 [64]
000000 bb 17 98 bd 2d 9e 2a be e0 cd 87 3d 5a 4c 45 be
       -0.07426401 -0.16661902 0.066310644 -0.19267407
000010 04 85 99 bd 6b 4e 1e 3c 94 64 12 be 24 8f 07 bd
       -0.07496074 0.009662251 -0.1429618 -0.033095494
000020 2e 28 34 be af a0 26 bd ba 0f f0 bd 74 a2 e0 3d
       -0.17593452 -0.040680584 -0.117217496 0.109684855
000030 69 08 4b 3c 01 c9 ef 3d ad 63 ac bd 35 a8 5f 3c
       0.012392142 0.1170826 -0.08417449 0.0136509435
000040 9d d5 17 bc 07 e1 65 bd 73 a6 c8 3d 5f b3 bb bd
       -0.009267238 -0.056122806 0.09797373 -0.09165072
000050 f6 b5 f2 3d 88 55 06 3e 6e 42 10 bc 9e 1e 4f bd
       0.118511125 0.13118565 -0.008804901 -0.05056631
000060 05 6d 96 bc 23 03 f8 bd 51 25 46 3b bd 8d 76 bd
       -0.018362531 -0.12109973 0.0030234645 -0.060193766
000070 3c 1b 63 be c9 d2 f4 bd 1e d4 37 bb 4d 1a 00 3e
       -0.22178358 -0.119542666 -0.0028050016 0.12510033
000080 62 1f 23 3c 0b 56 01 be a0 a3 e4 3d 81 65 a5 3d
       0.009956213 -0.12630479 0.111640215 0.08076001
000090 9c 71 0f be 22 04 1f be c3 51 fb 3c 95 ad bd bc
       -0.14008182 -0.1552892 0.030678635 -0.02315406
0000a0 e1 7f ab 3d aa a9 c5 bd 6d 46 55 bd 76 ba 5f 3c
       0.08374 -0.096515015 -0.052069116 0.013655296
0000b0 c0 25 08 be fb a9 e3 bc 3a a2 61 bd fe f9 4e be
       -0.1329565 -0.027791014 -0.055086352 -0.20212552
0000c0 d6 7b 86 bd a6 21 94 3d bb 65 18 be f7 3d 59 be
       -0.065665886 0.072329804 -0.14882557 -0.21215044
0000d0 a4 d4 cd bd a1 12 30 bd 63 50 23 be 47 74 2b bd
       -0.100503236 -0.042986516 -0.15948634 -0.041858938
0000e0 f4 ac 5d be 33 5c 64 bd 7a 46 e5 bd 4e 03 8a 3d
       -0.21648008 -0.05575199 -0.11195083 0.067389116
0000f0 bf 87 28 3c 38 d0 a3 3b 08 87 82 3d c8 8a 8c bd
       0.010286271 0.004999187 0.063734114 -0.06862408

bn3.running_mean f4 [64]
000000 7b 7a 98 bb 8f 96 c2 3d 61 2b 37 3e c4 80 24 3f
       -0.0046532727 0.09501373 0.17887641 0.6425898
000010 a4 89 63 be b8 8b 3b 3c e4 8b d6 bc 23 75 ee be
       -0.22220474 0.011446886 -0.026189752 -0.46573743
000020 9c 70 00 bf 0a b1 f3 be 21 8d 43 3e 8b 5d 77 bd
       -0.5017183 -0.47596008 0.19096805 -0.060391944
000030 14 cb fd be 38 ad 4d be 39 43 f4 bd 9c cf d0 be
       -0.49569 -0.20085609 -0.11926884 -0.40783393
000040 ac af f2 bd 11 18 92 3e 4b b0 1f be ff f5 20 3d
       -0.11849913 0.28533986 -0.15594594 0.0392971
000050 eb a3 29 bf a7 c2 95 be ee ce ff bd b1 54 37 be
       -0.66265744 -0.2925007 -0.124906406 -0.17903401
000060 29 44 c2 be 51 a5 0c bf fd d7 10 bf 72 0b 9b 3e
       -0.37942627 -0.5493975 -0.5657957 0.3028217
000070 72 74 8b 3d c0 a6 51 3d c5 c1 53 3e 33 b2 ba be
       0.068093196 0.051184416 0.20679386 -0.3646408
000080 b3 84 45 3d aa 8e 8e 3e 2f 40 19 bf b5 79 da 3e
       0.048222255 0.2784322 -0.5986356 0.4267098
000090 ab 00 45 3d 21 0f d3 bc d0 45 8f bc 05 f9 15 3f
       0.04809634 -0.02576405 -0.017489344 0.585831
0000a0 92 23 dc be c5 e0 54 be b7 f6 36 be db 7e ba be
       -0.42995888 -0.20788868 -0.17867552 -0.36424908
0000b0 a8 be e7 be 52 f7 60 3d af a3 16 3f 1e 1c 2d bd
       -0.45262647 0.054923363 0.5884351 -0.042263143
0000c0 07 5c 27 bd 9e 07 04 be b0 8b c3 be eb a7 4d bd
       -0.04085925 -0.1289353 -0.3819251 -0.050208967
0000d0 0c ff d4 3d 0d eb 95 3d 23 52 84 3d 35 04 03 3f
       0.10400209 0.07320223 0.06460979 0.51178294
0000e0 af ae da 3e 78 df bf be 08 92 83 3d 86 82 fb bd
       0.42711398 -0.3747518 0.064243376 -0.12280755
0000f0 c2 7e 34 bd 79 a6 4b be 54 06 2d bf 97 df 15 3f
       -0.0440662 -0.19887723 -0.6758778 0.58544296

bn3.running_var f4 [64]
000000 07 c4 88 3e 46 20 bd 3e db 3e 65 3f 24 19 ec 3e
       0.26712057 0.36938685 0.89549035 0.4611293
000010 b5 15 b8 3e 02 e0 b3 3e 26 74 80 3e 51 9d d4 3e
       0.3595406 0.35131842 0.25088614 0.41526273
000020 82 ef 58 3e b7 15 87 3e cc 8e 8e 3e 23 1d c8 3e
       0.21185115 0.26383755 0.2784332 0.3908473
000030 32 89 1a 3f 05 74 b0 3e 30 4f 9d 3e 60 14 06 3f
       0.60365593 0.34463516 0.30724478 0.5237484
000040 5e 12 88 3e 2e fe 87 3e 1e c3 92 3e df 35 f7 3e
       0.26576513 0.2656111 0.28664488 0.48283288
000050 7c 68 cb 3e 89 20 9a 3e 96 49 bb 3e 2e 08 d5 3e
       0.39728153 0.30102947 0.3657958 0.41607803
000060 f2 ed 90 3e e5 f4 ad 3e cc 64 78 3e 42 d1 e4 3e
       0.28306538 0.33975902 0.24257201 0.446909
000070 3d 9b 6d 3e b7 04 c6 3e 91 c2 7a 3e 88 70 f0 3e
       0.2320375 0.38675472 0.24488284 0.46960855
000080 28 72 3f 3e dd f8 d4 3e 30 2a da 3e 79 a0 5c 3e
       0.18695891 0.41596118 0.42610312 0.2154559
000090 f2 59 cb 3e 73 48 9c 3e 89 1d ef 3e 16 48 ea 3e
       0.3971706 0.30524024 0.4670222 0.45758122
0000a0 77 34 29 3f a6 62 bd 3e 69 b7 d4 3e 1a 16 b9 3e
       0.6609568 0.36989325 0.4154618 0.36149675
0000b0 7c 52 86 3e 02 31 5b 3e bb f0 9e 3e f3 41 02 3f
       0.26234806 0.21405414 0.31043038 0.5088188
0000c0 2a dd a4 3e 18 ff d8 3e c9 72 9d 3e 7c 2d 7e 3e
       0.32199985 0.4238212 0.30751637 0.24822038
0000d0 e0 a3 a6 3e 74 0d ce 3e e7 8a 9a 3e d2 e4 60 3e
       0.32546902 0.4024464 0.301841 0.21962288
0000e0 6c 17 97 3e 04 07 99 3e ad 09 b6 3e 68 67 c7 3e
       0.29510057 0.29888165 0.35554257 0.3894608
0000f0 1a 1c b4 3e 07 9e 5e 3e 15 b7 14 3f c9 ee dc 3e
       0.3517769 0.2173997 0.5809186 0.4315093
