models/trained_models/dscnn_mfcc/model_acc_63.28125.pth (torch_old, 110035 bytes, 56 tensors)

conv1.weight f4 [64, 1, 10, 4]
-0.03584517 -0.15129165 -0.07066932 0.14203174 -0.017407712 0.08581617 -0.06560367 -0.15253514
-0.060301613 -0.11479327 -0.18101878 -0.13530065 -0.13228846 0.005240245 0.042846035 0.081614785
-0.015301159 -0.02773203 -0.0985802 0.113872774 -0.10789857 0.09409598 0.03392132 -0.113002345
0.10575 0.10739998 0.040705476 0.11196912 0.17801338 -0.04074406 -0.030290958 0.03885233
0.14283629 0.11556378 0.05843459 -0.011415657 0.13518457 -0.14332145 0.054980457 -0.040873617
0.10612232 -0.0268742 0.12313495 0.016965326 0.024694163 0.047033243 0.0066751973 -0.086244725
-0.114991665 -0.09323499 0.07913188 0.13857315 -0.07204305 -0.17480117 -0.06334224 -0.07272914
-0.071003154 0.094439186 -0.03433551 0.06985012 -0.14211884 -0.13849494 0.043578032 0.17599225
-0.06573632 0.119903415 0.15276417 -0.08997893 0.08930837 0.14687923 -0.064280935 0.12682879
0.12948234 -0.0279694 0.15077527 0.11621992 -0.100862116 -0.011900484 -0.12936278 0.030090235
0.11877138 -0.10799874 0.11671108 -0.10081928 0.02137781 -0.059896078 -0.10626408 0.08730307
-0.05551371 -0.18124674 0.022180244 0.046342794 0.15704878 -0.23629996 -0.11758588 -0.124914065
-0.14952117 0.021746887 -0.13207063 -0.13956867 0.009075446 0.029741507 0.08647239 -0.043028586
0.0059294365 -0.15368761 -0.15090704 -0.051017597 -0.12211245 -0.1652084 0.07308265 -0.055233553
0.028772626 -0.20570886 0.099002905 -0.052780114 -0.10839428 0.119143456 0.041040666 0.022613987
-0.07553285 -0.12578359 0.05118945 -0.011459647 -0.015038093 0.08877673 0.057294704 -0.116421275
-0.12577069 -0.13149728 0.02587422 0.060881205 -0.09739815 -0.021597534 0.079481 0.14138807
-0.046697594 -0.09471458 0.017861007 -0.050554425 -0.13092841 -0.2543343 -0.0672231 -0.021217963
0.01967255 -0.20293066 0.012809904 -0.048017886 0.085586965 -0.23435822 -0.11553308 -0.095545776
0.05385019 0.04035628 -0.12907276 0.11431482 0.047381237 -0.13588774 0.09151091 -0.1098876
0.050724223 -0.1370597 0.010365921 0.047204286 -0.11102547 0.12916514 -0.1288117 0.036166046
-0.112042524 -0.12549798 0.09006106 -0.0813508 -0.06103908 0.1158374 0.10187297 -0.096730754
0.0540741 -0.013532895 0.030946985 0.15121242 -0.08340359 -0.22797722 -0.12959564 -0.14609946
0.052790027 -0.031616416 0.023999888 0.13641691 0.13904358 -0.18147282 -0.049818832 0.00038705766
-0.10043439 -0.047980193 -0.030389063 -0.008008101 -0.09518938 -0.106233515 -0.12771034 -0.029027969
-0.062102236 0.06822799 -0.004375513 0.17600086 0.08489893 -0.13705379 -0.12026591 0.16193116
-0.03081024 0.115416504 -0.023894453 -0.087407514 0.123779826 0.031388924 0.08050267 -0.025568495
0.0686514 0.0044900617 0.116031475 -0.0021074105 -0.12765451 0.11884347 0.11347902 -0.12831801
0.05298238 -0.0057851844 0.030632915 -0.15597473 -0.0434756 0.18524383 0.060559496 0.12135839
-0.029382734 0.08479327 -0.1264201 -0.09289976 0.10639716 -0.029316122 -0.05562645 -0.07996934
-0.12635021 -0.0036794986 0.17686608 0.07178944 -0.08108985 -0.119329005 -0.009486399 -0.016658656
-0.04091509 -0.1181948 0.12076127 0.019544054 -0.07847775 -0.16519547 -0.032011013 -0.15447044
00000000: 63d2 12bd 33ec 1abe 14bb 90bd c570 113e
00000010: 9e9a 8ebc 63c0 af3d 385b 86bd 2c32 1cbe
00000020: d3fe 76bd bc18 ebbd fd5c 39be 418c 0abe
00000030: a076 07be 5cb6 ab3b 537f 2f3d a725 a73d
00000040: b6b1 7abc 482e e3bc 6ae4 c9bd 2136 e93d
00000050: edf9 dcbd 65b5 c03d 15f1 0a3d c66d e7bd
00000060: 7593 d83d 85f4 db3d c9ba 263d 1150 e53d
00000070: 2449 363e 3ee3 26bd be24 f8bc 9f23 1f3d
00000080: ad43 123e b4ac ec3d 1c59 6f3d bc08 3bbc
00000090: d36d 0a3e dcc2 12be 3033 613d 186b 27bd
000000a0: a956 d93d 4827 dcbc 2d2e fc3d defa 8a3c
000000b0: 6a4b ca3c eea5 403d 9dbb da3b 13a1 b0bd
000000c0: c080 ebbd fdf1 bebd e50f a23d 1fe6 0d3e
000000d0: 4e8b 93bd 14ff 32be 94b9 81bd 04f3 94bd
000000e0: 1a6a 91bd 5569 c13d 64a3 0cbd 940d 8f3d
000000f0: 9a87 11be 9ed1 0dbe e17e 323d 5037 343e
00000100: c4a0 86bd ec8f f53d 366e 1c3e e046 b8bd
00000110: 4fe7 b63d 8267 163e b9a5 83bd 68df 013e
00000120: 0597 043e 1520 e5bc d564 1a3e b604 ee3d
00000130: cc90 cebd 3ffa 42bc ad77 04be cc7f f63c
00000140: 693e f33d 722e ddbd 3806 ef3d 577a cebd
00000150: 8420 af3c 9755 75bd fba0 d9bd f4cb b23d
00000160: 5862 63bd bf98 39be 58b3 b53c f1d1 3d3d
00000170: 65d1 203e 9ef8 71be ded0 f0bd f2d2 ffbd
00000180: 141c 19be 8726 b23c 863d 07be 17eb 0ebe
00000190: 2eb1 143c 76a4 f33c 7018 b13d be3e 30bd
000001a0: b84b c23b 4960 1dbe 6087 1abe d4f7 50bd
000001b0: 1816 fabd 642c 29be 5bac 953d 943c 62bd
000001c0: 92b4 eb3c 58a5 52be 09c2 ca3d f62f 58bd
000001d0: d2fd ddbd 7c01 f43d 421a 283d f840 b93c
000001e0: f8b0 9abd 6acd 00be 07ac 513d 3ec1 3bbc
000001f0: 5562 76bc 93d0 b53d daad 6a3d 476e eebd
00000200: 08ca 00be 39a7 06be 2cf6 d33c 925e 793d
00000210: ae78 c7bd 50ed b0bc efc6 a23d 09c8 103e
00000220: fa45 3fbd b8f9 c1bd 3f51 923c 2812 4fbd
00000230: 1912 06be 1b38 82be 44ac 89bd 4bd1 adbc
00000240: 5428 a13c 0ecd 4fbe a2e0 513c 67ae 44bd
00000250: 3848 af3d 9afb 6fbe 9c9c ecbd 81ad c3bd
00000260: 0492 5c3d a04c 253d a62b 04be e31d ea3d
00000270: d412 423d 2826 0bbe 126a bb3d c00c e1bd
00000280: 34c4 4f3d 6159 0cbe d3d5 293c 4859 413d
00000290: 5261 e3bd de43 043e 37e7 03be d922 143d
000002a0: 8d76 e5bd 8b82 00be ef71 b83d 409b a6bd
000002b0: 1d04 7abd 293c ed3d c7a2 d03d c61a c6bd
000002c0: ce7c 5d3d 13b9 5dbc 8884 fd3c 6ed7 1a3e
000002d0: 80cf aabd dc72 69be b8b4 04be 199b 15be
000002e0: 5b3a 583d 3780 01bd 6a9b c43c e0b0 0b3e
000002f0: 7161 0e3e 03d4 39be d50e 4cbd 00ee ca39
00000300: 8cb0 cdbd e186 44bd 7cf2 f8bc 6934 03bc
00000310: a6f2 c2bd f590 d9bd 80c6 02be 10cc edbc
00000320: ea5e 7ebd 1ebb 8b3d 7760 8fbb 9239 343e
00000330: 7ddf ad3d d457 0cbe f94d f6bd 48d1 253e
00000340: c265 fcbc 7d5f ec3d 4dbe c3bc b602 b3bd
00000350: 4780 fd3d ac91 003d 95de a43d 0575 d1bc
00000360: 1b99 8c3d 5e21 933b e9a1 ed3d 7b1c 0abb
00000370: ddb7 02be 3564 f33d b067 e83d cc65 03be
00000380: 0d04 593d a591 bdbb e1f1 fa3c d7b7 1fbe
00000390: 7913 32bd 8fb0 3d3e 3c0d 783d bf8a f83d
000003a0: 0fb4 f0bc 18a8 ad3d 4574 01be 3b42 bebd
000003b0: c1e6 d93d 5d28 f0bc 8fd8 63bd f7c6 a3bd
000003c0: f361 01be be23 71bb 621c 353e 5806 933d
000003d0: 6f12 a6bd c462 f4bd d76c 1bbc bc77 88bc
000003e0: 9596 27bd 1e10 f2bd af51 f73d da1a a03c
000003f0: f1b8 a0bd 0029 29be fb1d 03bd 802d 1ebe

conv1.bias f4 [64]
0.078947596 0.059853796 0.11564032 -0.024019081 -0.07013565 -0.10134044 -0.15624456 0.005122128
0.04535809 -0.093315825 -0.01880695 -0.014069273 0.014116583 0.14196272 -0.08580347 0.10838702
-0.100541405 -0.007175339 -0.15187842 0.073676795 0.052445322 0.0022824886 -0.048756465 0.005864482
0.1393158 -0.12801178 -0.05717998 0.02353852 0.013967719 -0.007203321 -0.15228452 -0.14950868
-0.052112825 -0.054719646 0.1293678 0.04741177 0.056127656 -0.12767178 0.020071447 -0.047349785
-0.07709127 -0.078926876 -0.09669381 0.13415807 0.10937337 0.034996334 -0.066644646 -0.14137495
-0.13501528 0.0034641824 0.007869347 0.14266434 0.07924783 -0.026809419 -0.15233813 -0.01664079
0.102278374 -0.096258394 -0.02443495 0.07766746 -0.04051894 0.09098617 -0.13819602 0.018741287
00000000: 47af a13d 4129 753d d5d4 ec3d aac3 c4bc
00000010: 48a3 8fbd 948b cfbd 93fe 1fbe 86d7 a73b
00000020: 68c9 393d 5e1c bfbd 0811 9abc cf82 66bc
00000030: 3e49 673c ad5e 113e bbb9 afbd 04fa dd3d
00000040: a7e8 cdbd 1b1f ebbb 0486 1bbe dce3 963d
00000050: e8d0 563d ce95 153b dcb4 47bd d72a c03b
00000060: cda8 0e3e 8515 03be 8e35 6abd dbd3 c03c
00000070: dcd8 643c d609 ecbb 79f0 1bbe ce18 19be
00000080: 4274 55bd b521 60bd fe78 043e d832 423d
00000090: 1de6 653d 64bc 02be e06c a43c d9f1 41bd
000000a0: 07e2 9dbd 6aa4 a1bd 6707 c6bd bc60 093e
000000b0: 25ff df3d 5158 0f3d fd7c 88bd 98c4 10be
000000c0: 7241 0abe 5607 633b 6fee 003c 9a16 123e
000000d0: b04c a23d 6d9f dbbc 87fe 1bbe 4452 88bc
000000e0: 5377 d13d 1f23 c5bd ce2b c8bc 1e10 9f3d
000000f0: 30f7 25bd f556 ba3d 4283 0dbe 5487 993c

bn1.weight f4 [64]
1.0076457 1.004156 1.0608172 1.0675097 1.1132348 1.074935 0.99713886 1.0302335
1.0287888 0.9932831 0.98499966 1.006045 0.9998601 1.0166081 0.97938347 0.96192884
0.99284863 0.9835854 1.0608952 0.8880979 0.926155 1.083074 1.0234225 1.077366
1.0319725 1.0134615 0.99377966 1.0012355 0.9970106 0.952938 0.9903914 1.0403277
0.9342907 0.9987167 0.9722094 0.99973166 1.0804092 0.9169777 1.0007234 0.997617
1.0621028 1.0149996 0.9713952 1.0146954 0.92125446 0.98397225 0.92113954 1.1185974
0.97085786 0.9423067 1.0373981 1.0335437 0.99595183 1.0574964 0.9678452 1.0855732
1.0403092 1.0289923 0.98935467 1.0685835 1.0253696 0.92809826 1.0786616 1.0722687
00000000: 89fa 803f 2f88 803f dcc8 873f 28a4 883f
00000010: 7a7e 8e3f 7897 893f 7e44 7f3f b1de 833f
00000020: 5aaf 833f cd47 7e3f f028 7c3f 15c6 803f
00000030: d5f6 7f3f 3720 823f e0b8 7a3f f840 763f
00000040: 542b 7e3f 41cc 7b3f 6acb 873f 625a 633f
00000050: 7e18 6d3f 2ba2 8a3f 82ff 823f 21e7 893f
00000060: ad17 843f 1bb9 813f 5868 7e3f 7c28 803f
00000070: 163c 7f3f bff3 733f 4a8a 7d3f 7529 853f
00000080: ad2d 6f3f e6ab 7f3f b7e2 783f 6aee 7f3f
00000090: d94a 8a3f 0dbf 6a3f b417 803f d463 7f3f
000000a0: fcf2 873f 82eb 813f 5bad 783f 8ae1 813f
000000b0: 55d7 6b3f 9be5 7b3f cdcf 6b3f 332e 8f3f
000000c0: 248a 783f 033b 713f 76c9 843f 294b 843f
000000d0: b3f6 7e3f 0b5c 873f b4c4 773f 10f4 8a3f
000000e0: da28 853f 05b6 833f 5946 7d3f 58c7 883f
000000f0: 503f 833f d997 6d3f 9511 8a3f 1a40 893f

bn1.bias f4 [64]
-0.0023876003 0.01873445 -0.014883624 -0.025927795 -0.0035504643 0.0001393819 0.023030981 -0.01211832
-0.014425027 0.0044030733 -0.031849112 -0.016456792 -0.023418056 -0.011502065 -0.03450251 -0.050328925
-0.030325282 0.024111483 0.0064064017 -0.10564162 -0.082747854 0.009286816 0.04219456 -0.0056142355
-0.024687162 0.019721748 0.013495272 -0.01951384 -0.027157007 -0.056312323 0.028397158 -0.010168205
-0.076889634 0.020607602 0.045024954 -0.041642565 -0.0073562167 -0.08984959 0.04862831 -0.030612627
-0.025483327 0.016398527 -0.03727739 0.02908027 -0.09901222 -0.036507316 -0.07844581 0.009779807
-0.042490385 -0.06326303 -0.016685802 0.02023253 -0.027056163 0.010129531 0.04367743 -0.0015924982
0.0131601505 0.005265611 -0.035230197 -0.0023225532 0.008508081 0.07034605 -0.010700316 -0.0027823495
00000000: 4979 1cbb fd78 993c 72da 73bc 8766 d4bc
00000010: e8ae 68bb 0b27 1239 78ab bc3c eb8b 46bc
00000020: f356 6cbc a847 903b 3774 02bd 65d0 86bc
00000030: 39d7 bfbc 2873 3cbc 8152 0dbd b425 4ebd
00000040: ba6c f8bc 7285 c53c cbec d13b a25a d8bd
00000050: b577 a9bd bb27 183c 34d4 2c3d 9ff7 b7bb
00000060: bb3c cabc 818f a13c 461b 5d3c 7ddb 9fbc
00000070: 5f78 debc c0a7 66bd 28a1 e83c 8b98 26bc
00000080: 5078 9dbd 46d1 a83c 166c 383d 6591 2abd
00000090: 6b0c f1bb 1003 b8bd 7b2e 473d 55c7 fabc
000000a0: 69c2 d0bc 3456 863c 2db0 18bd bf39 ee3c
000000b0: ebc6 cabd b288 15bd 32a8 a0bd 7c3b 203c
000000c0: 660a 2ebd 0c90 81bd aab0 88bc b1be a53c
000000d0: e3a4 ddbc 55f6 253c 1be7 323d 5fbb d0ba
000000e0: ac9d 573c 268b ac3b 8a4d 10bd fa35 18bb
000000f0: 7a65 0b3c 9711 903d 6150 2fbc 1458 36bb

bn1.running_mean f4 [64]
-14.061135 41.44498 -165.04736 -160.93324 -122.697365 60.1709 -27.426338 -109.749176
52.227528 126.69991 -14.832181 -112.31921 8.652292 -13.718775 87.811935 177.45454
-138.40111 100.96667 31.704802 145.0925 87.121155 -104.09865 -22.99068 36.657616
118.72185 117.87341 -172.51088 -71.828575 44.235157 -35.499718 5.0315485 -105.522415
60.76485 38.99585 2.5831795 4.1428814 103.49578 82.65501 82.22118 94.3673
13.674536 -45.194668 24.219614 69.818405 27.282295 -15.443188 48.670326 40.52801
127.778946 67.30713 56.25707 130.87355 -40.435974 -102.9463 -15.515464 -101.16754
108.89606 -115.07253 -91.051544 -10.675496 -87.45326 199.14954 92.2664 -95.172775
00000000: 69fa 60c1 a9c7 2542 200c 25c3 e9ee 20c3
00000010: 0d65 f5c2 00af 7042 2469 dbc1 947f dbc2
00000020: fde8 5042 5b66 fd42 9d50 6dc1 6fa3 e0c2
00000030: ca6f 0a41 1a80 5bc1 b69f af42 5d74 3143
00000040: af66 0ac3 efee c942 6fa3 fd41 ae17 1143
00000050: 083e ae42 8232 d0c2 eaec b7c1 66a1 1242
00000060: 9671 ed42 30bf eb42 c982 2cc3 3ba8 8fc2
00000070: cdf0 3042 b6ff 0dc2 7202 a140 7a0b d3c2
00000080: 350f 7342 c0fb 1b42 d052 2540 7c92 8440
00000090: d7fd ce42 5d4f a542 3f71 a442 0fbc bc42
000000a0: e6ca 5a41 57c7 34c2 c5c1 c141 06a3 8b42
000000b0: 2442 da41 4c17 77c1 6aae 4242 af1c 2242
000000c0: d28e ff42 409d 8642 3d07 6142 a1df 0243
000000d0: 70be 21c2 81e4 cdc2 573f 78c1 c855 cac2
000000e0: c8ca d942 2325 e6c2 641a b6c2 d5ce 2ac1
000000f0: 12e8 aec2 4826 4743 6688 b842 7658 bec2

bn1.running_var f4 [64]
1168.9275 954.92413 1294.484 1150.7491 771.5898 434.49838 524.71295 485.38483
246.68646 896.3123 609.2382 972.9098 1123.0518 196.25883 716.8106 1107.0867
524.6334 1103.587 617.85693 1171.0122 436.8347 954.296 1040.0483 319.4467
689.5827 2757.5452 951.03754 505.46912 928.7776 153.43225 724.06647 2121.372
1019.44666 656.2837 214.62924 167.69858 1875.0717 753.0808 858.70935 909.0625
249.77806 797.6341 424.3182 266.67737 303.23935 1210.8478 243.47737 540.4963
1886.261 921.13574 408.92154 2024.11 394.1829 1544.5283 1466.338 890.6238
1677.5135 1909.9283 576.57745 458.91464 1140.228 1940.2842 697.7448 1503.5612
00000000: ae1d 9244 25bb 6e44 7dcf a144 f9d7 8f44
00000010: bfe5 4044 cb3f d943 a12d 0344 42b1 f243
00000020: bcaf 7643 fd13 6044 3f4f 1844 3a3a 7344
00000030: a861 8c44 4342 4443 e133 3344 c662 8a44
00000040: 8a28 0344 c9f2 8944 d876 1a44 6460 9244
00000050: d76a da43 f292 6e44 8c01 8244 2db9 9f43
00000060: 4b65 2c44 b958 2c45 67c2 6d44 0cbc fc43
00000070: c431 6844 a86e 1943 4104 3544 f495 0445
00000080: 96dc 7e44 2812 2444 16a1 5643 d6b2 2743
00000090: 4b62 ea44 2c45 3c44 66ad 5644 0044 6344
000000a0: 2fc7 7943 9568 4744 bb28 d443 b456 8543
000000b0: a39e 9743 215b 9744 357a 7343 c31f 0744
000000c0: 5ac8 eb44 b048 6644 f575 cc43 8503 fd44
000000d0: 6917 c543 e810 c144 d14a b744 eca7 5e44
000000e0: 6fb0 d144 b5bd ee44 f524 1044 1375 e543
000000f0: 4c87 8e44 1889 f244 ab6f 2e44 f5f1 bb44

conv2.weight f4 [64, 1, 3, 3]
0.12734665 -0.23021258 0.27126542 -0.13818572 0.07942285 0.237164 -0.25204235 0.15649088
0.09495374 -0.20393406 -0.0967338 0.097098626 -0.19681123 -0.030977765 0.3191032 0.21753094
-0.033828136 -0.13535947 0.030617954 -0.1583447 -0.11005116 0.25398642 0.0110787805 -0.109469555
-0.3245032 -0.28521946 0.22442332 0.16766064 -0.11094854 -0.22847979 -0.00033690638 -0.11251074
0.1266943 -0.2058255 0.072485335 0.16735601 -0.2673853 -0.019946814 0.27330598 0.123347275
-0.20954818 0.21592353 0.31241372 -0.12607113 -0.20384252 -0.26396984 0.028980207 -0.10589664
0.27476674 0.0032738151 0.040883645 -0.23515642 0.13956134 -0.18727827 -0.34828264 0.07365687
-0.12589988 0.10820288 -0.03705538 -0.064763285 0.2750612 -0.124225505 -0.19740395 -0.0030373903
-0.31336138 0.10689091 0.061719812 0.29968193 -0.031191181 0.031106781 -0.005590713 -0.06658643
-0.21733128 -0.037006795 0.14413688 0.15712498 -0.08182027 -0.11602925 -0.30124786 0.32007867
-0.29069 0.29832205 -0.0714723 0.038527176 0.36032194 0.15774406 -0.28452763 0.16774954
-0.061325617 0.26463053 0.14878437 -0.077643126 0.15427211 -0.0020555193 0.22263902 0.09455863
-0.03543925 0.29136646 -0.0076979753 -0.07241353 -0.074769706 0.1393368 -0.26719436 0.20524693
-0.2279393 0.0775182 0.25189465 -0.27834895 -0.0070163356 0.037616823 0.1727443 0.27578068
-0.067772195 0.034848243 0.0077939564 0.30425152 0.18578237 0.1628668 0.0136919515 0.17119305
-0.109526575 0.10539622 0.14365403 -0.18327661 -0.15276228 -0.3318979 0.056465015 0.005542783
0.129281 0.0040224795 -0.17269771 -0.3500283 0.36967668 -0.10542875 -0.25109106 0.12611006
-0.18852553 0.24255094 0.1256563 -0.1667299 0.05511053 -0.17931949 -0.10750406 -0.31613997
0.059458617 0.019223742 0.08986397 -0.13848805 -0.27403438 -0.12336147 -0.101908326 0.21585943
-0.20137696 -0.31463444 -0.23576453 0.11187915 0.28147376 -0.28626174 0.07167956 -0.0074498514
0.23693202 -0.10336613 0.18031384 0.080144756 0.27325058 0.20307282 0.14758454 0.22234409
-0.089087665 -0.085987404 0.3042677 0.25290048 0.25434563 -0.18328658 0.007182244 0.27815604
-0.24833657 0.11831916 -0.15964131 -0.27203977 0.009090321 -0.17830616 -0.23655425 0.06842614
0.32918572 -0.010643993 -0.101606965 0.1954515 -0.0034574259 -0.030891053 -0.14417839 -0.29765746
-0.18693192 -0.15861574 0.24681553 -0.04215929 0.014006263 -0.024996947 0.09506002 0.28401324
0.10201715 0.37561715 0.19370177 0.029604081 0.37948868 -0.27161747 0.06182026 0.01313302
0.12840456 -0.2768942 -0.31917793 0.23214467 -0.087196074 0.0021618293 -0.14892274 -0.28360698
-0.010797164 0.07459336 -0.16704701 -0.0088773435 -0.01521434 -0.22480755 0.2168568 -0.18933362
-0.084698014 0.17241739 -0.017713914 0.08531784 0.018970579 -0.2820371 0.0367068 0.3076724
-0.27210435 -0.11399634 0.30822003 0.20431964 0.15189967 0.049107354 -0.21555234 0.3532609
0.27678284 0.252436 0.15976745 -0.332591 -0.19412306 -0.31494242 -0.28871503 0.16555922
-0.21671103 0.28559124 0.012016522 0.058513213 0.12741137 -0.015898792 0.36632183 0.06800954
00000000: 2967 023e d9bc 6bbe 4de3 8a3e 8f80 0dbe
00000010: 72a8 a23d 1fdb 723e b20b 81be 253f 203e
00000020: 1b77 c23d 17d4 50be 5f1c c6bd a5db c63d
00000030: e288 49be 15c5 fdbc 7f61 a33e 6ec0 5e3e
00000040: 5f8f 0abd ac9b 0abe 81d2 fa3c 1d25 22be
00000050: 8162 e1bd 820a 823e c683 353c 9331 e0bd
00000060: 4925 a6be 4908 92be 3acf 653e 3baf 2b3e
00000070: fd38 e3bd 9bf6 69be cfa2 b0b9 086c e6bd
00000080: 27bc 013e ebc3 52be 3173 943d 605f 2b3e
00000090: bae6 88be 8067 a3bc c3ee 8b3e 7f9d fc3d
000000a0: cc93 56be 0f1b 5d3e b1f4 9f3e ca18 01be
000000b0: 18bc 50be 0e27 87be e667 ed3c 56e0 d8bd
000000c0: 3aae 8c3e 818d 563b 9c75 273d d8cc 70be
000000d0: 2be9 0e3e e0c5 3fbe 1a52 b2be 6ad9 963d
000000e0: e6eb 00be 7999 dd3d 62c7 17bd 9da2 84bd
000000f0: d2d4 8c3e f169 febd 4324 4abe f40e 47bb
00000100: e770 a0be 9fe9 da3d eacd 7c3d e96f 993e
00000110: a684 ffbc a6d3 fe3c 4d32 b7bb 775e 88bd
00000120: 178c 5ebe 7094 17bd 9e98 133e 5fe5 203e
00000130: 6391 a7bd bea0 edbd 293d 9abe 5ae1 a33e
00000140: 52d5 94be abbd 983e 1260 92bd acce 1d3d
00000150: 1e7c b83e a987 213e 9bad 91be 89c6 2b3e
00000160: 9230 7bbd a77d 873e ee5a 183e 5c03 9fbd
00000170: 82f9 1d3e e4b5 06bb 7cfb 633e f4a7 c13d
00000180: bf28 11bd fc2d 953e 4c3f fcbb 8b4d 94bd
00000190: dc20 99bd 4eae 0e3e b3cd 88be 402c 523e
000001a0: eb68 69be ddc1 9e3d 56f8 803e c183 8ebe
000001b0: 4ae9 e5bb 1914 1a3d e2e3 303e 2033 8d3e
000001c0: 26cc 8abd 08bd 0e3d 7264 ff3b dbc6 9b3e
000001d0: bc3d 3e3e 8ec6 263e 3554 603c 3b4d 2f3e
000001e0: 784f e0bd f9d9 d73d 0b1a 133e ddac 3bbe
000001f0: b76d 1cbe 86ee a9be dc47 673d 3ca0 b53b
00000200: 3d62 043e 01cf 833b abd7 30be e936 b3be
00000210: 4346 bd3e 07eb d7bd 028f 80be ff22 013e
00000220: d60c 41be 465f 783e 0cac 003e 3ebb 2abe
00000230: 94bb 613d 879f 37be 172b dcbd 19dd a1be
00000240: e18a 733d 1c7b 9d3c 9a0a b83d d0cf 0dbe
00000250: 3c4e 8cbe f0a4 fcbd 50b5 d0bd 410a 5d3e
00000260: c335 4ebe c417 a1be 426c 71be e520 e53d
00000270: 541d 903e e690 92be bccc 923d e21d f4bb
00000280: 4f9e 723e 9fb1 d3bd 31a4 383e ef22 a43d
00000290: 80e7 8b3e 52f2 4f3e 6720 173e 2bae 633e
000002a0: 9873 b6bd 2a1a b0bd fac8 9b3e 2c7c 813e
000002b0: 9739 823e 7aaf 3bbe 0859 eb3b 786a 8e3e
000002c0: f14b 7ebe 5151 f23d 0379 23be cc48 8bbe
000002d0: 92ef 143c e495 36be 473b 72be 0123 8c3d
000002e0: 088b a83e 2464 2ebc 5017 d0bd 7024 483e
000002f0: fb95 62bb 3c0f fdbc 80a3 13be 8f66 98be
00000300: 156b 3fbe 2a6c 22be 36bd 7c3e 38af 2cbd
00000310: 867a 653c 66c6 ccbc d4ae c23d 2f6a 913e
00000320: 5eee d03d e450 c03e c259 463e 4284 f23c
00000330: 574c c23e 7211 8bbe 3e37 7d3d e12b 573c
00000340: 7c7c 033e 14c5 8dbe 4a6b a3be 55b7 6d3e
00000350: db93 b2bd 7aad 0d3b 347f 18be ef34 91be
00000360: 97e6 30bc 67c4 983d 5f0e 2bbe 4772 11bc
00000370: 9145 79bc f333 66be b50f 5e3e ace0 41be
00000380: 2776 adbd 2f8e 303e c51c 91bc 1fbb ae3d
00000390: 3068 9b3c 2b67 90be df59 163d 3d87 9d3e
000003a0: 4351 8bbe ea76 e9bd 04cf 9d3e 2b39 513e
000003b0: 968b 1b3e cb24 493d c1b9 5cbe 9dde b43e
000003c0: 7bb6 8d3e 4b3f 813e 149a 233e 5e49 aabe
000003d0: 32c8 46be 2240 a1be 75d2 93be 5b88 293e
000003e0: 7fe9 5dbe 0439 923e f2e0 443c 8dab 6f3d
000003f0: 2078 023e 2f3e 82bc 898e bb3e 9648 8b3d

conv2.bias f4 [64]
-0.33573067 0.015982613 0.036577053 0.18070252 0.29149315 0.13825002 0.123268016 0.27974367
-0.027204458 -0.036245536 0.23534419 -0.00020108721 0.20975642 -0.17223835 -0.26071092 -0.0022958384
0.20121571 0.21254815 -0.03288782 0.013470737 -0.12899695 -0.11897605 0.30530256 0.079814315
-0.25366327 0.16470967 0.32931378 -0.304967 -0.09076761 -0.27433464 -0.088863224 0.018517645
0.031041095 0.10456162 0.21643345 -0.0013468119 -0.1545724 0.020639423 -0.2267567 0.13563296
-0.27968305 0.009812183 0.0038994467 -0.09347607 0.19897518 -0.0563264 -0.2438298 0.11532462
-0.1715887 -0.24999258 0.26678988 0.25610667 0.09762602 0.24486512 -0.26170263 -0.20550899
0.10217183 -0.11267706 0.28204513 -0.26700923 0.23741123 0.023081342 0.0017536564 0.26855314
00000000: e4e4 abbe f8ed 823c d2d1 153d 150a 393e
00000010: 973e 953e 6a91 0d3e f173 fc3d 903a 8f3e
00000020: e2db debc 3376 14bd 11fe 703e f0da 52b9
00000030: 63ca 563e 405f 30be e77b 85be c775 16bb
00000040: 7e0b 4e3e 39a6 593e 61b5 06bd 5eb4 5c3c
00000050: c717 04be b7a9 f3bd 9e50 9c3e b075 a33d
00000060: 27e0 81be a7a9 283e d19b a83e a224 9cbe
00000070: 5ee4 b9bd 9775 8cbe ecfd b5bd 51b2 973c
00000080: e549 fe3c 6724 d63d bba0 5d3e 8287 b0ba
00000090: 3a48 1ebe 0214 a93c e932 68be 5ee3 0a3e
000000a0: 9e32 8fbe 47c3 203c dc8d 7f3b 6270 bfbd
000000b0: 26c0 4b3e 83b6 66bd 85ae 79be 502f ec3d
000000c0: f3b4 2fbe 0efe 7fbe af98 883e 6a20 833e
000000d0: 27f0 c73d ecbd 7a3e e3fd 85be f370 52be
000000e0: 773f d13d 3bc3 e6bd 3868 903e 6fb5 88be
000000f0: ee1b 733e 1515 bd3c f2da e53a cc7f 893e

bn2.weight f4 [64]
0.9646033 1.0290214 1.0263139 1.044003 1.027094 0.9720856 1.0357803 0.9609028
0.98919547 0.98783565 1.0495567 0.95112467 1.0068882 0.9720626 1.0193145 0.9568068
1.0206834 0.98587364 0.93057543 1.0041103 1.0210549 0.98575574 0.9713154 1.0325879
1.0002352 0.9980447 0.988745 0.9744889 0.98646873 1.0507535 0.9919677 0.99590826
0.9810909 0.96272576 0.9930293 1.0539948 0.99442667 1.0646675 0.9806875 1.0106065
1.1077619 1.0030959 0.9462795 1.0488147 1.040973 0.9738755 1.0100234 1.0428926
0.9869519 1.0458825 0.9880017 1.0017903 1.0279602 0.9765657 0.9664868 1.0090004
0.9633979 0.97275954 0.96946824 0.93895966 0.99882936 0.93817204 1.0428265 0.95976144
00000000: 3ef0 763f f9b6 833f 415e 833f e4a1 853f
00000010: d177 833f 9ada 783f 7394 843f bafd 753f
00000020: ea3b 7d3f cce2 7c3f e057 863f e87c 733f
00000030: b6e1 803f 18d9 783f e678 823f 4af1 743f
00000040: c1a5 823f 3762 7c3f 313a 6e3f b086 803f
00000050: edb1 823f 7d5a 7c3f 20a8 783f d72b 843f
00000060: b507 803f dc7f 7f3f 641e 7d3f 1b78 793f
00000070: 3789 7c3f 177f 863f 98f1 7d3f d8f3 7e3f
00000080: c628 7b3f 3275 763f 2b37 7e3f 4de9 863f
00000090: bf92 7e3f 0647 883f 560e 7b3f 8e5b 813f
000000a0: 24cb 8d3f 7265 803f 603f 723f 8f3f 863f
000000b0: 9a3e 853f e84f 793f 7248 813f 817d 853f
000000c0: e1a8 7c3f 7adf 853f aeed 7c3f aa3a 803f
000000d0: 3394 833f 3600 7a3f ae6b 773f ed26 813f
000000e0: 3fa1 763f c506 793f 122f 783f a95f 703f
000000f0: 48b3 7f3f 0b2c 703f 577b 853f edb2 753f

bn2.bias f4 [64]
-0.033719942 0.026736015 0.019565452 0.0020722807 0.033602875 -0.021343194 -0.07509446 0.015643576
-0.037523244 -0.0025252157 0.01872313 -0.043645613 0.006776242 0.01015896 0.009944733 -0.030581322
0.0685571 -0.025341652 -0.031611055 -0.032585617 0.047694474 -0.031928204 -0.027996069 -0.036181487
-0.007296297 0.019648865 -0.009781278 -0.013583217 -0.024959868 -0.055409633 0.04405303 0.0025505908
-0.031901564 -0.052319765 -0.024846734 0.10777634 0.0061302925 0.013411546 -0.058897227 0.03475521
0.020112379 -0.02484829 -0.04701776 0.030399866 0.0020070407 -0.026373047 0.012040341 0.061862774
-0.06793768 -0.012796119 -0.027286522 0.0506731 -0.02375385 -0.015987303 -0.026115967 0.010641419
-0.03100166 -0.029065618 -0.018365817 0.020208783 0.008052261 0.006098761 0.0008903391 -0.04163514
00000000: ec1d 0abd 7d05 db3c ba47 a03c 1acf 073b
00000010: 2ba3 093d ecd7 aebc 20cb 99bd f526 803c
00000020: f9b1 19bd 177e 25bb 4061 993c bec5 32bd
00000030: 3d0b de3b c471 263c 3cef 223c ae85 fabc
00000040: aa67 8c3d 4c99 cfbc 987a 01bd 7f78 05bd
00000050: 485b 433d 26c7 02bd 0358 e5bc 0a33 14bd
00000060: c615 efbb a8f6 a03c a741 20bc 248c 5ebc
00000070: a378 ccbc 36f5 62bd f370 343d d027 273b
00000080: 37ab 02bd 404d 56bd 618b cbbc d7b9 dc3d
00000090: 9fe0 c83b 1abc 5b3c 383e 71bd 7b5b 0e3d
000000a0: b7c2 a43c a48e cbbc b295 40bd 2409 f93c
000000b0: 8e88 033b 4a0c d8bc da44 453c d263 7d3d
000000c0: e922 8bbd d0a6 51bc fc87 dfbc 998e 4f3d
000000d0: 6f97 c2bc cef7 82bc 27f1 d5bc 5959 2e3c
000000e0: 31f7 fdbc 051b eebc e973 96bc e48c a53c
000000f0: a1ed 033c 1ed8 c73b a565 693a 9c89 2abd

bn2.running_mean f4 [64]
-0.2512044 -0.08939249 -0.095963314 0.11823658 0.2482148 0.06803614 0.06339807 0.33023998
-0.10261842 0.2921453 0.51293546 -0.004774238 0.40671933 -0.1917596 -0.31586656 -0.13853918
0.07623512 0.1276829 0.29829797 0.020675777 -0.10337391 -0.32517368 0.5923774 -0.13741875
-0.42856976 0.10046582 0.610193 -0.530215 0.13074906 -0.21894187 0.18285853 -0.3840601
-0.2344045 -0.1757764 0.25097898 -0.04172638 -0.24744289 0.029722603 -0.15918092 0.11114166
-0.42468363 -0.2912173 0.017422708 -0.07715196 0.51365715 -0.21627912 -0.1702898 0.18901455
0.03779705 -0.26956257 0.30160487 0.18966423 0.0344473 0.23829025 -0.7120352 -0.35794407
0.16464654 -0.43433487 0.29860067 -0.09358801 0.19838844 0.24267942 -0.19118781 0.519004
00000000: dd9d 80be 6913 b7bd 6a88 c4bd 0526 f23d
00000010: 052c 7e3e 8856 8b3d d9d6 813d 3715 a93e
00000020: 9b29 d2bd 1294 953e bd4f 033f 3671 9cbb
00000030: 843d d03e a15c 44be 43b9 a1be 37dd 0dbe
00000040: 2921 9c3d 4ebf 023e 83ba 983e 3f60 a93c
00000050: b3b5 d3bd 2a7d a6be 0ca6 173f 80b7 0cbe
00000060: 7f6d dbbe 06c1 cd3d 9c35 1c3f 2cbc 07bf
00000070: 15e3 053e 4c32 60be 443f 3b3e 87a3 c4be
00000080: bc07 70be bbfe 33be 5180 803e 48e9 2abd
00000090: ab61 7dbe d17c f33c 5300 23be 3d9e e33d
000000a0: 2270 d9be 6f1a 95be 11ba 8e3c d901 9ebd
000000b0: 097f 033f 4678 5dbe 7360 2ebe 088d 413e
000000c0: 14d1 1a3d 1b04 8abe f46b 9a3e 5737 423e
000000d0: 9d18 0d3d 5c02 743e f047 36bf 7244 b7be
000000e0: 1a99 283e 2461 debe 30e2 983e 12ab bfbd
000000f0: 5726 4b3e f480 783e bdc6 43be 72dd 043f

bn2.running_var f4 [64]
0.08190588 0.009427017 0.080698214 0.019512087 0.100838125 0.030046798 0.025596865 0.052851275
0.05425714 0.097178414 0.01505082 0.07982859 0.100771464 0.13349673 0.060801048 0.024022164
0.11814401 0.023427319 0.25510833 0.04316351 0.014971165 0.15353729 0.04577087 0.041627336
0.059735294 0.031132532 0.38992324 0.22392686 0.13452817 0.036837105 0.027354201 0.2735635
0.042715285 0.14390314 0.008009721 0.0690338 0.01689179 0.012019875 0.037534732 0.05249897
0.03689695 0.18224189 0.023427593 0.017097749 0.040342752 0.0698892 0.07645557 0.010266269
0.044840086 0.08258075 0.00693066 0.021119073 0.045836776 0.12889564 0.04851534 0.36653835
0.04700397 0.24893394 0.13033952 0.08029496 0.19298562 0.015472493 0.026222698 0.096624225
00000000: 45be a73d c673 1a3c 1b45 a53d d0d7 9f3c
00000010: 3884 ce3d b424 f63c 84b0 d13c 947a 583d
00000020: bc3c 5e3d 7a05 c73d b797 763c 2c7d a33d
00000030: 4561 ce3d 5eb3 083e 850a 793d 21ca c43c
00000040: 7df5 f13d a6ea bf3c 8f9d 823e 38cc 303d
00000050: 9e49 753c e138 1d3e 3c7a 3b3d 6d81 2a3d
00000060: ffac 743d a709 ff3c 05a4 c73e 154d 653e
00000070: c1c1 093e 81e2 163d eb15 e03c 8410 8c3e
00000080: 39f6 2e3d 585b 133e 343b 033c 9861 8d3d
00000090: a760 8a3c 03ef 443c 05be 193d 2909 573d
000000a0: 4221 173d 9e9d 3a3e 39eb bf3c 9410 8c3c
000000b0: 713e 253d 1222 8f3d bd94 9c3d da33 283c
000000c0: 3daa 373d 1920 a93d 971a e33b e801 ad3c
000000d0: 58bf 3b3d 38fd 033e 05b8 463d eaaa bb3e
000000e0: 3c87 403d 8ae8 7e3e b977 053e af71 a43d
000000f0: 069e 453e 5780 7d3c fcd0 d63c ece2 c53d

conv3.weight f4 [64, 64, 1, 1]
-0.03787463 0.07240354 0.10811897 -0.030948602 0.036801632 0.059968647 0.036791053 -0.106027104
0.097203545 0.009653594 -0.031994678 -0.030326799 0.10137901 0.021458251 -0.07688542 -0.12561387
-0.020378698 0.04933246 -0.092378624 0.0019428929 -0.0049891677 0.10540293 0.009911991 0.0060526477
-0.13303232 0.09178024 0.0311651 -0.09465767 -0.07340027 -0.10974716 0.018303374 0.08714356
-0.022572162 0.032070745 0.03959107 0.12874359 -0.00036022827 0.07848119 -0.0186019 -0.022226896
0.071445815 0.11125914 -0.10072876 -0.058783542 -0.037517387 -0.0647612 0.022636069 0.14028758
0.0130702425 0.119422525 0.10739516 -0.03586695 0.1008946 0.053357255 0.09485928 -0.126261
0.018184604 -0.10940183 -0.13779923 -0.015586378 -0.1044663 -0.13504703 0.049002998 -0.07319547
-0.067337744 -0.10405945 0.1538485 0.042820577 0.12290457 -0.11832741 -0.2107761 -0.0063592354
-0.1465073 -0.020870123 -0.12596256 0.07727306 0.010730078 -0.059296634 0.1618022 -0.060826253
-0.08675447 -0.11512462 -0.035259236 -0.11756125 -0.04893041 -0.006217921 -0.023848299 -0.10248342
0.09928078 0.012689022 0.01851723 0.11131189 0.025733406 0.03859189 -0.080911376 -0.03538773
-0.014308576 -0.05246351 -0.09507275 -0.030190704 0.07649828 -0.036636453 -0.041321225 -0.046760898
0.036104456 0.047976512 0.12353695 -0.036793947 -0.06005573 -0.06914617 0.09074859 -0.01237208
-0.0557779 -0.05633156 -0.05269125 0.07362188 0.09060079 0.002838767 -0.10472445 -0.13243303
0.079950124 0.105316795 -0.039898727 -0.004691435 -0.014437574 -0.02461641 0.048934244 -0.10368199
0.124278225 -0.013619297 0.04241986 0.026065178 -0.026282132 0.08869078 -0.104463376 0.00564475
-0.05185734 -0.066974714 0.04309664 0.00701188 -0.069577314 0.02244175 0.10615187 0.04545845
0.036221158 -0.02116586 0.007962932 0.048254035 0.20626499 0.048061844 -0.08279253 -0.074304745
0.113066174 0.0068077603 0.043492567 -0.024690403 0.022179717 -0.026935766 -0.06875463 -0.09947308
0.124740064 0.0092701875 0.1531881 0.0074132564 0.083369285 -0.08764258 -0.0773977 -0.0056396774
-0.043231722 -0.07245998 -0.010156195 0.009022602 0.061136343 -0.030229963 0.123298116 0.09196259
0.17851625 -0.05054254 -0.13160406 0.019504914 -0.030626208 0.006826031 0.0800829 -0.07583402
0.04229542 0.08565984 -0.00942277 -0.07155879 -0.013614083 -0.095856495 0.13173613 -0.03455888
0.094054736 0.0017121623 -0.008861686 -0.055776253 0.10145246 -0.114358895 -0.04115518 -0.002079641
-0.029505087 -0.10132029 -0.028569708 -0.042751957 0.011616791 -0.012678769 0.1669286 0.032897547
0.104591 -0.09956326 -0.038852904 0.056302954 -0.2058737 -0.0483163 -0.15639369 0.02817948
-0.043896753 -0.039777253 -0.0843067 0.09930612 -0.017140983 0.07216531 0.013231398 -0.11198444
0.08225756 -0.14566247 -0.10902284 0.0067628836 -0.1331779 0.04294287 -0.06436784 0.036224164
-0.024343992 0.061209135 0.05527209 0.020318367 -0.0806022 -0.12913096 0.024987966 0.12583265
0.10975522 -0.029186549 0.056523424 -0.0409547 0.0053358264 0.06679248 -0.052220628 0.05820735
0.08447588 0.018602576 -0.12192307 0.10007565 -0.011153104 -0.048035566 0.0045734025 0.010338061
00000000: 6e22 1bbd 4f48 943d 7b6d dd3d ec87 fdbc
00000010: 4fbd 163d afa1 753d 37b2 163d bd24 d9bd
00000020: a712 c73d 1c2a 1e3c da0c 03bd e86f f8bc
00000030: cc9f cf3d 37c9 af3c 1a76 9dbd eca0 00be
00000040: 3af1 a6bc d510 4a3d 0131 bdbd aba8 fe3a
00000050: 2c7c a3bb 7edd d73d e765 223c 4a55 c63b
00000060: a039 08be 47f7 bb3d f44d ff3c e1db c1bd
00000070: e152 96bd 1ec3 e0bd f5f0 953c 5378 b23d
00000080: 41e9 b8bc 9d5c 033d 3f2a 223d 5cd5 033e
00000090: 05dd bcb9 bfba a03d 0363 98bc 2e15 b6bc
000000a0: 2f52 923d d5db e33d e14a cebd 03c7 70bd
000000b0: d5ab 19bd 85a1 84bd 476f b93c 8ca7 0f3e
000000c0: 9224 563c cc93 f43d fef1 db3d 39e9 12bd
000000d0: d4a1 ce3d 238d 5a3d 9545 c23d 904a 01be
000000e0: e1f7 943c 110e e0bd 3e1b 0dbe 025e 7fbc
000000f0: 6df2 d5bd c549 0abe 5eb7 483d 82e7 95bd
00000100: 5fe8 89bd 1f1d d5bd 768a 1d3e a164 2f3d
00000110: 64b5 fb3d a455 f2bd b1d5 57be 2261 d0bb
00000120: 0206 16be d2f7 aabc 54fc 00be 5741 9e3d
00000130: 36cd 2f3c 07e1 72bd 7aaf 253e f324 79bd
00000140: 54ac b1bd 75c6 ebbd fd6b 10bd f4c3 f0bd
00000150: 416b 48bd b4bf cbbb 825d c3bc d4e2 d1bd
00000160: b953 cb3d 9ee5 4f3c 72b1 973c 7df7 e33d
00000170: ddce d23c 8812 1e3d ddb4 a5bd b9f2 10bd
00000180: 846e 6abc fae3 56bd 80b5 c2bd 7f52 f7bc
00000190: 21ab 9c3d 1b10 16bd 7240 29bd 5b88 3fbd
000001a0: 44e2 133d 0583 443d f100 fd3d 40b5 16bd
000001b0: fffc 75bd 829c 8dbd 66da b93d 44b4 4abc
000001c0: 5e77 64bd ecbb 66bd c8d2 57bd 11c7 963d
000001d0: e88c b93d 9b0a 3a3b c679 d6bd 869c 07be
000001e0: e4bc a33d 55b0 d73d d96c 23bd 9cba 99bb
000001f0: 938b 6cbc 5aa8 c9bc 466f 483d 3957 d4bd
00000200: 9585 fe3d 7923 5fbc 72c0 2d3d a486 d53c
00000210: a04d d7bc 83a3 b53d e5f0 d5bd 98f7 b83b
00000220: 5d68 54bd 0a2a 89bd 1a86 303d eac3 e53b
00000230: 8d7e 8ebd c3d7 b73c 2766 d93d a432 3a3d
00000240: a35c 143d 0764 adbc f576 023c 06a6 453d
00000250: 2137 533e 7fdc 443d 218f a9bd 162d 98bd
00000260: 3d8f e73d a213 df3b 4325 323d 8743 cabc
00000270: 3db2 b53c 65a8 dcbc 3acf 8cbd 8bb8 cbbd
00000280: b877 ff3d fce1 173c 57dd 1c3e e7ea f23b
00000290: 84bd aa3d f47d b3bd af82 9ebd 0bcd b8bb
000002a0: bf13 31bd e665 94bd 2b66 26bc 89d3 133c
000002b0: 1a6a 7a3d d4a4 f7bc b983 fc3d e256 bc3d
000002c0: f7cc 363e b205 4fbd 37c3 06be c5c8 9f3c
000002d0: d0e3 fabc e6ac df3b 8102 a43d de4e 9bbd
000002e0: f63d 2d3d 6d6e af3d f661 1abc 6a8d 92bd
000002f0: 9a0d 5fbc 6950 c4bd d6e5 063e 9d8d 0dbd
00000300: c59f c03d a26a e03a 9b30 11bc a475 64bd
00000310: 4fc6 cf3d ff34 eabd 5692 28bd 964a 08bb
00000320: a7b4 f1bc 0381 cfbd 050b eabc ad1c 2fbd
00000330: 5a54 3e3c 9dba 4fbc 55ef 2a3e 94bf 063d
00000340: ce33 d63d d3e7 cbbd 3924 1fbd ed9d 663d
00000350: 8ed0 52be 50e7 45bd ab25 20be a7d8 e63c
00000360: 15cd 33bd 79ed 22bd fea8 acbd 0261 cb3d
00000370: 3f6b 8cbc 68cb 933d 81c8 583c 1958 e5bd
00000380: a776 a83d 8b28 15be 5e47 dfbd 2e9b dd3b
00000390: ca5f 08be dde4 2f3d 49d3 83bd ca5f 143d
000003a0: 0d6d c7bc 6eb6 7a3d fd64 623d b472 a63c
000003b0: c412 a5bd e83a 04be 90b3 cc3c 46da 003e
000003c0: 58c7 e03d a118 efbc 1b85 673d 1ec0 27bd
000003d0: 28d8 ae3b 7fca 883d 4ce5 55bd d56a 6e3d
000003e0: b101 ad3d 6e64 983c cdb2 f9bd 76f4 cc3d
000003f0: 82bb 36bc f1c0 44bd 7bdc 953b f860 293c

conv3.bias f4 [64]
0.092039526 0.05847377 -0.037393324 0.1035482 0.09398041 0.10917538 -0.06683957 -0.045960676
-0.08391356 -0.083222605 -0.08412144 -0.045555305 -0.10358666 0.042105634 0.0497869 0.107219554
0.013692164 -0.03788202 -0.12448427 -0.09771043 0.10924832 -0.052592296 -0.119321905 0.0005577265
-0.026590928 -0.069650635 -0.11415205 0.0644569 0.044605233 -0.0936412 0.055760372 -0.061442807
-0.04155761 -0.12029562 -0.015486044 0.05726432 0.11274356 -0.11691301 0.04760074 -0.019864809
0.08498688 -0.08208388 -0.085588634 0.088521734 -0.03886633 0.048731163 0.033184484 0.06436585
-0.10273226 -0.06591123 -0.03237937 -0.025304204 0.11969241 0.08356359 -0.040886328 0.072900295
-0.059614435 -0.050253306 0.04837032 0.053717207 0.11690441 -0.07285076 -0.097604446 0.0440031
00000000: 387f bc3d 3182 6f3d be29 19bd 1411 d43d
00000010: cd78 c03d 5797 df3d 2fe3 88bd 4341 3cbd
00000020: dfda abbd 9d70 aabd dd47 acbd 3398 3abd
00000030: 3e25 d4bd f576 2c3d 59ed 4b3d ed95 db3d
00000040: 1955 603c 2d2a 1bbd 9cf1 febd 681c c8bd
00000050: 95bd df3d 056b 57bd 0b5f f4bd 6434 123a
00000060: 38d5 d9bc fea4 8ebd 8dc8 e9bd fb01 843d
00000070: fab3 363d f5c6 bfbd fd64 643d 74ab 7bbd
00000080: 5038 2abd 8d5d f6bd 2db9 7dbc fe8d 6a3d
00000090: 18e6 e63d 1770 efbd fef8 423d 86bb a2bc
000000a0: 9a0d ae3d 981b a8bd 1849 afbd e24a b53d
000000b0: 4d32 1fbd 549a 473d 74ec 073d 3ed2 833d
000000c0: 4b65 d2bd 78fc 86bd 3ba0 04bd c34a cfbc
000000d0: 4b21 f53d 6323 ab3d 6c78 27bd c04c 953d
000000e0: 442e 74bd 69d6 4dbd f51f 463d 9306 5c3d
000000f0: 946b ef3d c732 95bd d7e4 c7bd 983c 343d

bn3.weight f4 [64]
0.96571517 0.9450441 1.0543548 1.0090399 1.0071982 0.97978276 1.0251625 1.0474656
1.0079974 0.96161944 0.9784696 1.0319827 1.0353857 0.94515705 1.0603836 1.0038679
1.0247923 0.9652019 1.0402794 0.99876815 1.0313398 1.0449898 1.0017986 0.96038854
0.95060056 1.0388237 1.0740918 1.0041404 1.0208112 1.0710325 0.9963607 0.9224359
1.0164287 1.009422 1.0061947 1.0147094 1.0362792 1.0274346 1.0482241 1.0807543
1.0241145 1.0930651 0.9287701 0.97438204 0.93339795 0.8764893 0.94454145 0.9969213
1.0174849 0.91263556 1.0706685 1.0197172 1.0299664 1.0068512 1.0280507 0.9586075
1.0179362 1.0752211 0.9433291 1.0763075 0.9802417 0.9465039 0.9810131 0.9902314
00000000: 1c39 773f 69ee 713f 19f5 863f 3828 813f
00000010: dfeb 803f 0bd3 7a3f 8638 833f 5a13 863f
00000020: 0f06 813f b12c 763f fc7c 7a3f 0218 843f
00000030: 8587 843f d0f5 713f a6ba 873f be7e 803f
00000040: 652c 833f 7917 773f e027 853f 45af 7f3f
00000050: f102 843f 3ac2 853f f03a 803f 06dc 753f
00000060: 8f5a 733f 2df8 843f d77b 893f ac87 803f
00000070: f1a9 823f 9817 893f 7f11 7f3f c224 6c3f
00000080: 561a 823f bd34 813f fdca 803f ffe1 813f
00000090: cca4 843f fa82 833f 352c 863f 2856 8a3f
000000a0: 2f16 833f 8fe9 8b3f e1c3 6d3f 1a71 793f
000000b0: 2bf3 6e3f 9a61 603f 78cd 713f 3c36 7f3f
000000c0: f23c 823f 7ca2 693f aa0b 893f 1886 823f
000000d0: f0d5 833f 80e0 803f 2a97 833f 4d67 753f
000000e0: bc4b 823f d8a0 893f 047e 713f 72c4 893f
000000f0: 1ff1 7a3f 144e 723f ad23 7b3f ce7f 7d3f

bn3.bias f4 [64]
0.051459633 -0.060322903 -0.014198218 0.0035029422 -0.030923229 -0.037015297 -0.022537008 -0.012035858
0.01195127 -0.048328545 -0.063091636 -0.0035375862 0.018976105 -0.07781715 -0.008920509 0.010693835
0.020577794 -0.047407385 0.011021311 -0.031654138 0.00793586 -0.013756752 0.028967384 -0.04882013
-0.05590735 0.0149781145 -0.013653951 -0.030508958 -0.033376 -0.0069007203 0.028157324 -0.09086768
-0.02134403 0.02215374 0.019917382 -0.026409617 -0.031008584 -0.0035668234 -0.012524165 -0.015080252
0.0055881296 -0.0039228294 -0.08503956 0.031103905 0.07110292 -0.11740172 -0.0638865 0.011228138
-0.038881827 -0.074199855 0.00032878004 -0.02383899 0.007842417 -0.02720306 0.0049452097 0.04807308
-0.016072163 -0.009147771 -0.06158258 0.007647724 -0.038660266 -0.06542114 0.033533853 0.025675355
00000000: 56c7 523d 2615 77bd a49f 68bc 9e91 653b
00000010: b652 fdbc 5a9d 17bd 889f b8bc 0c32 45bc
00000020: 42cf 433c 27f4 45bd 3036 81bd d9d6 67bb
00000030: c773 9b3c 995e 9fbd 5427 12bc 3235 2f3c
00000040: c392 a83c 3f2e 42bd bb92 343c c5a7 01bd
00000050: 6905 023c 0064 61bc 024d ed3c 9ef7 47bd
00000060: 1bff 64bd c466 753c d2b4 5fbc eced f9bc
00000070: 46b5 08bd 701f e2bb 30aa e63c d618 babd
00000080: add9 aebc c37b b53c c729 a33c fb58 d8bc
00000090: b705 febc 5ec1 69bb 2832 4dbc 2913 77bc
000000a0: a11c b73b 148b 80bb 3929 aebd 9ecd fe3c
000000b0: 689e 913d 5070 f0bd edd6 82bd 39f6 373c
000000c0: 8d42 1fbd 18f6 97bd 1c60 ac39 fc49 c3bc
000000d0: 7b7d 003c f4d8 debc 6d0b a23b 47e8 443d
000000e0: c5a9 83bc 88e0 15bc 043e 7cbd c299 fa3b
000000f0: 3a5a 1ebd 85fb 85bd cb5a 093d 1f55 d23c

bn3.running_mean f4 [64]
0.17533213 -0.303542 0.235895 -0.10902969 0.15615253 0.30809733 0.019774051 -0.030634863
-0.2372928 -0.20552664 -0.20716491 -0.17645404 -0.23592246 -0.36547372 0.08503038 -0.1556195
0.04227107 0.18526268 -0.7535513 -0.14227177 -0.110413074 -0.055354673 -0.068906546 0.08788255
0.8182817 -0.304941 -0.54361945 0.090902716 -0.42044932 0.08947017 -0.091258444 -0.15987608
-0.13123593 0.2260514 -0.11231865 -0.14821821 0.52615005 -0.13206692 0.24240437 -0.3413137
0.16733818 0.30330712 0.09210927 0.31941035 -0.17826784 -0.12527649 0.05749018 -0.19616023
0.14101197 -0.22515814 -0.52480847 -0.1101422 0.4211673 0.33114854 -0.3007074 0.2835665
-0.14412118 -0.24097866 0.5263096 -0.14466724 0.13818485 0.17442343 0.2668235 0.046751276
00000000: 448a 333e db69 9bbe 758e 713e f54a dfbd
00000010: 73e6 1f3e efbe 9d3e 31fd a13c f7f5 fabc
00000020: e2fc 72be 9375 52be 0a23 54be 5eb0 34be
00000030: a895 71be 5f1f bbbe 6824 ae3d b85a 1fbe
00000040: 6e24 2d3d 80b5 3d3e bde8 40bf b1af 11be
00000050: 4020 e2bd 95bb 62bd e01e 8dbd c4fb b33d
00000060: e97a 513f 3a21 9cbe a52a 0bbf 342b ba3d
00000070: 2245 d7be 233c b73d b5e5 babd 8eb6 23be
00000080: b662 06be 057a 673e 5207 e6bd 84c6 17be
00000090: c5b1 063f 8d3c 07be da38 783e abc0 aebe
000000a0: b35a 2b3e 124b 9b3e c9a3 bc3d c189 a33e
000000b0: d88b 36be 7b48 00be d37a 6b3d 3ade 48be
000000c0: 7165 103e db8f 66be d959 06bf 3c92 e1bd
000000d0: 3ea3 d73e 4d8c a93e 52f6 99be a12f 913e
000000e0: 8194 13be 1cc3 76be 3abc 063f a623 14be
000000f0: 5480 0d3e 0e9c 323e 179d 883e 447e 3f3d

bn3.running_var f4 [64]
0.16601646 0.08235475 0.07574376 0.10276979 0.10070235 0.12834343 0.09520912 0.10427404
0.1296812 0.13441834 0.12158115 0.12714669 0.10938516 0.2197444 0.11158531 0.22214358
0.13078938 0.13694878 0.15048325 0.1283569 0.12117257 0.10538401 0.30838183 0.1875115
0.27263492 0.16921738 0.14157964 0.20709014 0.19580416 0.08987419 0.20438024 0.055791456
0.10451826 0.23113003 0.17650285 0.11765122 0.11793403 0.14385873 0.18459004 0.18002558
0.18755224 0.3015404 0.11355178 0.07148819 0.31188524 0.17729501 0.068599105 0.11043385
0.1516452 0.17587653 0.20324782 0.14496161 0.16888967 0.1891287 0.098543875 0.14912137
0.2567718 0.08567327 0.15262352 0.14449771 0.083340354 0.07957522 0.2927385 0.11351204
00000000: 3800 2a3e 9ba9 a83d 8b1f 9b3d f878 d23d
00000010: 093d ce3d 766c 033e 00fd c23d a18d d53d
00000020: 26cb 043e f6a4 093e 8aff f83d be32 023e
00000030: 5405 e03d ad04 613e d786 e43d 9b79 633e
00000040: a7ed 053e 4d3c 0c3e 4818 1a3e fe6f 033e
00000050: 5329 f83d 92d3 d73d 39e4 9d3e 0403 403e
00000060: ce96 8b3e 5247 2d3e 41fa 103e 700f 543e
00000070: e380 483e f60f b83d 0e49 513e 9585 643d
00000080: ab0d d63d 5aad 6c3e 2abd 343e 1ff3 f03d
00000090: 6687 f13d b44f 133e 2c05 3d3e a058 383e
000000a0: b20d 403e 8163 9a3e d68d e83d 6668 923d
000000b0: 6caf 9f3e d38c 353e b07d 8c3d 242b e23d
000000c0: e148 1b3e fa18 343e 3220 503e d170 143e
000000d0: 6af1 2c3e f4aa 413e 5fd1 c93d 46b3 183e
000000e0: 9877 833e 7875 af3d 5749 1c3e 35f7 133e
000000f0: 59ae aa3d 55f8 a23d d2e1 953e 0079 e83d

conv4.weight f4 [64, 1, 3, 3]
-0.07841831 0.12350877 -0.018100072 -0.13730644 0.19624038 -0.29189417 0.19796945 -0.20328568
0.1999672 -0.2695978 -0.29787233 -0.25359607 0.25423095 0.13029337 0.20957205 0.046295352
0.14853022 0.14107908 0.10675811 -0.31065932 0.04874494 -0.15728098 0.08772537 -0.18150336
-0.037226915 0.34276846 0.1349906 -0.23810126 -0.06347744 -0.015200482 0.14744112 -0.16925715
-0.13802639 0.26199773 0.16595387 0.042583056 0.25775382 -0.10755955 0.05536314 0.15980788
-0.25484025 -0.18034509 0.08698463 -0.13512073 0.1538336 0.2812963 -0.02841751 0.026556749
0.34255102 0.22468026 -0.2296996 0.2974945 0.027384123 0.042285483 -0.029689234 -0.011465986
0.06418413 0.040196013 0.19375367 -0.25010714 0.09313767 0.15724441 -0.19259663 0.34702843
0.07008864 -0.107300796 0.16341701 -0.21617663 -0.2717577 -0.1651482 0.2536695 -0.20512716
0.17105626 0.01961905 -0.2711518 -0.18994334 0.2231229 -0.1981051 0.22840615 0.015158769
-0.041624047 -0.30237976 0.21257126 -0.074987225 0.09004489 -0.090964116 -0.1413561 0.06847884
-0.19218218 0.16770658 0.31547478 -0.18569283 -0.1972932 -0.06275728 -0.27587405 0.115410194
-0.17133714 0.20962238 0.24398941 0.20927203 -0.05970275 -0.18824218 -0.26183 -0.15489018
-0.29840216 -0.04999912 0.339132 0.082130045 0.17940842 0.18728334 -0.2427942 -0.18261689
0.1412556 -0.25009063 -0.103876755 0.26484093 0.11060321 -0.028301008 0.29823834 -0.038562387
-0.26991913 0.1992758 0.25887623 0.31133217 -0.014365728 0.022062482 -0.20800214 0.26220098
-0.29004008 -0.32856536 0.17104957 0.042218037 0.28385648 0.18721627 0.069714434 -0.16036245
-0.05348041 0.2185594 0.14068197 0.27243814 0.17414175 0.22297807 -0.28816292 0.26143426
-0.29536816 0.20948501 -0.22288285 0.11467961 0.27642465 0.040262796 -0.19882289 -0.23673008
0.19359429 -0.2562524 -0.19288538 -0.13824722 0.2519672 0.18942562 0.25352505 0.20118007
0.2976579 -0.17936638 -0.15709901 0.019201882 -0.32718438 0.29322326 0.27537873 0.020844227
0.12344091 -0.2620407 -0.26225936 0.15746994 0.17432414 0.0042614415 0.083569236 -0.32316652
-0.32404956 0.038422424 -0.2911264 -0.26070487 -0.23241806 -0.039552376 0.2710595 -0.25260997
0.18155263 0.18562503 0.3005214 0.0017598089 -0.37097263 -0.060430266 0.018353939 0.10003703
-0.3161497 -0.06489635 -0.32592514 -0.23141351 -0.1378033 -0.20211059 0.24097675 -0.30270314
-0.11004818 -0.11619975 -0.33709204 -0.3830872 0.19494653 0.040315773 -0.01809388 0.17053199
-0.019613545 0.10788406 -0.08851054 0.32410842 -0.012208653 0.0313755 -0.027619014 -0.0360155
-0.15623716 -0.31560606 -0.24835074 -0.32287225 -0.2554807 -0.29401866 -0.07401797 -0.32420588
0.022467338 -0.031477526 -0.3058011 -0.2922731 0.32174838 -0.03703749 0.043554604 0.18763557
0.05191621 0.17475182 -0.082126044 -0.06128801 0.20747437 -0.0932365 -0.30372694 0.25470123
-0.023378205 -0.28128195 0.05625064 -0.15714721 0.104824066 0.027516976 -0.1939392 -0.15458243
0.16770187 0.37336683 0.09023553 -0.1254743 0.14150931 -0.093492046 0.3248606 0.21317679
00000000: c799 a0bd 2af2 fc3d 9a46 94bc 0f9a 0cbe
00000010: 3df3 483e 2773 95be 81b8 4a3e 1f2a 50be
00000020: 34c4 4c3e b908 8abe b982 98be 58d7 81be
00000030: 8f2a 823e a06b 053e 0e9a 563e 32a0 3d3d
00000040: 4e18 183e 0977 103e ffa3 da3d bd0e 9fbe
00000050: c6a8 473d 440e 21be 5ca9 b33d 04dc 39be
00000060: 407b 18bd 597f af3e fa3a 0a3e d1d0 73be
00000070: 7600 82bd 710b 79bc cefa 163e bf51 2dbe
00000080: ca56 0dbe 9124 863e d0ef 293e 926b 2e3d
00000090: 4ff8 833e 2e48 dcbd 76c4 623d ada4 233e
000000a0: 6c7a 82be 62ac 38be ff24 b23d 175d 0abe
000000b0: 8e86 1d3e 1206 903e d7cb e8bc 8a8d d93c
000000c0: d962 af3e 9512 663e 5f36 6bbe 3351 983e
000000d0: ab54 e03c 8b33 2d3d d636 f3bc d5db 3bbc
000000e0: f872 833d 93a4 243d 5d67 463e 0b0e 80be
000000f0: f6be be3d ae04 213e 0d38 45be b6ad b13e
00000100: a28a 8f3d 85c0 dbbd ca56 273e 685d 5dbe
00000110: d323 8bbe 9c1c 29be f8e0 813e db0c 52be
00000120: 5f29 2f3e 21b8 a03c 69d4 8abe 8280 42be
00000130: 547a 643e 10dc 4abe 4de3 693e 7c5c 783c
00000140: fa7d 2abd 85d1 9abe 48ac 593e e792 99bd
00000150: 7569 b83d 654b babd a7bf 10be a23e 8c3d
00000160: 68cb 44be 46bb 2b3e e985 a13e 4326 3ebe
00000170: 3b07 4abe e486 80bd 5d3f 8dbe 2e5c ec3d
00000180: 0173 2fbe 40a7 563e 5cd8 793e 684b 563e
00000190: df8a 74bd 8fc2 40be 950e 86be 889b 1ebe
000001a0: 2bc8 98be e1cb 4cbd b6a2 ad3e cc33 a83d
000001b0: d7b6 373e 34c7 3f3e 0b9f 78be ecff 3abe
000001c0: 4fa5 103e e10b 80be 56bd d4bd 3b99 873e
000001d0: f083 e23d 84d7 e7bc b2b2 983e 98f3 1dbd
000001e0: d732 8abe f50e 4c3e 6d8b 843e ee66 9f3e
000001f0: 3b5e 6bbc 61bc b43c 83fe 54be 353f 863e
00000200: 2280 94be b839 a8be 9e27 2f3e d2ec 2c3d
00000210: a355 913e 9fb5 3f3e 71c6 8e3d 0e36 24be
00000220: 460e 5bbd 09ce 5f3e ef0e 103e 037d 8b3e
00000230: 3752 323e 5d54 643e 178a 93be b6da 853e
00000240: 7f3a 97be 3d83 563e 673b 64be 25dd ea3d
00000250: 8887 8d3e 9aea 243d 3a98 4bbe 5f69 72be
00000260: 953d 463e 8433 83be bf83 45be ae90 0dbe
00000270: d801 813e caf8 413e 09ce 813e 2602 4e3e
00000280: 9e66 983e d2ab 37be 90de 20be 444d 9d3c
00000290: b684 a7be 5c21 963e 71fe 8c3e 83c1 aa3c
000002a0: 96ce fc3d 332a 86be dc46 86be cd3f 213e
000002b0: 0782 323e 90a3 8b3b 5926 ab3d 1576 a5be
000002c0: d3e9 a5be d560 1d3d 850e 95be 1c7b 85be
000002d0: 00ff 6dbe ac01 22bd 50c8 8a3e 1856 81be
000002e0: efe8 393e 7d14 3e3e f1dd 993e 63a9 e63a
000002f0: 20f0 bdbe ba85 77bd 005b 963c 37e0 cc3d
00000300: 60de a1be 61e8 84bd a9df a6be aaf7 6cbe
00000310: 4f1c 0dbe 14f6 4ebe 9cc2 763e e8fb 9abe
00000320: f160 e1bd 22fa edbd 5497 acbe 0124 c4be
00000330: 10a0 473e 2722 253d 9e39 94bc f09f 2e3e
00000340: 96ac a0bc 51f2 dc3d 0445 b5bd 8af1 a53e
00000350: cd06 48bc 9983 003d 4541 e2bc fd84 13bd
00000360: a2fc 1fbe 1e97 a1be a84f 7ebe 834f a5be
00000370: 5ece 82be 9d89 96be bc96 97bd 50fe a5be
00000380: 6c0d b83c 94ee 00bd f691 9cbe d2a4 95be
00000390: 34bc a43e a0b4 17bd 5066 323d 8a23 403e
000003a0: 18a6 543d 24f2 323e b331 a8bd 2309 7bbd
000003b0: 2974 543e c7f2 bebd 1982 9bbe 3368 823e
000003c0: a683 bfbc 3004 90be 1267 663d 33eb 20be
000003d0: 00ae d63d 486b e13c ff97 46be db4a 1ebe
000003e0: 0aba 2b3e f029 bf3e 68cd b83d 567c 00be
000003f0: d1e7 103e c278 bfbd 2154 a63e 044b 5a3e

conv4.bias f4 [64]
-0.18797286 -0.3236588 0.15970215 -0.27468494 0.09672213 -0.31041512 -0.2868867 -0.13061118
-0.22101626 -0.25044963 -0.003168156 -0.20003566 -0.24869904 0.2821652 -0.23935072 0.16495532
0.24596985 -0.09578641 -0.2958088 -0.11381102 0.12201897 -0.32269156 -0.1297049 0.059416063
-0.19892022 0.08297806 0.008464497 -0.28339526 -0.11562815 0.02698411 -0.31505162 -0.2477313
-0.043621987 0.055759486 -0.2783751 0.008566873 0.27388394 0.29026625 0.19309245 0.3190006
0.07033031 -0.2740803 -0.0010898078 0.09224096 0.177661 0.22306494 -0.3078913 0.17419851
-0.009284483 0.15299432 0.28890115 -0.06780522 0.22296916 -0.00674046 0.22232525 0.1550744
0.26712298 0.3095141 0.20854251 0.31890565 0.26199505 -0.08207531 -0.041529216 0.110707164
00000000: f57b 40be 9bb6 a5be f688 233e 81a3 8cbe
00000010: 4116 c63d bbee 9ebe d0e2 92be f0be 05be
00000020: 1652 62be ef3a 80be d6a0 4fbb 26d6 4cbe
00000030: f6aa 7ebe f577 903e 5b18 75be 0cea 283e
00000040: 85df 7b3e aa2b c4bd 4074 97be c115 e9bd
00000050: 15e5 f93d d437 a5be 5cd1 04be 425e 733d
00000060: beb1 4bbe 67f0 a93d acae 0a3c 2f19 91be
00000070: 74ce ecbd c80d dd3c 724e a1be 46ad 7dbe
00000080: f8ac 32bd 0f64 643d 2e87 8ebe 125c 0c3c
00000090: 843a 8c3e c79d 943e 07ba 453e 0c54 a33e
000000a0: 5609 903d 4154 8cbe e2d7 8eba d4e8 bc3d
000000b0: c4ec 353e 236b 643e eea3 9dbe 1861 323e
000000c0: f21d 18bc 8baa 1c3e daea 933e 77dd 8abd
000000d0: 0752 643e 14df dcbb 3ba9 633e d3cb 1e3e
000000e0: 58c4 883e a278 9e3e 2b8c 553e 9a47 a33e
000000f0: 3724 863e 1a17 a8bd 8a1a 2abd 70ba e23d
